LSTM/stock_Model/1234.pth (torch, 131029 bytes, 9 tensors)

lstm.weight_ih_l0 f4 [200, 5]
00000000: 3df2 863e f1b1 2e3f 1936 e43e ae6d 353f
00000010: d540 d93e ada0 dd3d 0218 ef3d dc49 c53d
00000020: 4c2b 21bd 9be2 153e d167 b83e 7067 413e
00000030: cf98 c03e ee06 0a3e e19a 82be 9446 04be
00000040: ecc0 903a 1e88 b5bd 098a 3a3d f286 1dbd
00000050: 0520 76be 1d73 c13c a9c7 d9bd 04ab 52be
00000060: df71 1d3e 5f9f 5d3e b11e c53c ec65 6a3e
00000070: c82f 963e 4580 18be b124 02be a054 51be
00000080: 1603 853d b67d c33d ecd4 9c3e 0ba9 3b3e
00000090: 48b9 54bc d77a 893d acf9 303e 73b9 453e
000000a0: f528 d43e a877 dd3e bb97 983e 2a67 dd3e
000000b0: 7363 4f3f 88cd 09bc ad1b 20be ee84 c5bd
000000c0: d285 943c 03fd 6abd 8472 12be 4001 af3d
000000d0: b19d 71bd 20f4 453d 2fc2 a53e 637c bd3d
000000e0: 8a6a 24bc bc5f dcbd a676 173d c482 0b3f
000000f0: ed6a 133f cf8c 243e e958 6c3e 4118 7f3e
00000100: 7387 a53e 3c9d 0dbe 76ce d9bb 6ff1 02be
00000110: 3c7b 3b3d 34f1 bebd 56a4 243e 9bcb 983e
00000120: 7373 f53d 3f9c 613e ec7e ca3d 1498 ec3d
00000130: dccc b63c a50d f53d bb93 ba3d fa97 4bbe
00000140: a0e5 bd3e 66d4 1a3e f584 7f3e ead4 023f
00000150: b1f5 48bd ac03 1cbd 62a2 a03c fad9 a83d
00000160: 6d39 833e 549f 8f3f 897d 2c3e b096 e33d
00000170: a21c fe3d a83b 653d 9b44 db3d 5d50 88be
00000180: fe8e d2be bfe2 01bd 7d1e 1abe 425f c93e
00000190: 674b 433c ccfd 1a3f ae7c 7139 2b41 a83e
000001a0: 0e4c a33f 8bc8 0d3d 9b18 9f3d fb96 ce3d
000001b0: 63e7 923d 1b14 0bbe be33 393e 9a3f 813e
000001c0: 4b4d 793c dc32 643e 0766 a03e 7b02 c63d
000001d0: f52d fb3d 65ff b33d 8146 623d 1350 1e3e
000001e0: 517d 6d3d 3ac8 aabb 360f da3c d1e6 1a3e
000001f0: 0452 28be 05b6 113d 7086 84bd 4444 2a3d
00000200: 04cb 863c c4b9 54bd 3563 3ebe dcd6 20be
00000210: 84b8 98be d4b8 3fbe add1 e83e 224a 183e
00000220: 6a37 3b3e e10e 4a3e 6272 d2bd 4678 ce3d
00000230: 0bb7 233d 684a 173e b9b1 7f3e cfef 6f3e
00000240: 11bd 463f 529b 923d 64cc 5c3e f906 523e
00000250: 4a81 273e 60dc 263e 9473 12be 87a9 c23d
00000260: f4b5 d5bd 0175 8abd 47f6 b73e a998 8a3d
00000270: dea7 293e 884f 9d3e 282b 793e 88fc 743e
00000280: 2544 173e 315a df3d 68b0 ea3c 67ff 5d3e
00000290: 865f 0ebd 651c 133e 799b e23c eaf4 203c
000002a0: a87b cc3d 48c1 f43d b123 79be f62f 6bbe
000002b0: 20f7 8fbe 4fec 7fbe 2bac 933d 6982 a0bc
000002c0: d9d0 d43a e410 be3d c8b6 8b3c 54a1 ff3e
000002d0: 70f5 9d3d 154f cf3c 8113 4e3e 6423 7c3e
000002e0: 954a ff3d ff0b 5fbd ed0a dfbd 9bb6 0a3e
000002f0: b7b8 2bbd 77f7 873e aa8a 0c3d f971 083e
00000300: 7a2e 723e 293f 2b3e a29e 193e b41e 3ebd
00000310: df44 31be 2acb 68bd 8bba cd3d 9de1 73bd
00000320: 4c76 9cbc 6f02 923d f981 9c3d 6a90 13bd
00000330: f0b6 613e 70c3 d33d f85e 5c3d 65af 913d
00000340: a151 dc3b 270c f0bc eeed fb3d b1bb 10be
00000350: fc61 083e ff2d c73d 750e 29bc 720e 333e
00000360: fb44 bebd e151 6b3d 5a1d 753d d771 d13d
00000370: 7145 4c3d ff07 313d 89d1 52be 4c1d 253d
00000380: 2752 703e 1c89 20be cb38 4fbe 367a 95be
00000390: 9a03 38be f81c db3e cc21 153f 28eb 573d
000003a0: 5678 0e3f 6d1e b13e 79e0 00bf 5cd9 da3e
000003b0: 2946 7b3e e6a0 ba3e 68ed ca3e f8f5 0bbe
000003c0: f348 4e3e 31f0 323e fbc2 733e 2902 473e
000003d0: 252d edbd a0ff 56bc 7a11 18bd 1b16 06be
000003e0: b5fb d1bd e8ab 943e eada 15be 65b8 f7bd
000003f0: 1d24 b63c cff2 8a3e 4298 8fbe f40e 49bd
0.26356688 0.6824027 0.44572523 0.7087048 0.42432275 0.10821662 0.11674501 0.09633228
-0.03934793 0.14637224 0.36016706 0.18887115 0.37616584 0.13479206 -0.25508788 -0.12917548
0.0011043823 -0.08863853 0.045541797 -0.038458772 -0.24035652 0.02361446 -0.10633785 -0.2057305
0.1537547 0.21642826 0.024062486 0.22890443 0.2933333 -0.14892681 -0.12709309 -0.20442438
0.06494729 0.09545462 0.30631196 0.18326204 -0.012983628 0.06712883 0.17282742 0.19309025
0.41437498 0.43255353 0.2980326 0.4324277 0.8101112 -0.008410819 -0.15635557 -0.09644495
0.018130217 -0.057370197 -0.14301497 0.0854516 -0.058988277 0.04832852 0.32374713 0.092522405
-0.0100351665 -0.107604474 0.036978386 0.5449641 0.5758503 0.16069339 0.23080792 0.24911596
0.32329902 -0.13829511 -0.0066469265 -0.12787412 0.045771822 -0.093233496 0.16078314 0.2984284
0.11984911 0.2203226 0.0988749 0.11552444 0.022314481 0.11965493 0.091102086 -0.19882193
0.37089252 0.15120086 0.24953063 0.5110613 -0.049062435 -0.03808944 0.01960868 0.08244701
0.2562975 1.1220498 0.16844763 0.11112726 0.12407805 0.055965096 0.10706445 -0.26623812
-0.4112472 -0.031710383 -0.15050693 0.39330488 0.011919833 0.60543513 0.00023029998 0.3286222
1.2757585 0.03461508 0.07768365 0.10087391 0.0717304 -0.13581888 0.18086144 0.25243837
0.015216182 0.22285026 0.3132784 0.09668442 0.12264625 0.08788947 0.05524302 0.15460233
0.05798084 -0.005211857 0.026618581 0.15127112 -0.16437536 0.035573978 -0.064709544 0.04156901
0.016454227 -0.051934972 -0.18592532 -0.15706962 -0.29828274 -0.1872285 0.4547247 0.1487203
0.18282858 0.19732238 -0.10275723 0.10081534 0.039969485 0.14774477 0.2497014 0.23431323
0.7763224 0.07158531 0.21562344 0.20510472 0.16357914 0.16295004 -0.14301902 0.09504991
-0.104350954 -0.06760598 0.35930082 0.06767399 0.16567943 0.3072474 0.24332869 0.23924458
0.14772089 0.109058745 0.02864857 0.2167946 -0.034759067 0.143663 0.027662026 0.009824017
0.09984523 0.11950928 -0.24330021 -0.22967514 -0.2811823 -0.24992488 0.07210573 -0.019593434
0.0016236558 0.092805654 0.01705493 0.4992777 0.07712829 0.025306264 0.20124628 0.24622875
0.12465397 -0.0544548 -0.10890756 0.13546221 -0.041924205 0.26555988 0.034311928 0.13324727
0.23650542 0.16723312 0.1500192 -0.046416 -0.17311428 -0.056834377 0.10045346 -0.059541333
-0.019099377 0.071293704 0.07641978 -0.036026396 0.22042441 0.10340011 0.053801507 0.07113532
0.006723598 -0.02930267 0.12301241 -0.14134099 0.13318628 0.0972557 -0.010318388 0.17485979
-0.09290501 0.057451133 0.059842445 0.10226791 0.049870912 0.043220516 -0.20587744 0.040311143
0.23468839 -0.15677303 -0.20236509 -0.29194802 -0.17970124 0.4279554 0.58254695 0.052714497
0.5565237 0.34593526 -0.5034252 0.42743957 0.24538483 0.3645088 0.39634252 -0.13668048
0.20145015 0.17474438 0.23804848 0.19434418 -0.11580876 -0.013122469 -0.037126042 -0.1309437
-0.102530874 0.29037404 -0.1463429 -0.12095717 0.022234017 0.27138373 -0.2804585 -0.049086526

lstm.weight_hh_l0 f4 [200, 50]
00000000: fa51 de3e df7b e1be d575 ecbe ee0e 12be
00000010: 2c06 b3bd 8ae5 38bd 5641 bd3e 8a93 f9be
00000020: e51b 44bf 9a37 aebe b315 b2be cfc3 a63e
00000030: bc04 19be 8e89 f1bd a6a3 73bd 22c4 9ebd
00000040: 0920 003f 9de7 10be 3bdf 0e3e 89bb cc3d
00000050: 42aa 69be 3f7a 613d c864 1bbe f337 963e
00000060: 504b e0bd 23d9 5dbd 4ddf 513d d31a dbbe
00000070: 90d8 95be 44f7 dc3e c556 7a3e 6787 c33d
00000080: c2ed 9fbe 2892 b3be 1f82 eabe db88 1ebe
00000090: aefe c2be b531 6e3e 0f37 72bd 77cd 103e
000000a0: 5fd6 003d c475 ae3e 2805 0e3e 07a6 2d3d
000000b0: 7a16 94bd b29a 1c3e 77a5 ee3e 4421 30be
000000c0: 7994 1d3f 0ebc 99be 39da debd a286 333d
000000d0: 934b 1d3e ad14 c53d a280 30be d905 893d
000000e0: 7cb9 1cbe c508 90bd 23a0 bd3d b06f d23d
000000f0: a47f e03d 2422 023e 6758 31be 23d8 0ebe
00000100: e4c6 8bbd f262 0d3e baab 32be f2ed dd3d
00000110: fa44 bcbd b4d7 c6bd beb2 28bc b0de dabd
00000120: 94c6 14be 2e63 583d 11d2 e5bc dfc9 82bd
00000130: e980 b23d f583 b5bc ff5c 613d 59c1 173d
00000140: fdd9 963d e2a2 073e 12a9 77bd 287c 2d3c
00000150: 46f4 0f3d 3767 063c 4d39 103e 01ff 90bc
00000160: 0c65 4d3c 752c db3d b3a2 a43d 566c bbbb
00000170: 6dd5 da3d 55ba 093e 72ad 7a3d 1c29 293e
00000180: 1b0d 0e3e 7026 71bc ba87 013d 4745 2b3a
00000190: 57a0 41bd 38fb e1bd 0006 4fbe 18ae 5a3d
000001a0: 5fdc 133e 7d99 85be 41e7 27be 5054 79be
000001b0: 4928 003e 2573 a5be e477 53be 7479 9cbe
000001c0: 6c14 183e ea49 3f3e 5713 c43d 9688 48be
000001d0: 8b9f 193f a6bb 1dbf 5562 353c f611 d13e
000001e0: 1091 ac3d 2282 9b3d 82f2 3fbd 066c 5fbd
000001f0: 9631 edbd c67f 66be c57d bf3d c2ff 81be
00000200: 6f30 66be 4bc9 3a3e ba6d d93d e337 933e
00000210: b311 d2be f098 d6bd 736a b7be 3597 4dbe
00000220: d906 93be 673b 003e 0c0c afbe 288a e43d
00000230: eeab 84bd 6db4 303d d384 e6ba ef31 c33e
00000240: 603c 87bd 817e 423e b069 8c3d 7e4a b8be
00000250: 001f 553e 0f03 433c 8d86 2dbe 3d90 a5bd
00000260: bb3a edbd eb4d 153e 4ff8 b33c f8ac 7ebc
00000270: 3d11 aa3d 23ee cd3d 4620 803e 6599 1abe
00000280: 66c0 16bb bcf3 2cbe 1db2 fbbd c68a ccbe
00000290: d105 4ebd a449 113e 5e0d 963c 7576 d9bd
000002a0: bb1c 6a3d 759c ccbd 816c b03e 0071 70be
000002b0: c032 6abe c38e 6abd 5854 4dbd 3bf6 87bd
000002c0: f872 823d 8585 d6bc d73c b7bd 401b 88bd
000002d0: a5ca e3bd 954f c5bd 3e37 513d 55cd 823d
000002e0: 6c0e 543d 8fcb f63c 5e0e f5bc 54e0 31be
000002f0: 93e6 193e f9e0 b0bd 9921 d1bc b54d ccbd
00000300: 1365 8dbd 7ae7 813d dd22 ccbc 84f8 19bd
00000310: 5ac8 b63d a44f 353e 06cb 353e d7bb 8fbe
00000320: b912 a8be f057 883d 281c b03d afb2 b13d
00000330: 52df 013d dcbf 9a3d b61d 923e 2c17 8b3d
00000340: 0b6a b8bd f443 963d 8e51 23bd da0c fcbb
00000350: a781 c73d 734b 97bc a3f2 78be ac57 803e
00000360: dd52 523d e0ea 8abe f739 803e 614c 0bbe
00000370: 8dcf 3e3e 8fd0 50be b678 cebe fbca b93b
00000380: fdcc 973d 63ed 0f3e 911c 743e 44e7 83be
00000390: 1efd e4bd 86f8 6bbe 5244 7fbd f8ac 86be
000003a0: fd0a 4a3e 36d4 333d 9115 8ebe e473 d23b
000003b0: 911a bcbc e1a0 5b3c bcf4 863e 686c 063e
000003c0: 521b 87be d340 c5bd 2389 edbd 2b74 163e
000003d0: 9502 19be 31f5 c33d 0437 e33e e36b 1f3e
000003e0: 7760 ac3d 5d18 f1bd c4c4 24be a9d2 f8bd
000003f0: 863f c43c 8018 b63b 179a ccbd 3e8a cb3d
0.43421918 -0.4403982 -0.4618365 -0.14263508 -0.087414116 -0.04514078 0.3696391 -0.48745376
-0.76605064 -0.34026796 -0.3478218 0.32571265 -0.14943212 -0.117938146 -0.05948224 -0.07752253
0.5004888 -0.14150853 0.13952343 0.09996707 -0.22818854 0.055048224 -0.15175164 0.2933956
-0.10951865 -0.054162156 0.051238347 -0.42793903 -0.29266787 0.431574 0.24447162 0.0954731
-0.31236082 -0.35072446 -0.458024 -0.15481894 -0.3808493 0.23261149 -0.05913454 0.14140879
0.03145444 0.34074223 0.13869154 0.042394664 -0.072308496 0.15293387 0.46610615 -0.1720019
0.61554676 -0.30026287 -0.108814664 0.043829568 0.1536086 0.09623084 -0.1723657 0.066905685
-0.15305132 -0.07032923 0.09259059 0.10275209 0.109618455 0.12708336 -0.17318879 -0.13949637
-0.06825045 0.13807276 -0.17448321 0.108364 -0.09192844 -0.09709111 -0.010296522 -0.106870055
-0.14528877 0.05282896 -0.028054269 -0.0638616 0.08715994 -0.022157649 0.05502033 0.037049625
0.07365797 0.13245729 -0.060463972 0.010588683 0.035145067 0.008203319 0.14084359 -0.01769972
0.0125362985 0.10701839 0.08038845 -0.0057197018 0.10685239 0.13449986 0.061200567 0.16519588
0.13872187 -0.014718637 0.03162358 0.00065334555 -0.047272053 -0.11034244 -0.20217133 0.053388685
0.14439534 -0.26093665 -0.1639681 -0.24348569 0.12515368 -0.3231441 -0.20651203 -0.3056141
0.1485154 0.1868054 0.09574001 -0.19583353 0.6000907 -0.61614454 0.011070807 0.40834016
0.08426106 0.0759318 -0.046862133 -0.05454638 -0.115817234 -0.22509679 0.093501605 -0.2539044
-0.22479413 0.1824085 0.10616632 0.28753576 -0.41029128 -0.10478389 -0.35823402 -0.20077212
-0.28716162 0.1252266 -0.3418888 0.11159164 -0.064781055 0.043140817 -0.0017587192 0.38124034
-0.066033125 0.1899357 0.06856096 -0.35994333 0.20812607 0.011902585 -0.16945858 -0.08084152
-0.115834676 0.14580505 0.021968989 -0.015544169 0.08304069 0.100551866 0.25024623 -0.15097578
-0.0023002862 -0.16889852 -0.12289832 -0.39949626 -0.050298516 0.14188248 0.01831692 -0.10618297
0.057156306 -0.09990779 0.34457782 -0.23480606 -0.22870922 -0.057265054 -0.050129265 -0.066387616
0.06369585 -0.026186714 -0.08947151 -0.066458225 -0.11122636 -0.0963432 0.051078074 0.0638682
0.051771566 0.030126361 -0.029914077 -0.1737073 0.15029363 -0.0863666 -0.025528716 -0.09975759
-0.06904044 0.06342979 -0.024918968 -0.03759052 0.08924933 0.17706162 0.17753229 -0.28072998
-0.32826784 0.06657398 0.085991204 0.08676659 0.031707115 0.075561255 0.28538293 0.06791529
-0.09004601 0.0733718 -0.0398727 -0.0076919617 0.09741526 -0.018468594 -0.24311309 0.25066888
0.051348556 -0.2713232 0.25044224 -0.13603355 0.18633862 -0.20392059 -0.4032647 0.005669949
0.07412145 0.140554 0.23839022 -0.2576238 -0.11181091 -0.23044023 -0.062321015 -0.2630384
0.19730754 0.043903552 -0.2775083 0.0064225066 -0.022961887 0.013405056 0.26358593 0.13127291
-0.2638803 -0.09631505 -0.115984224 0.14692752 -0.14942391 0.09568251 0.4437791 0.155685
0.08416837 -0.11772225 -0.16090685 -0.12149555 0.023956072 0.00555712 -0.09990328 0.09938477

lstm.bias_ih_l0 f4 [200]
00000000: b87c a03e 9288 06be 9114 753d 449f d13d
00000010: 82ea b5bd b2bf b73c a384 b7bd 0f90 17be
00000020: 7938 9c3e 7e91 7e3d f383 72bc 3cb8 d03c
00000030: a6bd 4a3e 1f83 50be 73f9 3f3e 3a91 883c
00000040: 6780 df3e b728 253e b5b2 363d 4955 5b3d
00000050: 0b69 2e3e 7704 f13d 92ab d83c 022c ab3d
00000060: fef2 55bd 2824 a4bd ea99 01be 6c64 a73e
00000070: a3a6 db3d 2e6b 75bd e879 23be ca44 f03d
00000080: 307d 063e 1138 083d 53ba 4c3e d22e c8bc
00000090: 6d25 9fbd e6bf d3bd 6d7f 543d 5114 d7bd
000000a0: 2741 28bd 86bf 1cbe 173d 733c de2c ca3d
000000b0: 6af8 0f3c 1dcd 0dbd e7cb a93e 81ea 793e
000000c0: bce8 9c3e d473 d8bb bff5 f73c 782e 673c
000000d0: 681f 28bc 8473 4cbe a8de 1cbe 28ee c53d
000000e0: 2352 1c3e b793 2dbe f5c7 063e 0592 613d
000000f0: 49ec 10be 1a21 d83d 2e38 99bd dfa2 063e
00000100: 3537 313e 4e4a 5cbc b860 3f3d c768 3a3e
00000110: 6673 0bbd be61 db3e a0d6 8abc a258 19be
00000120: 2834 dfbd 93e5 0ebe 63ce 3cbe 2a47 8fbe
00000130: 9d54 543c 69aa 7b3e 4fd7 6cbd aac3 b6bd
00000140: 9c21 e03d 9a5f 68bc 871a cd3d 847e 20be
00000150: 82ce 3fbd 588c f7bd dc29 50be 4017 1dbe
00000160: fc1e 303d 197b 353d 5062 07be 380a 243e
00000170: 29fa 773e 3d0e 233e 1bba 723d aa7e 3dbe
00000180: 85a6 d23d 9c7f b0bd e705 043e bdb2 223c
00000190: 9545 3b3d 519d 683c ed35 b53d 9742 bc3d
000001a0: 8ddd 99bd fc59 ffbc 6839 e83d f4d9 deba
000001b0: 5ea4 9bbd 584c 973c 7071 e9bc 16d7 8a3d
000001c0: a031 84bd a8f3 d0bd 8a28 6fba e83d 173e
000001d0: 9f90 b03d 1dbc 173d 19f8 2e3e 4d21 39bc
000001e0: cb88 9ebd 67d0 80bc c06f 09bd 4366 543d
000001f0: 6e8f 9ebb 0998 3bbd f452 2fbe 8c41 103d
00000200: 2222 bc3d 48c6 2abe 30c3 0f3d 9a5b 0ebe
00000210: cf2b 1a3e 3925 373d fbca 0c3e 8a1c 4b3e
00000220: 6fb7 dd3d 9946 433d 665d d43d 9a75 abbd
00000230: b454 d23c 8575 23bc 5d15 9a3d ea09 4b3e
00000240: 9614 7abd d036 0abd d675 c23d 385c 403d
00000250: b5b3 b73d 4f4e 18be 7a67 b23e 7437 23be
00000260: f1e3 a5bd 4eb5 e4bd adb7 58be 04a7 a53c
00000270: 45c0 863d b498 2d38 a934 903e 76df 523d
00000280: 118d 073c dff8 b2bd 4b0b a53e 18c2 3bbe
00000290: a8d8 393d ff90 d53c a103 cd3e d9ff f63d
000002a0: a076 65bc 796e e33d 6240 0e3e 8738 77bd
000002b0: e47f 093e d4da a23a 738b 62bd 96fb 803d
000002c0: e8be a03d 6f36 b93e e5c3 7f3d e85b 07be
000002d0: 881c 9dbc a5ac 6f3e b2ac 283e 0904 ce3d
000002e0: 89f0 b33d 1e94 213e abe3 df3c 843d 693d
000002f0: ec49 1b3e b1a8 6ebe ae81 5dbd 095f f8bd
00000300: 937f e7bd 0653 26bb c579 34be c1e5 8abd
00000310: 5a0a ae3e 59f8 a53e 7673 653e cfe5 013d
0.31345153 -0.13138035 0.059834067 0.10235456 -0.088826194 0.022430275 -0.08960845 -0.14801048
0.30511835 0.06215047 -0.014801967 0.025478475 0.19798908 -0.20362519 0.18747501 0.016670812
0.4365265 0.16128813 0.044604022 0.05354813 0.17032258 0.1176843 0.026448999 0.08358003
-0.05223369 -0.08014709 -0.1265637 0.32693803 0.10725143 -0.059916668 -0.15964472 0.117318705
0.13133693 0.033256594 0.19992952 -0.024436388 -0.0777081 -0.10339336 0.051879335 -0.10501922
-0.04107776 -0.15307435 0.014846108 0.09871839 0.008787254 -0.03461944 0.33163378 0.24405862
0.30646312 -0.0066056047 0.030268548 0.0141102 -0.010261394 -0.1996594 -0.15319312 0.09664565
0.15265708 -0.1695088 0.13162215 0.055070896 -0.14152636 0.105531886 -0.074814186 0.13148068
0.17306216 -0.01344545 0.046723098 0.18204032 -0.0340456 0.4284801 -0.016948044 -0.14975217
-0.1089862 -0.13954763 -0.18438105 -0.2798398 0.0129596265 0.24576725 -0.05782252 -0.08924039
0.109439105 -0.014182949 0.10014825 -0.15673262 -0.0468278 -0.12087315 -0.20328468 -0.153409
0.0429983 0.04430685 -0.13221097 0.16019523 0.24216522 0.159234 0.059259515 -0.1850535
0.10285667 -0.086180896 0.12892877 0.00993031 0.045720655 0.014197663 0.08848176 0.091923885
-0.075129606 -0.031170838 0.113390744 -0.0017002211 -0.0759971 0.01846902 -0.028496474 0.06779306
-0.06454778 -0.10202724 -0.0009123167 0.14769709 0.08621334 0.037044633 0.17086829 -0.011299443
-0.07740935 -0.015724374 -0.03355384 0.051855337 -0.0048388755 -0.04579929 -0.17121488 0.03521876
0.09186198 -0.16677201 0.035098255 -0.1390213 0.15055774 0.044713233 0.13749306 0.19835106
0.10826003 0.04767475 0.10369377 -0.0837204 0.025675155 -0.009976749 0.07523606 0.19828
-0.06105479 -0.03374368 0.09495132 0.046962947 0.08969823 -0.14873622 0.3484457 -0.15939122
-0.08100117 -0.111673936 -0.21163817 0.02022124 0.06579641 4.138863e-05 0.28165177 0.05148264
0.008273379 -0.08738875 0.32235178 -0.1833576 0.045372635 0.026070116 0.4004183 0.12060518
-0.014005333 0.11105055 0.13891748 -0.060356643 0.13427693 0.0012424835 -0.05530877 0.06297986
0.078489125 0.36174342 0.06244268 -0.13218653 -0.019178644 0.23405702 0.16472128 0.100593634
0.08786113 0.15779158 0.02733024 0.05694343 0.15164918 -0.23306538 -0.05407875 -0.121275015
-0.1130363 -0.0025379076 -0.17624576 -0.06782103 0.33992273 0.32416037 0.22407326 0.031713303

lstm.bias_hh_l0 f4 [200]
00000000: f8b0 913e 0d0e 34be b3a9 6abd d188 e3bc
00000010: 14d2 59bd 85bd 1f3e ca68 c03c 3d85 30be
00000020: 0564 5b3e 22a2 44bc b1f3 5bbd d450 8d3d
00000030: 1070 c23e 4764 213d a61f d23d 4a21 0e3d
00000040: b9ab b33e aae4 8c3e ca29 c7bc f27b 3b3e
00000050: 6ebf 0abb 5ec3 c4bd 8660 b6bd 103e 673d
00000060: 6cd8 45be 42b4 1e3d 2229 c43d d2d2 9f3e
00000070: 818b e63d d29e 1a3d f8dc 2a3d d464 6e3e
00000080: 8d15 3f3e c2f3 abbd df27 2d3e 2135 6fbd
00000090: d9a1 8f3d 4f41 bfbb 2e5b b53d 7ad3 2dbe
000000a0: ca05 093e 232c af3d 630b 36be 41a8 6c3e
000000b0: 28c6 21be 81cd 83bc 79e8 a93e 41eb 9e3e
000000c0: 0aa2 163e 08ee 8f3d 8707 953c a0ad 1a3d
000000d0: 17f3 11be 8a42 18be 1326 89be bedd f0bd
000000e0: c87f 92bd dc53 04be f39f 723d c126 653e
000000f0: 0e65 943d f532 133e 7d63 f4bd 5ca8 593d
00000100: fcf4 9c3d 3bf6 0b3e f213 7dbd 59e7 123e
00000110: 19e8 5f3d 1305 3a3e 3afb adbd f1a6 963d
00000120: f54a 473d c382 ff3c db70 b53c cd46 05be
00000130: ddd4 f83d 410d 0d3e d540 173e e0f2 c83d
00000140: f3c5 a73c d169 ec3c 0190 613d 4db1 b5bd
00000150: 8434 f23c 88ac 7abd 53cc ffbd 2e72 533b
00000160: 899b 8fbd 5035 6fbc fde1 aebc ba0d 9e3d
00000170: d5ac 543e 3d73 11bc e735 12be 7db3 b1bd
00000180: b786 963d 594a 48be 262d 593e 51bb 0d3e
00000190: 4713 e3bd 1a4d c63c 5699 47bd 4a6f 2bbd
000001a0: ecbb 14bc cd1a 0b3e e877 d73d d492 8b3d
000001b0: b412 cdbd 9810 d7bd 2775 fd3c e864 823d
000001c0: 10f4 d3bd 3868 f1bd a9ea 43be 6e2c 0e3c
000001d0: 6027 76bd 271f 0b3e bad0 87bd 38b0 2c3d
000001e0: 1d3a 08bd 6c4e febd 157c e8bc ab7e 67bd
000001f0: e1b6 02bb 9d10 273e ea7b cc3d 8560 d7bd
00000200: c050 b93d 5777 d53c 3883 f2bb 42ce 0dbe
00000210: 1838 1e3d 8b24 2ebc d1ed a7bc 292d 0ebd
00000220: 2790 44bd 65b8 3dbe 4c95 073e 7400 353e
00000230: 18f0 74bd f3ba 1e3b 8700 b5bd 5256 b8bc
00000240: db8f aabd d3f0 44bd d3f0 22bc 8275 273e
00000250: 44fd 13be f213 8dbd 5339 3d3e fd4a 57bd
00000260: 30e4 323d 7ceb 16be 4795 62be 2a1e dd3d
00000270: 1295 3e3e 5112 13bd 2041 2d3e 8d05 0c3e
00000280: dc7a 213d 2d58 f9bd 4407 4f3e 4070 07be
00000290: 087a 28bd 2649 de3d 8d89 f23e 3d73 063e
000002a0: 3313 9abd 97ea f73d 7afc 2d3e 4742 043e
000002b0: 4125 9bbd 3a88 d83c cf39 953b 3ef8 133d
000002c0: 8182 7bbd f3b4 ba3e cc07 273e f8c1 17ba
000002d0: a918 86bd b12e 373e ed1d 053e 4035 0cbe
000002e0: 923e 6f3d b937 033d 9bf6 0c3d b351 debc
000002f0: 9bdc 8ebc cde8 4dbe 8b3b e13c 9b0c ca39
00000300: ff94 d6bd 9380 363e e359 2bbe 44bc b8bc
00000310: 3ee7 ca3e 818b e83e d8c7 583e 1de8 283d
0.2845533 -0.17583485 -0.057290744 -0.0277752 -0.05317886 0.1559964 0.023487467 -0.17238326
0.21424873 -0.012001546 -0.0536992 0.06900182 0.37976122 0.039402273 0.10259943 0.034699716
0.3509195 0.27518207 -0.024311919 0.18309 -0.002117123 -0.09607576 -0.08905129 0.05645567
-0.1932084 0.038746126 0.09578158 0.3121553 0.11257077 0.03774912 0.04171464 0.2328065
0.18660565 -0.083961025 0.16909741 -0.058400277 0.07013292 -0.005836643 0.08855282 -0.16975203
0.13381115 0.0855334 -0.17777781 0.23111059 -0.15798247 -0.016089203 0.33185175 0.3103886
0.1471025 0.07027823 0.018192066 0.037763238 -0.14252888 -0.14869133 -0.2678686 -0.11761044
-0.071532786 -0.12922615 0.05923457 0.22378065 0.07245837 0.14374907 -0.119330384 0.053139076
0.076639146 0.13668148 -0.0617866 0.14346065 0.054664705 0.18165998 -0.08495183 0.0735606
0.04865547 0.031190282 0.02214854 -0.1301529 0.121499754 0.13774587 0.14770825 0.0981195
0.020480132 0.028859051 0.055068973 -0.08871708 0.029566057 -0.061199695 -0.124901436 0.0032264101
-0.07012088 -0.014600113 -0.021347994 0.07717462 0.20769055 -0.008877573 -0.14278375 -0.08676813
0.073499136 -0.19559611 0.21208629 0.13840987 -0.11087661 0.024206687 -0.048730217 -0.04185418
-0.009078007 0.13584442 0.10520917 0.068151146 -0.10013333 -0.10501212 0.030939652 0.063669026
-0.103492856 -0.11787456 -0.19132484 0.008677585 -0.060096145 0.13586102 -0.06631608 0.042160243
-0.033258546 -0.124173015 -0.02837948 -0.056517284 -0.001994543 0.16314931 0.09984572 -0.105164565
0.09048605 0.026057882 -0.0074008964 -0.13848212 0.038627714 -0.01062883 -0.020499142 -0.034711037
-0.047989037 -0.18527372 0.13240546 0.17675954 -0.059799284 0.0024220317 -0.08837991 -0.022502098
-0.083282195 -0.04808123 -0.009945112 0.1635342 -0.14452082 -0.0688857 0.18478899 -0.05256175
0.043674648 -0.14738268 -0.22127257 0.10796769 0.18611553 -0.03590614 0.16919374 0.13673992
0.03942381 -0.12175021 0.20217615 -0.13226414 -0.041132003 0.10853796 0.47370568 0.13129897
-0.07523193 0.12105291 0.16990843 0.12915908 -0.07575465 0.026432145 0.0045540105 0.036125414
-0.061403755 0.36466178 0.16311568 -0.00057890965 -0.06547672 0.17888905 0.12999697 -0.13692188
0.05840928 0.032035563 0.03441487 -0.027138567 -0.017439177 -0.20108338 0.027494213 0.00038537834
-0.104776375 0.17822485 -0.16733508 -0.02255071 0.3962955 0.45418933 0.21169984 0.041236985

lstm.weight_ih_l1 f4 [200, 50]
00000000: cba5 75be 3dff e4bc 5654 c8bd e26e 89be
00000010: d3ec 723d 9f4f f63d 22eb 153d d5f3 ebbc
00000020: 0b84 d73e 1a4d 8d3e 69d5 803d 4130 413d
00000030: 35aa 0d3f e9ad 8b3c e524 023e 1413 d0bd
00000040: 8c15 85bd b05c 1abc bbcb c83d 7987 3bbc
00000050: db97 95bc 03ff 0f3e b24d 9ebe 3e57 6dbe
00000060: c508 373e 102b 8a3d 26f1 efbb 1bef 75be
00000070: 0dbe 5dbe 5110 a53e 4fef 803c 44b7 ae3e
00000080: e9cf c4bd 4f9b d7bd 9d59 0f3d 6691 0cbe
00000090: eb92 c3bd 11d1 9e3c 32a6 a1be 00bd acbd
000000a0: 9a4e 1cbd 93b8 cdbc b530 213d 4a58 afbd
000000b0: acb2 643d 3403 b43d 5c36 5dbc 4a73 4abe
000000c0: 2833 dbbd 311e 433e cf15 cfbd 7841 0f3e
000000d0: 300b cebd 38cb df3d a368 cfbc a98f 7cbd
000000e0: ef06 d63d 8272 893d 4615 a1bd 8508 28bc
000000f0: af07 133d bedc 023e c7c5 763c 28de f83d
00000100: b9b5 063e 92e4 8abb 7ded fcbd 9aec 4fbe
00000110: 1a0a 3a3d 3b68 0bbe 69df b03c 30ab 22be
00000120: 0ba6 833d 9454 3d3e 6051 493d 609f 2f3d
00000130: a1eb 183e 5345 0f3e bec7 acbd 66e9 77bd
00000140: 0b70 233c 16d2 183d 2764 273d 820a a53d
00000150: 6e92 47be 91a8 d5bd ebb5 febb 78c6 003e
00000160: 50fc 56be 77cf a43b 29a4 f63d 4b41 a9bd
00000170: 73e0 0e3e f5b4 cfbc 8420 ec3c 8ddc 833e
00000180: 6764 0cbe adf4 7a3e a8b5 6e39 b98d c03d
00000190: 6fb5 7c3f af50 80bc d02a b3be 9417 1cbe
000001a0: 719f d8be a4fd 883e 5b91 be3e c96a c5bd
000001b0: 4ea8 03bf 3ed9 983d 675d 973d 9d6b c33e
000001c0: 8e28 41be 1274 65be 4221 8ebd bc56 1cbc
000001d0: 5ff6 babd 8ffc 04be dbd9 90be 4508 c2bc
000001e0: 9c53 e0be 5b28 87bc 8868 fbbd 0e59 25be
000001f0: 2765 d3bd a783 53bd 8245 813e 10d5 2c3e
00000200: 2c03 febd f264 323e b015 88be 92d9 013d
00000210: 0e5d 623e 1c35 2dbd d1e4 c7bd 1eed 3e3c
00000220: 6cd5 a9be 348f b83d ad9f 023e d24c c43d
00000230: d038 b33e 30ff 0b3e 7353 4d3c 3556 2ebe
00000240: 4472 853d 3035 a53e ae84 c73d fa75 7fbe
00000250: c4a1 813d e585 7ebe 2803 873e 42ed 4cbe
00000260: 13e6 023e 47eb 98bd 9617 b0be 2927 32be
00000270: 8065 62bd acf8 1cbe d01c 203e 9fdf 0d3e
00000280: 4c87 59be 4889 0b3e d9c9 1dbe 611c 3bbe
00000290: c4b1 273e 68d8 4bbe d8b9 01be 6ea3 e8bb
000002a0: 014e 4abe cfca 2dbe 79ca c63d 39ed 8d3d
000002b0: 9a8a 58bc 141e c9be 76a8 87be b396 92be
000002c0: ac57 f2be b03c 5dbe a1a7 8abd 0ea0 5f3e
000002d0: 5de8 a13c b11a 173e 3d3a 57be fd2c 55be
000002e0: df0e 933e d9e4 20be dbe2 acbe e163 f63d
000002f0: 6fe4 77be 4de9 3abe 9bac 313e c743 9d3e
00000300: 4c5d 1b3c 84f7 51bb 3006 c3be e727 023e
00000310: 0815 0cbf cb6a a0be 3222 25be 8398 9bbe
00000320: 3b80 0340 8810 4cbe 04d6 e6be 8d76 9ebe
00000330: 10a3 a1be c4a8 ebbe 6208 b7bd bfc6 58be
00000340: c24b 80bf a4a7 213c 2ff8 60be a931 283f
00000350: 7922 753f 1648 223e 971b 343f 875b 43be
00000360: 69f5 423f c8a5 3bbf c857 09bf 2354 ae3e
00000370: 8551 72bf 3fd4 db3e ec69 fc3d 6fe3 75bf
00000380: 0df6 3fbe 1e2d 0ebf afc5 853f a67a a73e
00000390: e3e4 8dbf 6d9d 7f3f b218 5dbe c082 633f
000003a0: 25be 00bf ec7d e6be 0c7f a6bf 613b cbbe
000003b0: c848 96bf 336c 9a3e e748 babe c120 063e
000003c0: 3dc8 1a3f 4130 0e3e 010b c93d bd6f 68be
000003d0: a76e 87bd 274f e53e 9015 413f 7e0c bdbf
000003e0: aa63 183f 5046 7b3e fa8f f73e 3648 11be
000003f0: b580 e7be 19de 31bd 2ee7 23be 1e8b 903d
-0.23989026 -0.027953738 -0.09781711 -0.2684241 0.059307884 0.12026905 0.036601193 -0.028802792
0.42092928 0.27597886 0.06290705 0.04716516 0.5533784 0.0170507 0.12709387 -0.10159889
-0.0649825 -0.0094215125 0.098044835 -0.011445873 -0.018260887 0.14062123 -0.30918652 -0.23177812
0.17874439 0.06746495 -0.0073224483 -0.24016993 -0.2165453 0.3223901 0.015739111 0.34124196
-0.09609968 -0.1052767 0.03499757 -0.1372734 -0.09549507 0.0193868 -0.3157211 -0.084344864
-0.038160898 -0.025112426 0.03935309 -0.08561762 0.055834457 0.087896734 -0.01350173 -0.19770542
-0.10703117 0.19054486 -0.101115815 0.13989818 -0.100607276 0.10927433 -0.02531845 -0.061660443
0.10450541 0.06711294 -0.07865386 -0.010255937 0.035896 0.12779519 0.015061802 0.12151748
0.13155259 -0.0042386735 -0.12349985 -0.203051 0.04541979 -0.1361398 0.021590905 -0.15885615
0.064281546 0.18489295 0.04914987 0.0428766 0.14933635 0.13991289 -0.08436535 -0.06052532
0.009975444 0.03730973 0.040866997 0.08058645 -0.19489452 -0.10432542 -0.007773151 0.1257571
-0.20994687 0.0050296145 0.1204303 -0.08264407 0.13952808 -0.025354842 0.028824098 0.25754204
-0.13710175 0.24507399 0.00022765121 0.094020315 0.98714346 -0.015663473 -0.349936 -0.1524337
-0.42309144 0.26756012 0.37220272 -0.09639508 -0.5142869 0.07463311 0.07390862 0.3816804
-0.18863127 -0.22407559 -0.06939937 -0.009542163 -0.09129023 -0.12986968 -0.2829121 -0.023685584
-0.4381379 -0.016498735 -0.12275797 -0.16147253 -0.10322028 -0.051639225 0.25248343 0.16878152
-0.12402949 0.1742132 -0.26579046 0.03170163 0.2210581 -0.042286977 -0.0976044 0.011653213
-0.3317064 0.09011689 0.12756224 0.09584965 0.35004282 0.13671565 0.012532103 -0.17025073
0.06515935 0.3226714 0.097421035 -0.24947348 0.063296825 -0.24855764 0.26369596 -0.20012382
0.12783079 -0.074667506 -0.34392995 -0.17397751 -0.05527258 -0.15329236 0.15635991 0.13854836
-0.21243018 0.13626587 -0.1540903 -0.18272544 0.16376406 -0.19906771 -0.1266855 -0.0070995605
-0.19756319 -0.16971897 0.09706587 0.06930012 -0.013216639 -0.3928076 -0.26495713 -0.286306
-0.47332513 -0.21605182 -0.06770254 0.218384 0.01976412 0.14756276 -0.2101831 -0.20817943
0.28722283 -0.15712298 -0.33766827 0.12030769 -0.24208234 -0.1825306 0.17351 0.30715773
0.009482693 -0.00320384 -0.38090658 0.12710534 -0.5471959 -0.31331477 -0.16126326 -0.30389795
2.0547016 -0.19928181 -0.45085156 -0.30949822 -0.3156972 -0.46027195 -0.08937146 -0.21169566
-1.002312 0.009866629 -0.21969675 0.65700775 0.95755726 0.15847811 0.703546 -0.19077884
0.76155716 -0.7329984 -0.5364957 0.34048566 -0.9465564 0.42935368 0.123248905 -0.9605016
-0.18746205 -0.55537593 1.0450953 0.3271076 -1.1085476 0.9984959 -0.21591452 0.88871384
-0.5029014 -0.45017946 -1.3007522 -0.3969374 -1.1740961 0.30160674 -0.36383745 0.13098432
0.6046179 0.13885595 0.09816552 -0.22698875 -0.06612902 0.4478695 0.75423527 -1.4769437
0.59527075 0.24538541 0.48352033 -0.14187703 -0.45215383 -0.0434247 -0.16006157 0.070577845

lstm.weight_hh_l1 f4 [200, 50]
00000000: 8101 c13e 281e 883e 2529 eebc 4a81 f03d
00000010: a2b9 d73e dd8f df3c e64d 16be 23cc f13e
00000020: bebe 1abd a808 f63d 1428 ae3e 1d50 4e3d
00000030: 0260 833e 106a 26be cffc 05bc 48df d8be
00000040: 809b f8bd 17a8 113b 13e0 5bbe b151 5bbe
00000050: 21b7 1ebe 3813 bfbd c359 a5be 5e1d d33b
00000060: 2fcc 91bd b2a7 513e e49c b83d c341 763e
00000070: 649b e43c 8cb7 c63d 1acf 89be 063c e13d
00000080: 9971 3f3e 7512 493d ed6e 10be 9aef b1bc
00000090: 3c14 5ebe 6413 923d 77a4 05bf 8ebe 03be
000000a0: 8106 5a3e fb84 32be a567 aabe 3477 813e
000000b0: bd78 823d 7abe 3f3d 0270 04bf 3076 a43d
000000c0: bb42 a4be b5b1 473e 7623 66be d80a 223e
000000d0: 483b 203c 7b4c 2cbe 524b 283e 6a02 763e
000000e0: 0179 5abd 98f7 72bb 03da 41be 6d82 27be
000000f0: 129d b33d 4ad8 26be e8a3 7abd 9fc5 103d
00000100: b668 403e 9515 f6bd 7202 1c3e 9c3d a93e
00000110: 516c 1c3d 0090 f83d 3881 5bbe 85a4 bfbd
00000120: b416 823e be2d 98bd ab11 c4bd 937b 163d
00000130: 54a8 2ebe 00d2 033e e8e3 08be 8b86 d93d
00000140: efd4 f9bd 0a31 e63d c632 903b f53a eb3d
00000150: 9fa9 143e d2a4 1d3e 960a 8aba 22a9 2bbe
00000160: 8ddf f33c 45ed d13c df28 dd3d c673 c8bc
00000170: 76e0 0ebd a2fb 2fbe b3a7 33be e412 8a3d
00000180: 8846 cc3d 42e2 623d 1f43 0e3e 633a d9bd
00000190: a7b4 c3bd 2b39 03be 22bd 933d ce24 353e
000001a0: 4db2 743e 0108 5d3e f4f9 373e 9906 2ebe
000001b0: 9866 6dbe 7c44 c6bd cff8 06be d926 a23e
000001c0: a0a4 893e ebd5 813e 8193 54be 019e e9bd
000001d0: 76ad 7abe cc7a fc3d 092a b7bc 6c26 cdbe
000001e0: 0216 863e 0144 713e e219 13bd 239c 163e
000001f0: 0003 c1bd 37c0 843c de9e 063f ef4d 45bd
00000200: 6e43 033f 0a48 0ebe 8c3a e9bd 64a0 9bbd
00000210: b89a 713d 90eb 123e c966 e83c a6bc 12be
00000220: 0f62 e23d 5dff 653d e814 92bd 67ec d53e
00000230: 9a1f 983d 5178 853c 5af2 afbe 15bb c63d
00000240: 24ea 963d a624 3a3e c108 d3bd 2b12 bb3e
00000250: eeec 3fbd d112 8ebd 31aa 433e 9015 5ebe
00000260: 6eae 55be e3dd e3bd ed1f b3be 243f e6bd
00000270: 3b46 453e ac00 61bd 73eb e23e e143 9ebd
00000280: 14d7 25be 77c6 7e3d 1f8e bc3e 9428 3bbe
00000290: afef 233c 68ec 2b3e f926 47be d698 8b3b
000002a0: a368 983e 7867 0b3e 23f4 893e 2c1f 60bc
000002b0: be27 233e 0243 e03e 2d2b 6e3d 6034 da3d
000002c0: 532e 40bc 3dc6 9dbe 145b b4bc 17c3 0abe
000002d0: e808 fc3d c761 f1bd 9341 55be 074c 463e
000002e0: fe8e 63be ece6 16be 7bc5 1e3e fcd3 2cbd
000002f0: 76aa 9abe 8582 233e eca9 a33d 8cbd 5ebe
00000300: 7248 cc3d 4559 7d3d fedf 3d3e 8077 21bd
00000310: 18a0 09bb 07e7 003e 971a 803d d8eb a43e
00000320: 1aff 1c3e 6245 41be 05ed 45bd adcd 5ebf
00000330: 44b8 393e c21d 403d cb83 04bc 4b2c 9abc
00000340: b63c a3bd 470e 24bd 918b cbbe a5ba 7c3b
00000350: 7d86 243f 9ff3 45bf 26db 95be 6e22 213e
00000360: 7cf9 f9be ec8d 96bc ffa8 803e 25ca 85be
00000370: 1f13 f83e 6f50 823f ac9f 40be fbde 4f3f
00000380: 7919 a23c 4d07 6f3e c0c3 193f d53a 02be
00000390: 9cef 313f 92d1 1bbf 705d 733e 7ae1 5bbd
000003a0: cc95 fdbe da3e 80be ac32 613e a669 19bf
000003b0: 0afc e43e c37c 9c3e a49a 0ebf 6e77 c93e
000003c0: 0dc6 423d 8736 573e 7ac5 acbe c199 713e
000003d0: b994 e03e e34a 923c 248a 4b3e eab6 843e
000003e0: 6f5b 8a3e 9a99 a13e bd71 4b3e 2cbc ebbc
000003f0: d98e c2bd 5676 b03e d5a8 12be a083 f6bd
0.3769646 0.26585507 -0.029072354 0.1174341 0.42133814 0.027290279 -0.14678153 0.47226056
-0.037779562 0.1201337 0.34014952 0.05036937 0.25659186 -0.16251397 -0.00817795 -0.4235785
-0.12139034 0.0022225433 -0.21472196 -0.21417882 -0.15499546 -0.093298376 -0.32295045 0.00644271
-0.07119023 0.20474127 0.090142995 0.24048524 0.027906127 0.097029775 -0.26915818 0.10997777
0.18695678 0.049089868 -0.14104815 -0.021720696 -0.21687406 0.07132605 -0.5220408 -0.1286566
0.21291544 -0.1743354 -0.332822 0.25286257 0.06370685 0.046812512 -0.5173341 0.08030355
-0.3208216 0.19501384 -0.22474465 0.15824449 0.009779759 -0.1682605 0.16434982 0.24024358
-0.053338055 -0.0037073847 -0.18930821 -0.16358347 0.08770193 -0.16293445 -0.06119147 0.035344716
0.18789944 -0.12015835 0.15235308 0.33054817 0.038189236 0.12136841 -0.21436012 -0.093575515
0.25407946 -0.074306 -0.095736824 0.036738943 -0.170564 0.12873077 -0.1336819 0.10621365
-0.12198817 0.11239822 0.004400584 0.114858545 0.1451783 0.15394905 -0.0010531719 -0.16763738
0.029769683 0.025625834 0.10798811 -0.024469268 -0.03488203 -0.17185834 -0.17544441 0.06741884
0.0997439 0.055391558 0.13892792 -0.106068395 -0.09555941 -0.12814777 0.072138086 0.17689821
0.23896141 0.21585084 0.17966443 -0.16994704 -0.23183668 -0.09681031 -0.1318085 0.31670263
0.2688341 0.2535852 -0.20759393 -0.1140709 -0.24480233 0.12328109 -0.022358911 -0.40068376
0.26188666 0.23561098 -0.035913356 0.14707999 -0.094244 0.016204936 0.5258616 -0.048170026
0.51274765 -0.13894668 -0.1138812 -0.075989515 0.058985442 0.14347672 0.028369324 -0.14329776
0.110538594 0.056151737 -0.07132894 0.41781923 0.074279025 0.016292723 -0.34364587 0.09703652
0.073688775 0.18178043 -0.10304404 0.365373 -0.046856813 -0.06937183 0.19107892 -0.21687913
-0.20867321 -0.11126306 -0.34985295 -0.11242512 0.19265072 -0.05493228 0.44320258 -0.077277906
-0.16195327 0.06220099 0.3682718 -0.18277198 0.0100058755 0.167894 -0.1944846 0.004260163
0.2976733 0.13613689 0.26944074 -0.013679307 0.15933129 0.43801123 0.058146644 0.10654521
-0.011729795 -0.30815306 -0.022016086 -0.13550983 0.12306386 -0.11786228 -0.20825796 0.1936494
-0.22222516 -0.14736527 0.1550502 -0.04219435 -0.30208176 0.15967758 0.079913944 -0.21751994
0.09974755 0.061852712 0.18542477 -0.039420605 -0.0020999964 0.1258813 0.062550716 0.32211185
0.15331689 -0.18874124 -0.048321743 -0.87032586 0.18136698 0.04690338 -0.0080880625 -0.018819949
-0.07970564 -0.04005268 -0.39754918 0.0038563397 0.6426771 -0.7732486 -0.2926876 0.1573579
-0.48823154 -0.01837822 0.25128934 -0.26130787 0.48452088 1.0180796 -0.1881091 0.81199616
0.019787537 0.23342629 0.60064316 -0.12717755 0.6950624 -0.60866654 0.23766112 -0.053681828
-0.49528348 -0.25047952 0.21991986 -0.5992683 0.4472354 0.30563936 -0.5570471 0.3934893
0.047552157 0.21016894 -0.33744413 0.23593809 0.43863466 0.017857974 0.19876915 0.25920802
0.27022883 0.315625 0.19867606 -0.02877625 -0.09499902 0.34465283 -0.14322217 -0.12036824

lstm.bias_ih_l1 f4 [200]
00000000: 89fe adbd 4266 fcbd dfa9 c03d 526d 8c3e
00000010: 221e 923e a05f 663d f6e4 cbbd 6a5e 253e
00000020: 3245 023f 2634 3a3d e81b 52bd ec1c 2c3e
00000030: 24c0 623e 1733 323e 267e 753d 4921 6dbd
00000040: d503 cc3d bd96 123d f82d 483e 0881 70bd
00000050: 1f1d 81bc 2df5 133c 7a98 103e 546f 9f3e
00000060: 92b5 d03d c6fe 9c3c 8d83 033e b2fa 5a3e
00000070: 5baf 08be b6d3 2f3e acbc cbbd 1882 093e
00000080: a370 9b3e fa6b a93d ea11 cdbb 3ad1 c2bd
00000090: 5c03 b2bd aade abbd 55d8 753e 30ca 33be
000000a0: 81e3 02be 0166 ebbc 517e 3a3b bb6b 13be
000000b0: 64bb 803d 992b 1a3b b47f 02be 9806 99bd
000000c0: 1bda 6b3e a1dc 7abd 1b10 e3bd 8e43 26be
000000d0: de45 0ebe 51ab a3bd 1e71 29be 5266 34bd
000000e0: 3a5a 03be 2781 7a3d 87b2 91bc b694 b23d
000000f0: f317 2cbe 16bf c2bd 113e 92bd dabe 8fbd
00000100: 521f f33c 6084 bc3c 57e0 99bc 8b11 1c3c
00000110: a32d f93d 8b46 8c3d 3f55 74bd f9db 1a3d
00000120: 080c 89bd 9eac 533d 6b0a 40bd 8114 09be
00000130: 1d18 b93d a9cc 143d 49ab e9bc 659b 25be
00000140: a947 2dbd 77c7 363e 93ad c5bd a6ef 593c
00000150: 6636 cb3c 0b84 c23d f556 8abd 2b11 d5bd
00000160: 9e18 1f3e 472c 2ebd 14ae 84bd 181c ee3d
00000170: c754 bf3c d10c b53d 7582 a93d 989c fdbd
00000180: 6b37 cb3d f574 b0bd d03a 2f3d b186 ed3c
00000190: aedd cebc d05d 21be 36bc 9bbd 49b0 57bd
000001a0: 1f20 a83d 580b 523d 37b0 be3c 33a1 f8bd
000001b0: 2c91 bdbc 3026 b7bc b86a 663b a642 a93d
000001c0: 57ed d33c 4594 123c cd8b 4dbb dbf4 0e3d
000001d0: 0a04 31bd 20b6 b83d f3c0 2cbb be7e c3bc
000001e0: 98ff a23d 88b2 143d bc2a 01bd b46e e5bd
000001f0: a75d c3bc 3861 8abd 28c1 8f3d 37e1 bf3d
00000200: 58ab b43d 5d5e 4ebc 2827 42bd 6f50 49be
00000210: 06a5 d1bc 83c3 2abd 3bdb d33d eef8 053c
00000220: 0fa1 083e 1c0b ae3d e661 4bbd 59aa f03d
00000230: 27f2 b0bc c8f4 ec3d 2952 5c3d 1cc2 513d
00000240: b92d 2f3c 5ab9 b43d be4a 133e f527 33bc
00000250: 6a9b 8f3d 454e e73d a14b 56be e896 bfbd
00000260: 15cd 2d3d f4be 8d3d 0195 b03e 3017 2d3e
00000270: 4e4e 933d dc30 0a3e ef60 b73e 3f2c b73b
00000280: 7bd7 a03d a1eb e03d 5656 613e af21 2b3e
00000290: 3282 c53c 9f75 cb3d 0f98 7e3d d832 8cbd
000002a0: 1487 95bd 525a 0ebd d313 9fbb 57bc 5abd
000002b0: e558 ca3d 606a 8c3e 1d8f 353d 3610 12be
000002c0: a3dc f73d c836 193e a247 b8bd 39b1 143e
000002d0: 18d2 5f3d aae7 a93d f494 ba3e 02f8 933c
000002e0: 2981 63bd c69c 693d 147d 7b3d 7dc1 7abd
000002f0: 0cf3 9b3c 307e 8a3d 5995 fd3d 7608 31bd
00000300: cd9b 483d 0e0b 463d f26e 483d 717c 0bbe
00000310: 69be e83d fa70 babc 6911 bf3d 0514 833d
-0.08495814 -0.12324192 0.094074 0.27427155 0.28538615 0.05624354 -0.0995578 0.16149297
0.50886834 0.04545989 -0.051296145 0.16807908 0.22143608 0.17402302 0.059934758 -0.05789307
0.099616684 0.035788286 0.19548786 -0.058716804 -0.015760956 0.009030622 0.14120665 0.31139624
0.10190882 0.019164454 0.12843151 0.21384695 -0.13348143 0.17170605 -0.09948096 0.13428533
0.30359372 0.08272548 -0.006258239 -0.09512563 -0.08692047 -0.08392079 0.24008305 -0.17557597
-0.12782098 -0.028735163 0.0028456638 -0.14396565 0.06285742 0.0023524521 -0.12744027 -0.07471961
0.2303242 -0.061245564 -0.11087056 -0.16236708 -0.1389384 -0.079916604 -0.16547057 -0.044042893
-0.12827387 0.061158326 -0.017785324 0.087197706 -0.16806011 -0.09509103 -0.071407445 -0.07018824
0.02967802 0.02301234 -0.018783731 0.009525667 0.12166908 0.068493925 -0.05965161 0.03780744
-0.06691748 0.051678292 -0.046884935 -0.13386728 0.09037802 0.03632799 -0.028524058 -0.1617256
-0.04230467 0.17849527 -0.09652247 0.013301766 0.024806213 0.094978414 -0.06754867 -0.10403665
0.15536734 -0.042522695 -0.06478515 0.11626452 0.023355855 0.08840335 0.08276836 -0.123833835
0.099226795 -0.08616058 0.042780697 0.02899489 -0.02525219 -0.15758443 -0.07604258 -0.052658353
0.082092516 0.05128035 0.023277385 -0.12140121 -0.023140512 -0.022357076 0.0035158824 0.08264665
0.025870008 0.008946483 -0.0031363845 0.03490148 -0.043216743 0.090191126 -0.0026360124 -0.023864146
0.07958907 0.036303073 -0.031534895 -0.112027556 -0.023848368 -0.06756824 0.070192635 0.09369128
0.08821744 -0.01259574 -0.047400624 -0.19659589 -0.025591385 -0.04169036 0.10344549 0.008177025
0.13342689 0.08498213 -0.04965391 0.11751241 -0.021599842 0.11570126 0.05378929 0.051210508
0.0106920535 0.088244155 0.1438398 -0.0109348195 0.07012065 0.112942256 -0.20927288 -0.09354955
0.04243191 0.06921187 0.3448868 0.16903377 0.0719267 0.13495201 0.35816142 0.0055899913
0.078536 0.10982443 0.22005591 0.16712068 0.024109934 0.09934544 0.062156733 -0.06845635
-0.07301155 -0.034754105 -0.004854658 -0.05340227 0.098802365 0.27424908 0.044325937 -0.14263996
0.1210263 0.14962304 -0.08998038 0.1452073 0.05464372 0.082961395 0.36441767 0.018062595
-0.0555431 0.057034276 0.06139858 -0.06121968 0.019036792 0.067623496 0.123820014 -0.04322096
0.04897671 0.048350386 0.04893393 -0.1362169 0.11364443 -0.02275895 0.093294926 0.06400303

lstm.bias_hh_l1 f4 [200]
00000000: e4b0 f7bc 2852 43bd 3bc6 6b3e 6182 373e
00000010: 1e7e 843e b3f1 dd3d 2aca c9bc fca2 1a3e
00000020: 1545 063f 219e db3d 2ea7 b73d 94a0 133d
00000030: 8bf8 993e 316e 403e 58df b4bd bf30 e13c
00000040: 11c2 a73d 8c6f 7d3d d1b5 ad3d cd70 b73d
00000050: 4c69 98bd b4e4 183d 247c 563e 89fb d93d
00000060: 0a34 9b3d 08b2 163d b1b1 6b3e 6a0b ea3d
00000070: 4341 683c 141d 573e 385b 6dba c500 4c3e
00000080: 9f6e b83e b896 cc3d 86f2 eebd 12bb d33c
00000090: c456 27bd 8a60 b1bd 4955 3e3d ad4e f73a
000000a0: 987d 31bd 7cdc 503e 6699 a33c 9e0d cebd
000000b0: 98a0 2b3d 2e5f 9bbc e15d 9e3d 18bf f1bc
000000c0: 09ec 683e 0f22 643d 52dd f93b 4a44 b23c
000000d0: 8f36 3fbd e323 b7bd c651 d3bd c78c dc3b
000000e0: d1e3 02be 4c0b abbd 1746 92bd 2a11 b43d
000000f0: d1fc 63bc a4a3 25bd 87a3 1bbe 3f0c 30be
00000100: 0c50 16be 9baf c1bb 00a2 0dbe 62f5 b8bd
00000110: 5c91 173e 7df8 fcbc e54d b4bd 651f 77bb
00000120: 75c6 623c 6546 09be 0de6 3bbd adc4 09be
00000130: 6b02 2b3d 9bb5 64bd 9700 a0ba 0935 f8bd
00000140: 6521 603d 5a85 bb3c 31a2 5abe 49a9 df3b
00000150: 3b20 183e a2f1 753d 1001 6fbd 18a0 95bc
00000160: 988a 9abd 945c 21be 9a26 af3d 4476 ab3b
00000170: b3f8 15bd 557c a4bd cd64 583d 967d cbba
00000180: 1697 17bd 80d7 4bbe 0641 913d 86b2 69bc
00000190: 03dd 29bd 1b29 b3bd d5b3 5f3d 16b7 943d
000001a0: 1103 843d 7149 aa3d 2a3d 3e3d f357 74bd
000001b0: a23a 3b3e 9dde 043d 662b 0dbe 1183 663d
000001c0: 3a63 f8bd 9a3c a2bc ccb8 a0bd 9fc7 6a3d
000001d0: 42fe 20bd d18b 68bd aa3e 0ebe 0f98 babb
000001e0: 9ae5 a93d 7f56 92bd 9214 12bc f43a 5ebc
000001f0: 7ad7 ea3d c4f6 be3d bea1 e73d cce1 0ebe
00000200: 9445 39bc 63e4 4a3d 3d84 ac3d 811a 883c
00000210: 50aa 81bd 4102 ad3d f606 fd3d fbb0 dfbd
00000220: cfe3 5fbc 5cfe a33c 1c41 1b3e 8e43 0cbd
00000230: 77e5 96bd 9890 d33d 4d3c f1bd f050 57bd
00000240: cce4 d03d bc4a 85bd badd 313d 712a 373d
00000250: 1c80 8cbd 3e8a d13a 2649 77bc 3e7f d43c
00000260: 2624 603e 4c67 d23d fa0c 683e c84a 753c
00000270: e3d7 3ebe d77f 733d 2f43 9e3e 7c7b 99bd
00000280: d3db 0cbe 572a 8a3d 120e 3c3e 5b5c 333e
00000290: 3096 273e e435 5e3b 7d87 01be f498 fb3c
000002a0: 7eb5 aebd 715e 3dbe 70a6 b3bd 89d2 3c3d
000002b0: 3506 153d 7fea 223e de76 863d 7af8 04be
000002c0: d0a3 963e fabf 4a3e 32e1 eebc 6d99 13bd
000002d0: ae58 07bd 92e2 ba3d f44f b33e 3cf4 263e
000002e0: b086 a83d a08f 87bd 1dd0 c9bd 38f7 1ebe
000002f0: 5d35 f6bc 388c 89bd d958 0cbe d4ef 31bd
00000300: ef46 0fbe 5e6b 3b3d 93f2 b4bd 6a74 4a3d
00000310: 8cdf 12bd b323 4ebe 8729 bdbd 84c8 16be
-0.030235715 -0.047685772 0.23024838 0.1792083 0.2587747 0.10837116 -0.024632532 0.15101236
0.5244916 0.1072352 0.08967434 0.03604181 0.30072436 0.18792035 -0.08831662 0.027489064
0.08191312 0.061873958 0.08481944 0.08957062 -0.07441959 0.037327483 0.20945793 0.1064368
0.07578285 0.036790878 0.23017003 0.11427958 0.014175716 0.21007186 -0.0009054425 0.19922169
0.36021897 0.09989685 -0.116673514 0.025846038 -0.04085423 -0.086609915 0.046468053 0.0018868052
-0.043332666 0.20396608 0.019970607 -0.10061191 0.0419012 -0.018966284 0.0773275 -0.029510066
0.2274629 0.055696543 0.0076252604 0.021761078 -0.04668289 -0.08942392 -0.103183314 0.006730649
-0.12782218 -0.08351764 -0.07142275 0.08792336 -0.013915257 -0.040439263 -0.151991 -0.17192172
-0.14678973 -0.0059108264 -0.1383133 -0.09031178 0.14801544 -0.030880207 -0.0880392 -0.0037707922
0.013841261 -0.1340576 -0.04587369 -0.13453932 0.041750353 -0.055837255 -0.0012207207 -0.12119491
0.054719348 0.022890735 -0.21350934 0.0068256003 0.14856045 0.060044892 -0.058350623 -0.018264815
-0.07545966 -0.15757972 0.085522845 0.005232604 -0.03661413 -0.08031527 0.052830506 -0.0015525098
-0.03700932 -0.19906425 0.0709248 -0.014263755 -0.04147054 -0.087480746 0.05461486 0.07261483
0.06445897 0.08314789 0.04644505 -0.059654187 0.18284085 0.032438863 -0.13786086 0.05627734
-0.12128301 -0.019804288 -0.07847747 0.05731928 -0.03930498 -0.056773964 -0.13891092 -0.0056943963
0.08295746 -0.07145404 -0.008916037 -0.01356386 0.1146688 0.093244106 0.11310147 -0.13953322
-0.011308093 0.049534213 0.0842366 0.0166142 -0.06331313 0.084476955 0.12354843 -0.10922428
-0.013665154 0.020018749 0.15161556 -0.034244113 -0.07367986 0.103303134 -0.117790796 -0.052567422
0.101998895 -0.06508395 0.043424346 0.04471821 -0.068603724 0.0015986634 -0.015093124 0.02593958
0.2188879 0.102736086 0.226612 0.0149714425 -0.18637042 0.05944809 0.30910632 -0.07494256
-0.13755731 0.06746357 0.18364742 0.175157 0.16365886 0.0033906633 -0.12649341 0.030712582
-0.08530711 -0.18493058 -0.0877198 0.04609922 0.036382873 0.15909766 0.06565641 -0.12985411
0.29421854 0.19799796 -0.029160116 -0.03603499 -0.033043556 0.09125246 0.35021937 0.16304106
0.082288146 -0.06619191 -0.098541476 -0.15523994 -0.030054742 -0.06716198 -0.13705768 -0.04344161
-0.13991903 0.04575669 -0.0883533 0.049427427 -0.035857722 -0.20130806 -0.09236436 -0.14724928

fc.weight f4 [1, 50]
00000000: 8302 b13d 4874 0bbe 168a 0bbe 522f 2c3d
00000010: bcc6 55be 4c3e d3bd 9f5d 003e 7b23 20be
00000020: e2e0 13be 292c c33d 5446 1ebe 2236 333e
00000030: fbcf 373d 22c5 ffbd ede1 efbd 8f5a b83c
00000040: 9f49 48be 891a b0bd 62a9 aa3d 6625 e63c
00000050: e182 0f3e 84f8 b7bd 1de9 19be 1f67 413e
00000060: 2330 99bd 4d94 533d 18b6 e83d e28d 15be
00000070: 77e9 9e3d e895 f6bd 1fc4 303c 834c e6bd
00000080: c6e2 dbbd 39e7 903d 0024 bbbd 79b2 06be
00000090: e937 cb3d 316f ae3d 1d91 35bd 7481 dc3d
000000a0: f45f 1abe 77a9 9bbd c091 dfbc 1219 563d
000000b0: 9add b13d f894 87bd f1f4 f83d 6828 a2bd
000000c0: f84c 673c 9f1d fd3d
0.08643057 -0.13618577 -0.13626894 0.042037316 -0.20876592 -0.103146166 0.12535714 -0.15638535
-0.14441255 0.09529907 -0.15456516 0.17501119 0.04487608 -0.12488772 -0.11713014 0.02250412
-0.19559334 -0.08598811 0.083330885 0.028094005 0.1401477 -0.089829475 -0.15030332 0.18886994
-0.074798845 0.051655103 0.113628566 -0.14604905 0.07759374 -0.12040311 0.010788946 -0.11245062
-0.10736613 0.07075352 -0.09137726 -0.1315402 0.099227734 0.08517302 -0.044327844 0.10766879
-0.15075666 -0.07600682 -0.027291179 0.052270003 0.08684845 -0.066202104 0.12156094 -0.07917863
0.014117472 0.123591654
