LSTM/stock_Model/2317.pth (torch, 131029 bytes, 9 tensors)

lstm.weight_ih_l0 f4 [200, 5]
0	0xba8822a1	-0.0010386297
1	0x3d0cd351	0.034381215
2	0xbdf7b4df	-0.12095045
3	0xbd1bf571	-0.038075868
4	0xbd58f06f	-0.05296367
5	0xbc4bacf5	-0.012431373
6	0x3e2e5a33	0.17026596
7	0x3b986e6b	0.0046518347
8	0x3e0af72a	0.13570848
9	0x3d15155d	0.036397327
10	0x3da0cbdf	0.07851385
11	0x3e48bf9b	0.19604342
12	0x3e184f6b	0.14874046
13	0xbd3082f1	-0.043093625
14	0xbddd4646	-0.10804419
15	0xbaa7accb	-0.0012792585
16	0x3d1a35aa	0.037648834
17	0x3acb4084	0.0015506898
18	0x3dcf1ad7	0.10112541
19	0xbe101275	-0.14069541
20	0xbd41a29a	-0.04727421
21	0xbdde16e1	-0.108442076
22	0x3d00dc15	0.031459887
23	0xbd8e59c9	-0.06950719
24	0xbc3c6a48	-0.011499949
25	0x3c96f35f	0.018426595
26	0x3c6f5491	0.014607565
27	0xbc465796	-0.012105843
28	0x3d9a73ef	0.07541644
29	0x3c4a6deb	0.012355308
30	0x3daf7b6b	0.08568462
31	0x3dd60c13	0.10451522
32	0x3dde066d	0.10841069
33	0xbd028e1d	-0.03187381
34	0xbd443a3c	-0.0479071
35	0x3d1c87fe	0.03821563
36	0x3d88797b	0.066637956
37	0xbcfe6762	-0.031055156
38	0x3db84c16	0.08998887
39	0xbdbf5261	-0.093418844
40	0x3e288b8e	0.16459486
41	0xbdb03670	-0.08604133
42	0x3dc8a424	0.09796932
43	0x3cf54404	0.029939659
44	0xbde5cc21	-0.11220575
45	0xbb104f53	-0.0022019937
46	0x3dc14f19	0.09438915
47	0xbcc7bab0	-0.024381012
48	0x3e27b4cc	0.16377562
49	0xbdc21e3f	-0.09478425
50	0x3e10145a	0.14070264
51	0xbd43587b	-0.047691803
52	0x3e074c09	0.13212599
53	0x3deb55f7	0.11491006
54	0x3d138b02	0.03602124
55	0xbcd7b23a	-0.026330102
56	0x3cb49fea	0.02204891
57	0x3dfcb6b1	0.12339533
58	0xbdd23263	-0.10263517
59	0xbc554763	-0.013017508
60	0xbdaa2fd1	-0.083099015
61	0xbde8a57d	-0.113596894
62	0xbdab16a5	-0.083539285
63	0xbccfc53f	-0.025362609
64	0x3d8e80be	0.069581494
65	0xbd846ce1	-0.064660795
66	0x3de2b16e	0.11068998
67	0xbcccaf77	-0.024986012
68	0xbd509c25	-0.05093016
69	0x3db51951	0.08842719
70	0x3d24a354	0.040194824
71	0xbd1b585f	-0.037926074
72	0x3e25e5fc	0.16201013
73	0xbd6843d8	-0.056705326
74	0x3c8ad31e	0.016946372
75	0x3d83f80a	0.06443794
76	0xbb3400ca	-0.002746629
77	0x3cf6e00c	0.03013613
78	0x3e229fb2	0.15881231
79	0xbd9226aa	-0.07136281
80	0x3ddc92ba	0.10770173
81	0xbc29c349	-0.010361501
82	0x3e0772b3	0.13227348
83	0x3ddebd51	0.10875953
84	0xbc2d14f6	-0.0105640795
85	0x3d7c53e1	0.06160343
86	0x3da105c7	0.0786243
87	0x3c904710	0.01761201
88	0x3cf1eb66	0.029531192
89	0xbcb17dc1	-0.02166641
90	0x3d8652c8	0.06558758
91	0xbd7320ba	-0.059357382
92	0x3d019c92	0.031643458
93	0x3ddcbc1f	0.10778069
94	0x3dea8ac0	0.11452246
95	0x3d723540	0.059132814
96	0x3db395be	0.087687954
97	0x3df84a3f	0.12123536
98	0x3dc8c896	0.09803884
99	0x3d242c29	0.040081177
100	0xbd0dbd8c	-0.034604594
101	0xbdb3091a	-0.0874197
102	0xbd0d6be5	-0.034526724
103	0x3de3ec61	0.1112907
104	0x3e08c376	0.13355812
105	0xbe03dafe	-0.12876508
106	0x3d9a9687	0.07548242
107	0xbdcc87ad	-0.099868156
108	0xbdf5c184	-0.11999801
109	0xbdffe832	-0.124954596
110	0x3d977a35	0.07396356
111	0x3e29a996	0.16568598
112	0xbdbe0127	-0.092775635
113	0xbd42f3f4	-0.047595933
114	0x3d5de2c3	0.054171335
115	0xbdafaf05	-0.08578304
116	0xbd92edd6	-0.0717427
117	0x3c2c7ddf	0.010528057
118	0xbdbdfe50	-0.09277022
119	0xbce9fa3c	-0.028561704
120	0xbbc7e82f	-0.0061006765
121	0x3d5ec295	0.054384787
122	0xba71e463	-0.00092274527
123	0x3db6df97	0.08929365
124	0xbc96ca3c	-0.01840698
125	0xbd03f020	-0.032211423
126	0xbccc6062	-0.024948303
127	0x3cd52f5a	0.026023556
128	0xbdd3dadc	-0.103444785
129	0x3c6eced1	0.014575676
130	0x3d9fa9a2	0.07796027
131	0xb9ba633c	-0.0003555062
132	0xbe1ba51a	-0.151997
133	0xbc450f7c	-0.012027618
134	0x3d967f28	0.07348472
135	0x3d2d6bf8	0.042339295
136	0x3c6ddaab	0.014517467
137	0xbdeffa04	-0.117176086
138	0xbbe0d96b	-0.0068618557
139	0x3cfa0c6c	0.030523501
140	0x3d16a987	0.036782768
141	0xbdb521f1	-0.088443644
142	0xbc2a34a5	-0.010388528
143	0xbdcf2835	-0.10115091
144	0xbc3a968e	-0.011388434
145	0x3d7667ec	0.0601577
146	0x3e18fab7	0.1493939
147	0x3db613d2	0.08890499
148	0xbd238cfa	-0.039929368
149	0x3df63113	0.12021079
150	0x3b8ffe60	0.0043943375
151	0xbd8c67c8	-0.06855732
152	0xbcedec53	-0.029043352
153	0x3cc836b5	0.024440149
154	0xbcc94e9a	-0.024573613
155	0x3b9a34b2	0.004705989
156	0xbdf20c32	-0.11818732
157	0x3daa99b6	0.08330099
158	0xbd9b11b2	-0.075717345
159	0xbcdf0954	-0.027226128
160	0x3e1dd644	0.15413767
161	0xbd9d1463	-0.07669904
162	0x3df165e2	0.11787011
163	0x3dc58a63	0.09645536
164	0x3d3407d0	0.043952763
165	0xbd561fb8	-0.052276343
166	0xbdee772e	-0.116438255
167	0x3cdffcd9	0.027342247
168	0xbd014077	-0.03155562
169	0x3dc53f0a	0.09631164
170	0xbd605d2a	-0.05477635
171	0x3d1d6d19	0.03843412
172	0x3e03935c	0.12849182
173	0xbcff5419	-0.03116803
174	0x3d679620	0.056539655
175	0x3df4d9f2	0.11955632
176	0xbe01e3df	-0.12684582
177	0xbde3492d	-0.110979415
178	0xbe10debb	-0.14147465
179	0xbd06ce2a	-0.032911457
180	0x3dc9881a	0.098404124
181	0x3d39fd8c	0.045407817
182	0x3d588f0c	0.052870795
183	0x3e291e7a	0.16515532
184	0x3e204507	0.15651332
185	0xbda58502	-0.0808201
186	0x3c73bdab	0.014876763
187	0xbda52185	-0.08063034
188	0x3db8d87c	0.09025666
189	0xbce59ca2	-0.02802879
190	0x3cd7c230	0.026337713
191	0x3e265475	0.16243155
192	0x3dca6fb1	0.09884585
193	0xbbb00107	-0.005371216
194	0x3cdf7933	0.027279472
195	0x3cc7a6ad	0.02437147
196	0xbd827d6a	-0.06371577
197	0xbd9a6203	-0.075382255
198	0xbd9938bf	-0.074815266
199	0x3d5fc392	0.05462987
200	0xbd977c1b	-0.07396718
201	0x3ce4d45e	0.027933296
202	0xbceb2889	-0.028705852
203	0x3d145b9b	0.036220174
204	0xbe31d6e2	-0.17367128
205	0xbd328e8b	-0.04359297
206	0xbd3a2488	-0.045444995
207	0xbe0f3e15	-0.13988526
208	0xbdd66913	-0.1046926
209	0xbe18fb9c	-0.14939731
210	0x3d836363	0.06415441
211	0x3d4b795e	0.04967629
212	0x3c3aea55	0.011408408
213	0x3cf97826	0.030452799
214	0xbdae3381	-0.08505917
215	0x3da3c545	0.079966106
216	0xbce8e81c	-0.02843099
217	0x3cdf6f5c	0.02727478
218	0xbd797bf4	-0.060909227
219	0x3ce13b2a	0.027494032
220	0x3e2d22ba	0.16907778
221	0xbdafd2b7	-0.085851125
222	0x3d105f80	0.035247326
223	0xbdd78c09	-0.105247565
224	0x3e084938	0.1330918
225	0x3c182555	0.009286244
226	0xbdc7aa12	-0.09749235
227	0x3df20b9f	0.11818623
228	0xbdf5debe	-0.12005375
229	0xbdd2fba8	-0.10301906
230	0xbde33df9	-0.11095805
231	0x3d8a3be2	0.06749703
232	0xbddfb90c	-0.10923967
233	0xba0795ce	-0.0005172164
234	0x3d595444	0.053058878
235	0x3d9fa582	0.0779524
236	0x3d5b9750	0.0536111
237	0x3e2751d1	0.16339804
238	0x3e16011a	0.14648858
239	0x3d8a8066	0.06762771
240	0xbd01843f	-0.03162026
241	0x3d6c63e7	0.05771246
242	0x3da77d81	0.08178235
243	0x3de016be	0.10941838
244	0xbdecf6f5	-0.11570541
245	0x3e1103a2	0.14161542
246	0x3b8f9fcd	0.0043830634
247	0x3dd5e532	0.10444106
248	0x3c85040b	0.01623728
249	0xbbf18177	-0.0073701697
250	0x3d403eef	0.04693502
251	0x3d41e4f3	0.047337484
252	0xbd3f174c	-0.046653077
253	0x3e18b764	0.14913708
254	0x3dd89a25	0.10576276
255	0x3c853a74	0.016263224

lstm.weight_hh_l0 f4 [200, 50]
0	0xbd942e32	-0.072353736
1	0x3df2baf5	0.118520655
2	0xbdf054f7	-0.11734956
3	0x3e0cca75	0.13749106
4	0xbc0d91af	-0.008640691
5	0x3d7897c0	0.060691595
6	0x3df64acd	0.12025986
7	0xbdbf54b0	-0.09342325
8	0x3cb1aff8	0.021690354
9	0x3ded1683	0.115765594
10	0x3db9d80a	0.09074409
11	0xbd788e11	-0.06068236
12	0xbd8d40cb	-0.06897124
13	0xbd553ba8	-0.052058846
14	0x3dc1f07f	0.09469699
15	0x3db44773	0.0880269
16	0xbdd953b3	-0.106116675
17	0x3dc2e4b8	0.09516281
18	0xbdcc5671	-0.09977425
19	0xbda47b96	-0.08031385
20	0x3dd3cacb	0.10341414
21	0xbc5af027	-0.013362921
22	0x3dc07619	0.09397525
23	0x3dcfda71	0.10149086
24	0xbdae8d19	-0.08523006
25	0xbd17c7c1	-0.037055735
26	0xbdf4c0b2	-0.11950816
27	0x3db01b78	0.08598989
28	0x3c30ed6a	0.010798791
29	0xbdcdab3d	-0.10042427
30	0xbd526619	-0.0513669
31	0x3e0bc8f4	0.13650876
32	0x3b014e1a	0.001973039
33	0xbd5290c2	-0.051407583
34	0xbc8e9417	-0.0174046
35	0xbdd07b33	-0.101797484
36	0x3cc162bb	0.023606649
37	0xbb8633ec	-0.004095545
38	0x3e01c843	0.1267405
39	0x3e14e7cc	0.14541548
40	0x3df95968	0.12175256
41	0x3c27b11c	0.010235097
42	0xbda18219	-0.07886142
43	0x3d851597	0.064982586
44	0x3d94cec3	0.07265999
45	0xbde37e5e	-0.11108087
46	0xbd6e465a	-0.05817256
47	0xbd74bd1b	-0.059750658
48	0xbdb5726c	-0.08859715
49	0x3df70236	0.120609686
50	0x3bc759f6	0.006083722
51	0xbceefc72	-0.02917311
52	0xbde7485c	-0.11293098
53	0xbdb5211d	-0.088442065
54	0xbcdd8c5c	-0.027044468
55	0xbdb9532c	-0.09049067
56	0xbde20155	-0.1103541
57	0x3e1bc0f5	0.15210326
58	0xbdc606b0	-0.09669244
59	0xbdbffae0	-0.093740225
60	0x3d52cd0b	0.051465075
61	0xbcfec90b	-0.031101724
62	0xbdc2c024	-0.09509304
63	0xbdd4ff45	-0.10400251
64	0x3e1192ca	0.14216152
65	0x3d2a0d6d	0.04151671
66	0xbd1e5f9a	-0.03866539
67	0xbdd778cb	-0.10521086
68	0xbdf06a49	-0.11739022
69	0x3c90d7b7	0.017680986
70	0xbb00786f	-0.0019603034
71	0x3befb383	0.0073151006
72	0xbc3adfb2	-0.011405872
73	0x3d8c1d7f	0.068415634
74	0xbdf02c15	-0.11727158
75	0xbd89b8e8	-0.06724721
76	0x3de68b7c	0.11257073
77	0x3cac475f	0.021030126
78	0xbd546446	-0.05185344
79	0x3e01dc79	0.1268176
80	0x3de74e38	0.11294216
81	0xbd90cd80	-0.07070446
82	0xbda5ca28	-0.08095199
83	0x3d946ef1	0.07247723
84	0xbcf42add	-0.029805595
85	0x3db4aebf	0.08822393
86	0x3dcb75e3	0.099345945
87	0x3d14d628	0.036337048
88	0xbe0d7df7	-0.13817583
89	0x3d6fcbba	0.0585439
90	0x3de35ba9	0.11101467
91	0xbdeba3c9	-0.11505849
92	0x3d8ff49e	0.07029079
93	0x3cb21fe5	0.021743724
94	0x3df1ce62	0.118069425
95	0x3cbd7347	0.023126258
96	0x3cd289a8	0.025700405
97	0xbe09fbb2	-0.1347492
98	0x3d810451	0.062996514
99	0x3db1c658	0.08680409
100	0x3e19d7f7	0.1502379
101	0xbd5e20c5	-0.05423047
102	0x3e303895	0.17209084
103	0x3de3132c	0.11087641
104	0x3dae3d41	0.08507777
105	0x3d2f7e56	0.042845093
106	0x3dda2a48	0.10652596
107	0xbd590088	-0.052979022
108	0x3e16d330	0.14728999
109	0x3d563c01	0.052303318
110	0x3c07a856	0.0082798805
111	0x3de175d1	0.110088
112	0x3daa3ea0	0.08312726
113	0xbe3692af	-0.17829393
114	0x3d3d6f12	0.046248503
115	0x3da2678b	0.079299055
116	0x3ce66058	0.028122112
117	0x3e5472ad	0.2074687
118	0x3c5790ac	0.013157051
119	0x3df5f639	0.12009854
120	0xbddbe332	-0.107366934
121	0x3d510ce0	0.05103767
122	0x3ddd56eb	0.10807594
123	0xbe18a7a6	-0.14907703
124	0x3d7d1c7c	0.061794743
125	0x3e229f6b	0.15881126
126	0xbb66e890	-0.0035233833
127	0x3b2ff688	0.0026849825
128	0xbdc0dc29	-0.09416992
129	0xbb5c741e	-0.0033638547
130	0x3e40a9c9	0.18814768
131	0xbe05235b	-0.13001768
132	0xbd84241b	-0.06452199
133	0xbd348d3a	-0.044079997
134	0xbe150be0	-0.14555311
135	0x3ceca9b1	0.028889509
136	0x3d2da869	0.042396937
137	0xbc3fe372	-0.011711942
138	0x3d5f2a30	0.054483593
139	0xbd8233a4	-0.06357506
140	0x3d339815	0.04384621
141	0xbdd6be02	-0.1048546
142	0x3d7b6799	0.061378095
143	0x3d3813e6	0.04494085
144	0x3dc8bafb	0.09801289
145	0x3dad7509	0.08469588
146	0x3e1e9624	0.15486962
147	0xbd9dc36f	-0.077032916
148	0x3e2e674e	0.17031595
149	0x3c95af78	0.018272147
150	0xbdcb99b9	-0.0994143
151	0xbb917681	-0.0044391756
152	0x3dbd99dc	0.09257862
153	0x3d6beb4a	0.057597436
154	0x3e11c57c	0.1423549
155	0xbdf925bf	-0.121654026
156	0x3dfde9af	0.12398087
157	0xbe251edc	-0.16125053
158	0xbddbb32d	-0.107275344
159	0xbcafb08b	-0.021446487
160	0x3df15c8c	0.1178523
161	0xbde19e06	-0.11016469
162	0x3d374f23	0.044753205
163	0x3c02bc63	0.007979485
164	0xbd95ab9e	-0.07308124
165	0xbe161ad3	-0.1465867
166	0x3da8e55a	0.0824687
167	0xbdbeaf09	-0.09310729
168	0xbdd9ecf0	-0.10640895
169	0x3da602a1	0.0810597
170	0xbca8115c	-0.02051609
171	0xbdda57bb	-0.106612645
172	0xbb4eee24	-0.0031575048
173	0x3da4e1fa	0.08050914
174	0xbd79153c	-0.060811266
175	0xbd4ef066	-0.05052223
176	0x3d8cd5ba	0.068767026
177	0xbe297e76	-0.16552147
178	0x3d8c57e9	0.06852705
179	0x3d9181ae	0.071048126
180	0x3e0a21f7	0.13489519
181	0x3c8aee89	0.016959446
182	0x3df92a00	0.12166214
183	0xbd8c0a0e	-0.06837855
184	0xbc8736ee	-0.016505685
185	0xbd532070	-0.051544607
186	0x3d6d21b3	0.057893466
187	0xbcabcfda	-0.020973135
188	0xbd14a08d	-0.036285926
189	0xbd6b8575	-0.05750032
190	0x3e24443d	0.16041656
191	0x3d519796	0.051169954
192	0x3dd8558e	0.10563193
193	0x3e024bd8	0.12724245
194	0x3cd60a1e	0.026127871
195	0x3dae98e1	0.08525253
196	0x3d93de2b	0.072201096
197	0xbd1e9759	-0.038718555
198	0xbd524743	-0.05133749
199	0x3d910a93	0.07082095
200	0x3ddf5ced	0.10906396
201	0xbd2e465d	-0.042547572
202	0x3db17f57	0.08666866
203	0xbe0fa38f	-0.14027236
204	0xbdc375e2	-0.09543969
205	0x3df9ddef	0.122005336
206	0xbd7facd5	-0.062420685
207	0xbca31b62	-0.019910518
208	0x3e018aa3	0.12650542
209	0xbdccb61b	-0.09995671
210	0x3b613ba7	0.003436783
211	0x3d106d68	0.035260588
212	0xbcfc3f2f	-0.030791847
213	0xbd6c2880	-0.05765581
214	0xbdd497cd	-0.10380516
215	0x3d3d108b	0.046158355
216	0x3d9816da	0.074262336
217	0xbe08ded4	-0.13366252
218	0xbd20ee9e	-0.039290063
219	0x3d97fb58	0.07420987
220	0x3d9ee381	0.07758237
221	0xbd8edf5d	-0.06976197
222	0xbdfe8259	-0.124272056
223	0xbda041a1	-0.07825018
224	0x3db9e9bb	0.09077784
225	0x3d9fa92e	0.0779594
226	0x3c78efee	0.015193922
227	0x3dab257b	0.08356758
228	0x3d5ce886	0.05393269
229	0x3de9fa28	0.11424667
230	0xbd4ba392	-0.04971654
231	0x3adb2b00	0.0016721189
232	0x3e099d8f	0.1343901
233	0xbd96950e	-0.07352649
234	0x3dccdbd5	0.10002867
235	0xbd31d663	-0.043417346
236	0x3df6d233	0.12051811
237	0x3b747aa4	0.0037304545
238	0xbdbbc467	-0.0916832
239	0x3d59a61b	0.053136926
240	0xbcee3fba	-0.029083122
241	0x3d0f37e3	0.034965407
242	0xbe069e80	-0.131464
243	0xbd99a1c0	-0.075015545
244	0xbd5791f7	-0.052629437
245	0x3dca5634	0.09879723
246	0xbddd2158	-0.107973754
247	0x3ddca85c	0.107742995
248	0xbd8213cb	-0.063514315
249	0x3dbf4976	0.093401834
250	0x3db43e96	0.08801
251	0x3d4f4a35	0.05060788
252	0xbc7d16d2	-0.015447335
253	0x3c96c2b9	0.018403398
254	0xbce5db64	-0.028058715
255	0xbc010fea	-0.007877329

lstm.bias_ih_l0 f4 [200]
0	0xbd4957bf	-0.049155947
1	0xbddca76c	-0.10774121
2	0xbd40d7f6	-0.047080956
3	0xbb1ce92a	-0.0023942688
4	0x3d5ba52b	0.053624313
5	0x3e053ecd	0.13012238
6	0xbd24ac71	-0.040203515
7	0xbd3bfdeb	-0.045896452
8	0x3df047a5	0.11732415
9	0xbcc7c2b6	-0.024384838
10	0xbd8e4425	-0.06946591
11	0xbe026b2b	-0.12736194
12	0xbd0acb28	-0.03388515
13	0xbd17f814	-0.03710182
14	0xbdb4ea70	-0.08833778
15	0xbdea30cb	-0.11435088
16	0x3da7a2af	0.08185326
17	0x3d9de45d	0.077095725
18	0xbdd51842	-0.104050174
19	0xbb0dee69	-0.0021656996
20	0xbd4a57f6	-0.049400292
21	0xbbbed9f7	-0.0058243233
22	0xbdb3b2d0	-0.0877434
23	0x3d09e13f	0.033662077
24	0xbc208cb5	-0.009799172
25	0x3e345e06	0.17613992
26	0x3d8ac8e6	0.067765996
27	0x3c395fe2	0.011314364
28	0xbacf02aa	-0.0015793641
29	0x3e088fd9	0.13336124
30	0xbc1013ba	-0.008793766
31	0x3e132e5f	0.14373158
32	0xbbfb366a	-0.007666399
33	0xbd631ffa	-0.055450417
34	0x3e2e33d5	0.1701196
35	0x3d5c4cb6	0.053784095
36	0x3e3d011a	0.18457451
37	0xbd8d83a4	-0.06909874
38	0x3d41bdec	0.047300264
39	0x3e05b48e	0.13057157
40	0xbd906e58	-0.070522964
41	0xbdba4bdb	-0.090964995
42	0xbe03325d	-0.12812181
43	0x3deef596	0.116679356
44	0x3df057f2	0.11735524
45	0xbc46fffe	-0.012145994
46	0x3dc5b374	0.096533686
47	0x3d4e1762	0.05031527
48	0x3cdbe44f	0.026842264
49	0x3d8a6c25	0.06758908
50	0xbde0ad36	-0.10970537
51	0xbcd32ea8	-0.025779083
52	0x3d94bbbb	0.07262369
53	0x3d9241f4	0.07141486
54	0xbdd28c80	-0.102807045
55	0x3e03712a	0.12836137
56	0x3c975f76	0.018478137
57	0xbcc03611	-0.02346328
58	0x3dabaa52	0.083820954
59	0xbd87dd0c	-0.06633958
60	0x3cccab23	0.024983948
61	0xbda2dcf2	-0.07952298
62	0x3d5c086e	0.053718977
63	0x3e05a90f	0.13052772
64	0xbd9d1f6e	-0.0767201
65	0x3cd3bc59	0.025846647
66	0x3d3ed54a	0.046590127
67	0xbdb6474d	-0.08900318
68	0xbd94f2fd	-0.07272909
69	0xbd4b3689	-0.049612556
70	0xbe0b1869	-0.1358353
71	0xbdc22c31	-0.09481085
72	0xbce62ea1	-0.028098406
73	0x3d9b6005	0.07586674
74	0x3c15412d	0.009109777
75	0xbdcec633	-0.10096397
76	0xbde9b752	-0.11411919
77	0xbc528714	-0.012849588
78	0x3dc9c350	0.09851706
79	0x3dde137e	0.108435616
80	0x3db1dac4	0.08684304
81	0xbe002915	-0.12515672
82	0xbcab4fbf	-0.02091205
83	0xbdcab4b8	-0.098977506
84	0x3d27cc91	0.040966574
85	0x3dc93a16	0.09825532
86	0x3d81b5d8	0.06333512
87	0x3e121f0c	0.14269656
88	0xbdfe232d	-0.12409053
89	0x3dac806a	0.084229305
90	0xbd248f01	-0.04017544
91	0x3cf41ee5	0.029799888
92	0x3deb2303	0.11481287
93	0x3d9e0710	0.07716191
94	0x3d134bc8	0.035960943
95	0x3d894170	0.06701934
96	0x3df016ff	0.11723136
97	0x3d2d646b	0.042332094
98	0xbdf04a34	-0.11732903
99	0x3e1afcbc	0.15135473
100	0x3e06e7d3	0.13174371
101	0xbd42c0ea	-0.04754726
102	0x3d099239	0.033586714
103	0xbd795cc4	-0.060879484
104	0xbc0a8b8e	-0.008456124
105	0xbdd16a6d	-0.10225377
106	0x3d9a121a	0.07522984
107	0x3dca0548	0.098642886
108	0x3d075f70	0.03305
109	0x3d8b23fc	0.06793973
110	0x3d793363	0.06084002
111	0x3df03ccd	0.11730347
112	0x3db40fcb	0.08792075
113	0xbd8170a8	-0.063203156
114	0x3d798d21	0.060925607
115	0x3d995e8c	0.074887365
116	0x3ddd66ca	0.10810621
117	0xbde686be	-0.11256169
118	0xbd1f4619	-0.03888521
119	0x3db42a4f	0.08797132
120	0xbcd88b42	-0.02643359
121	0x3e135795	0.14388879
122	0xbe0d2b28	-0.13785994
123	0x3d97d08c	0.07412824
124	0x3db915d0	0.090373635
125	0x3d5e7728	0.054312855
126	0xbde86c40	-0.11348772
127	0x3d3d1389	0.04616121
128	0x3dcb1386	0.09915833
129	0x3d9c3b71	0.07628525
130	0xbd35bf37	-0.04437181
131	0xbe068e80	-0.13140297
132	0xbcd291ea	-0.025704343
133	0x3ceb4886	0.028721105
134	0xbd6cd263	-0.057817828
135	0xbb9a45a5	-0.0047080093
136	0xbd156370	-0.036471784
137	0xbdc01948	-0.09379822
138	0x3cb15314	0.02164606
139	0x3dbeaa2a	0.093098
140	0xbdc9ac2c	-0.09847292
141	0xbdd20d3f	-0.10256433
142	0xbd1456ee	-0.036215715
143	0x3c796f0c	0.01522423
144	0x3c757b58	0.014983021
145	0x3dcc7e71	0.09985054
146	0xbe22c69d	-0.15896077
147	0x3d84d953	0.06486764
148	0x3d0b3132	0.033982463
149	0xbdc6a156	-0.09698741
150	0x3d33a7fc	0.043861374
151	0xbdcb956e	-0.09940611
152	0x3cb8d90a	0.02256443
153	0xbdb80bbf	-0.089866154
154	0x3cc3f96a	0.02392264
155	0xbca33f73	-0.019927716
156	0x3dce1565	0.100626744
157	0xbcb042e4	-0.021516271
158	0xbcd35cc9	-0.02580108
159	0x3e138431	0.14405896
160	0xbdb73051	-0.089447625
161	0x3de234aa	0.11045201
162	0x3d4e9905	0.0504389
163	0xbe01242f	-0.12611459
164	0xbdc0c02f	-0.09411656
165	0x3be2effd	0.0069255815
166	0xbd323b0b	-0.04351334
167	0x3c3be776	0.011468759
168	0x3cc522e9	0.024064498
169	0xbdc7e0fb	-0.097597085
170	0xbe0e9916	-0.13925585
171	0x3d9bdaee	0.07610117
172	0xbc664995	-0.014055629
173	0x3a9db1d0	0.0012031142
174	0x3d81cd2c	0.063379616
175	0xbc36431f	-0.011124401
176	0xbe0b6c27	-0.13615476
177	0x3e15001c	0.14550823
178	0xbc5e759d	-0.013577846
179	0xbc5fa39d	-0.013649848
180	0x3d619e93	0.05508287
181	0xbcccd6b2	-0.025004718
182	0x3e0f0d95	0.13970025
183	0x3bd888de	0.0066081127
184	0xbd65099c	-0.055917367
185	0x3daf910b	0.085725866
186	0xbcdd36bb	-0.027003637
187	0xbd09a91b	-0.033608537
188	0x3dc92482	0.098214164
189	0x3e18d0e8	0.14923441
190	0xbd9c244b	-0.0762411
191	0xbd7bb974	-0.06145616
192	0xbdde2203	-0.10846331
193	0x3d61313b	0.05497859
194	0x3da9162d	0.08256183
195	0xbde837f7	-0.113387994
196	0x3e1d834c	0.15382117
197	0x3c5f53af	0.013630792
198	0x3d39df86	0.045379184
199	0xbd5c45ef	-0.05377763

lstm.bias_hh_l0 f4 [200]
0	0xbd54135f	-0.051776286
1	0x3d99747c	0.07492921
2	0xbdcafabb	-0.09911104
3	0x3dcf4490	0.10120499
4	0xbd91608f	-0.07098495
5	0x3dd32b6c	0.103110164
6	0x3ac90c14	0.0015338683
7	0xbd8a0a06	-0.06740193
8	0x3e0e7d51	0.13914992
9	0x3deb2356	0.11481349
10	0xbd9027fe	-0.07038878
11	0xb93c742a	-0.00017972352
12	0xbc0b8f79	-0.008518093
13	0x3d2eeb46	0.042704843
14	0x3e012f22	0.12615636
15	0xbc4a240c	-0.012337696
16	0x3d5aa1dd	0.05337702
17	0x3d8ddea9	0.06927235
18	0xbdb5d0b4	-0.088776976
19	0xbae2d356	-0.0017305415
20	0x3cea9906	0.02863742
21	0xbdba14e8	-0.09086019
22	0xbd0878f9	-0.033318494
23	0x3da52ae7	0.080648236
24	0xbca5b3ff	-0.02022743
25	0x3dd6276a	0.104567364
26	0xbe0c24e5	-0.13685949
27	0x3dde174c	0.10844287
28	0x3bd34836	0.006447817
29	0x3db61166	0.08890037
30	0xbcb1404d	-0.021637106
31	0x3c8ff230	0.017571539
32	0xbc2d8f22	-0.010593208
33	0x3dd10f3c	0.10207984
34	0x3dddcabf	0.108296864
35	0x3dcc2a3a	0.099689916
36	0x3d88510d	0.06656084
37	0xbc93669b	-0.017993262
38	0xbcd4671c	-0.025928073
39	0x3e2a3e89	0.16625418
40	0xbd3c4409	-0.04596332
41	0xbd280381	-0.041018967
42	0xbc431738	-0.011907391
43	0xbe045370	-0.12922454
44	0x3d62404f	0.05523711
45	0x3c8bacd9	0.017050194
46	0xbd9ff56e	-0.07810484
47	0xbdea4eb3	-0.11440792
48	0xbdd74cce	-0.10512696
49	0x3d6e77fd	0.0582199
50	0xbe0e9e56	-0.13927588
51	0x3d8d2b61	0.068930395
52	0xbd5281cc	-0.051393315
53	0xbd488406	-0.048954032
54	0x3d86fc79	0.06591124
55	0xbd12c0ef	-0.035828527
56	0xbc278064	-0.010223482
57	0xbc1ccf6a	-0.009570936
58	0x3d99f316	0.07517068
59	0x3c487aac	0.0122362785
60	0xbd76f6a6	-0.060293816
61	0x3db51a33	0.08842888
62	0xbd561eac	-0.052275345
63	0xbdccde78	-0.1000337
64	0x3d4bd4ab	0.049763363
65	0xbd10e6f7	-0.035376515
66	0xbe0d16e8	-0.1377827
67	0x3dc301b0	0.09521806
68	0x3d414611	0.04718596
69	0x3cb9b15c	0.02266758
70	0x3dba0432	0.090828314
71	0xbdd9fe1d	-0.106441714
72	0x3e0ae348	0.13563263
73	0xbdb700f2	-0.08935727
74	0x3da57628	0.08079177
75	0xbc731647	-0.014836854
76	0xbdc82e5a	-0.09774466
77	0x3e22dea7	0.15905248
78	0x3ddcceba	0.107816175
79	0xbdd51583	-0.10404494
80	0x3d092937	0.03348657
81	0xbda2bcce	-0.07946168
82	0x3e1490a0	0.14508295
83	0xbca1967a	-0.019725073
84	0x3e029bfc	0.12754816
85	0x3dadb2e8	0.08481389
86	0xbd8147ed	-0.06312547
87	0x3e14e8f0	0.14541984
88	0x3daa83a4	0.0832589
89	0x3d7efafc	0.062251076
90	0xbdbe03f4	-0.09278098
91	0xbe15dfa1	-0.14636089
92	0xbe240761	-0.1601844
93	0xbc718a52	-0.014742451
94	0x3dc8d7e6	0.09806804
95	0xbd3c4252	-0.045961685
96	0x3d7d1da2	0.06179584
97	0xba498000	-0.0007686615
98	0x3dcbc72e	0.099501
99	0x3e0e79ab	0.139136
100	0x3b0eefba	0.0021810369
101	0xbc4f1a8f	-0.012640609
102	0x3c94e2ef	0.018174617
103	0x3c3f3f0c	0.011672746
104	0xbddf22b8	-0.10895294
105	0xbdbcbcad	-0.092156745
106	0xbc9cc1e8	-0.01913543
107	0x3bca17ce	0.0061673885
108	0x3d8585e1	0.06519676
109	0xbcff911c	-0.031197123
110	0xbdc3f7a3	-0.09568717
111	0x3dcfb70f	0.101423375
112	0xbdaa5f07	-0.08318906
113	0x3d489ee1	0.048979644
114	0xbd52d0df	-0.051468726
115	0x3ddd9586	0.10819535
116	0xbcd4a739	-0.025958644
117	0xbd8f276c	-0.06989941
118	0x3e05f5e3	0.1308208
119	0x3dc04831	0.093887694
120	0xbdf31077	-0.11868375
121	0xbd19c642	-0.03754259
122	0xbd83fc67	-0.06444626
123	0x3dcb1e5e	0.099179015
124	0x3df948b8	0.12172073
125	0xbd9ae84f	-0.075638406
126	0x3cf958d2	0.03043786
127	0x3e00a28e	0.1256201
128	0xbde89760	-0.113569975
129	0x3c9a499b	0.018833926
130	0xbd3fa3ef	-0.0467872
131	0xbc11da6d	-0.008902174
132	0x3dbd40bc	0.09240863
133	0xbc603332	-0.013684081
134	0x3cbe64d1	0.023241432
135	0xbc54e7a2	-0.012994679
136	0xbd020fcf	-0.031753357
137	0xbda53fe1	-0.080688246
138	0xbda5d90a	-0.080980375
139	0xbe0b0e3c	-0.13579649
140	0xbddc88f6	-0.10768311
141	0x3e0c9036	0.13726887
142	0xbd7e280f	-0.06204992
143	0xbdc665ee	-0.0968741
144	0x3ce37965	0.027767846
145	0xbdb80961	-0.08986164
146	0x3b1fd908	0.0024390835
147	0xbd679ad4	-0.05654414
148	0xbde08d4f	-0.109644525
149	0x3dc258c8	0.0948959
150	0x3e0be005	0.13659675
151	0x3d4d385d	0.05010258
152	0xbccbc79a	-0.02487545
153	0xbc51f3b2	-0.012814449
154	0x3d179a62	0.037012465
155	0x3d03e9b7	0.03220531
156	0x3da7746b	0.08176502
157	0xbe0009c9	-0.12503733
158	0xbc7d2a9b	-0.0154520525
159	0xbd28a40a	-0.041172065
160	0xbd0e5e73	-0.034758043
161	0x3d000036	0.0312502
162	0xbdc80ea2	-0.09768416
163	0xbdca6522	-0.09882571
164	0x3e149608	0.14510357
165	0xbdbc35c4	-0.091899425
166	0xbd7b8e3d	-0.061414946
167	0xbd424e43	-0.047437917
168	0x3e22bbd6	0.15891966
169	0x3d8ae40b	0.06781777
170	0xbcbfe325	-0.02342374
171	0x3e00fc4b	0.12596242
172	0xbd0c38a8	-0.03423372
173	0xbd56ac88	-0.052410632
174	0x3d100d3d	0.035168875
175	0x3d8ca107	0.06866651
176	0x3d525dfb	0.051359158
177	0x3d150890	0.03638512
178	0xbd0d0820	-0.034431577
179	0xbcfc8d26	-0.030829024
180	0x3d816404	0.063179046
181	0xbe029986	-0.12753877
182	0x3d89f0f1	0.06735409
183	0xbbf1d1a1	-0.007379726
184	0x3e048744	0.12942225
185	0xbe10a269	-0.14124455
186	0xbc2faf54	-0.010722954
187	0xbdafc632	-0.08582725
188	0x3d8441af	0.06457841
189	0xbd992b64	-0.07478979
190	0x3dd8af93	0.10580363
191	0xbdfc110e	-0.123079404
192	0xbe1dc740	-0.15408039
193	0xbd7af744	-0.061270967
194	0x3d94abcb	0.072593294
195	0x3cad1f6d	0.021133149
196	0x3e02cae7	0.12772714
197	0xbd620787	-0.05518296
198	0x3dc45ecc	0.095883936
199	0x3de284bc	0.11060473

lstm.weight_ih_l1 f4 [200, 50]
0	0xbdc5f997	-0.09666746
1	0x3dbe5e73	0.092953585
2	0x3d3a04f8	0.045414895
3	0xbd153de8	-0.03643599
4	0x3dbee88d	0.09321699
5	0xbdb0035b	-0.0859439
6	0x3b9cd3e7	0.004786003
7	0x3d415d40	0.04720807
8	0xbd8072f4	-0.062719256
9	0x3db7819b	0.08960267
10	0xbe281072	-0.16412523
11	0xbd132d5b	-0.035931926
12	0xbdd4eb79	-0.10396475
13	0xbe05867a	-0.1303958
14	0xbd516bf9	-0.05112836
15	0x3d8328ab	0.06404241
16	0xbcb78c16	-0.022405665
17	0x3e289fc2	0.16467193
18	0x3e1ea55e	0.1549277
19	0xbd87a6f8	-0.06623644
20	0xbd855c43	-0.06511738
21	0x3d0c9d3e	0.034329645
22	0xbd2ce2bd	-0.042208422
23	0xbe03cb6c	-0.12870568
24	0x3e093247	0.13398086
25	0x3cebc280	0.028779268
26	0xbe046925	-0.12930734
27	0x3d6bd7d1	0.057578865
28	0xbc496945	-0.012293165
29	0x3df91076	0.12161343
30	0x3ded7d8d	0.115962125
31	0x3aa61895	0.0012672121
32	0xbd129c56	-0.035793625
33	0xbdd2d4c2	-0.102944866
34	0x3c049bc7	0.008093781
35	0xbdd455ee	-0.10367952
36	0xbd96719b	-0.07345887
37	0xbd375994	-0.044763163
38	0xbc79e060	-0.015251249
39	0x3d56bc47	0.05242565
40	0xbdfbb6de	-0.122907385
41	0x3ddf8bda	0.109153464
42	0x3d741167	0.05958691
43	0x3cfdc86b	0.030979356
44	0xbde252df	-0.11050963
45	0x3d53b4ac	0.051685974
46	0x3d121306	0.035662673
47	0x3d095398	0.033526987
48	0xbd9f7293	-0.07785525
49	0xbd1507a2	-0.036384232
50	0xbc27491c	-0.010210302
51	0xbdd44164	-0.10364035
52	0xbd190afb	-0.037363987
53	0x3d05f0db	0.0327004
54	0x3d9f50b5	0.077790655
55	0x3c9e6230	0.019333929
56	0x3d8302ca	0.06397016
57	0x3d871323	0.06595447
58	0x3d9f8af8	0.07790178
59	0x3db9329b	0.09042855
60	0x3df1f5a4	0.1181443
61	0xbd6400d2	-0.055664845
62	0x3e07033d	0.13184829
63	0xbd386252	-0.04501564
64	0x3dee0e54	0.116238266
65	0xbcba01cf	-0.02270594
66	0x3dd9b5e0	0.10630393
67	0x3d16a797	0.03678092
68	0x3b2bac4c	0.0026195226
69	0xbccf8477	-0.025331719
70	0xbda981f1	-0.082767375
71	0xbd98f2e8	-0.07468206
72	0xbdb06199	-0.08612365
73	0x3dab1c8c	0.08355054
74	0xbcbc6654	-0.022998013
75	0xbc75a4de	-0.014992921
76	0x3d00fb19	0.031489465
77	0xbcc1d637	-0.023661716
78	0x3dc7a351	0.09747947
79	0x3aff583c	0.0019481252
80	0xbdf5bb3f	-0.11998605
81	0x3d655624	0.055990353
82	0xbdc5d0b4	-0.096589476
83	0xbe07c9c0	-0.13260555
84	0x3e0a6e6f	0.1351869
85	0xbbdaf218	-0.006681692
86	0xbda53e10	-0.08068478
87	0x3da4b26f	0.08041846
88	0xbd7a54c6	-0.061116003
89	0xbd6748f2	-0.05646605
90	0xbd8e5423	-0.069496416
91	0x3df13cb1	0.11779154
92	0x3dd5646f	0.10419547
93	0xbca6934a	-0.020333905
94	0xbcb17ec3	-0.02166689
95	0x3d0b68b9	0.03403542
96	0x3e184d77	0.148733
97	0x3ddf3808	0.10899359
98	0x3cd593b0	0.0260714
99	0x3cf7bfd9	0.030242847
100	0x3dc8a543	0.09797146
101	0xbdcad681	-0.099041946
102	0x3d3b0ce0	0.045666575
103	0xbd738e54	-0.059461907
104	0xbd2475d3	-0.04015143
105	0x3d870b4f	0.06593954
106	0x3d229633	0.039694022
107	0xbdaac81d	-0.0833895
108	0xbd2bfac5	-0.0419872
109	0xbc902168	-0.017594054
110	0xbb1942a8	-0.0023385677
111	0x3dbf0822	0.09327723
112	0x3d9517a1	0.072798975
113	0x3d461ccd	0.04836731
114	0x3a676fea	0.0008828627
115	0xbd79efa7	-0.061019566
116	0xbdc019fb	-0.093799554
117	0x3e090187	0.13379489
118	0xbdf1df10	-0.11810124
119	0x3d09f57a	0.03368137
120	0xbe246ddc	-0.16057533
121	0xbdc3ed30	-0.09566724
122	0xbdcd13c6	-0.10013537
123	0xbe2ac214	-0.16675597
124	0x3d99b822	0.07505824
125	0xbbc84613	-0.006111869
126	0xbdf70271	-0.120610125
127	0xbd3ac4c4	-0.045597807
128	0xbd99f98e	-0.07518302
129	0x3e1f7ceb	0.15574996
130	0x3d7d8bde	0.061900966
131	0xbe09e05e	-0.13464496
132	0x3d8e72c6	0.06955485
133	0x3d8497a3	0.06474235
134	0xbde597b2	-0.11210574
135	0x3da40db6	0.08010428
136	0x3da1c17c	0.07898232
137	0xbe0ec8c9	-0.13943781
138	0xbe0bc8d0	-0.13650823
139	0xbd1064fb	-0.035252552
140	0xbd93869a	-0.072034076
141	0xbd87436a	-0.06604655
142	0xbdda6593	-0.10663905
143	0x3e1339ef	0.14377569
144	0x3bf87f52	0.007583537
145	0xbd9761e4	-0.07391718
146	0x3dcfc377	0.10144704
147	0xbd6ddf5d	-0.058074344
148	0xbb7f9627	-0.003899941
149	0xbdb615bb	-0.088908635
150	0x3dd58a74	0.104267985
151	0x3e19eb1b	0.15031092
152	0xbddd48e6	-0.1080492
153	0x3de24707	0.11048704
154	0xbdde6d36	-0.10860674
155	0x3dcc0d5a	0.09963484
156	0x3c6c7021	0.0144310305
157	0x3b80c6aa	0.0039299326
158	0xbce728e9	-0.02821775
159	0x3dc546b6	0.09632628
160	0x3da40900	0.08009529
161	0xbe1ad141	-0.15118887
162	0xbd823f85	-0.06359772
163	0xbdc0a804	-0.094070464
164	0xbd81d072	-0.06338586
165	0xbd53eacb	-0.051737588
166	0xbd296968	-0.04136029
167	0xbc62a0ab	-0.013832252
168	0xbda37115	-0.07980553
169	0xbe06bf1b	-0.13158838
170	0xbd4632ac	-0.04838817
171	0x3e0484da	0.12941304
172	0x3dcce216	0.1000406
173	0xbc7299aa	-0.014807144
174	0x3db98348	0.09058243
175	0x3e038fdb	0.12847845
176	0x3dde6b60	0.10860324
177	0xbde4a09a	-0.11163445
178	0xbbcfc798	-0.006340932
179	0xbd2c7c6b	-0.04211084
180	0x3c020d5b	0.0079377545
181	0xbdd27611	-0.10276426
182	0x3db2d7dc	0.08732578
183	0x3dbe4607	0.092907004
184	0x3dd7ad37	0.10531085
185	0xbb169ca7	-0.0022981556
186	0xbdb3ff1d	-0.08788893
187	0x3d80d1f5	0.06290046
188	0xbca5f78c	-0.020259641
189	0x3deb3342	0.11484386
190	0x3e0c72d0	0.13715672
191	0xbe0034e8	-0.12520182
192	0xbd3561d9	-0.044282768
193	0x3d1b00ac	0.037842438
194	0xbd3d90e4	-0.046280757
195	0x3c2a009a	0.01037612
196	0x3e0b5951	0.1360829
197	0xbd66cec6	-0.05634954
198	0x3d2e14cf	0.042500313
199	0xbc80cfb4	-0.01572404
200	0xbc1b0842	-0.009462418
201	0xbdcf144b	-0.101112925
202	0xbdc5555b	-0.09635421
203	0xbdf763a0	-0.12079549
204	0xbe34a36e	-0.17640468
205	0x3df5fe91	0.12011445
206	0x3d8c8c60	0.06862712
207	0xbc0f6325	-0.008751665
208	0x3d86a1c8	0.06573826
209	0x3e04281b	0.12905924
210	0x3cb85d9b	0.022505572
211	0xbe00a1da	-0.12561741
212	0x3caadf5e	0.020858463
213	0xbad31d5e	-0.0016106775
214	0x3dcd4fcd	0.100249864
215	0x3d9d60ed	0.07684503
216	0x3e02c4ff	0.1277046
217	0xbdba8414	-0.09107223
218	0xbe1ac1bb	-0.15112965
219	0x3d8098b3	0.06279125
220	0x3c9e1d91	0.019301208
221	0x3e249c5e	0.16075274
222	0xbc2663ae	-0.010155601
223	0x3e0ca42d	0.13734503
224	0x3dfbd2a0	0.12296033
225	0xbdfce5f5	-0.12348548
226	0x3c13183c	0.008977946
227	0x3e1d1b5a	0.15342465
228	0x3de1fee1	0.110349424
229	0xbd63150a	-0.055439986
230	0x3cd71e30	0.026259512
231	0xbda2e20a	-0.0795327
232	0xbdbed1ac	-0.093173355
233	0xbd85c077	-0.065308504
234	0x3df4fb62	0.1196201
235	0x3d1b9389	0.037982497
236	0xbd5766e1	-0.052588347
237	0x3d9c9d60	0.076472044
238	0xbd523028	-0.051315457
239	0x3aad0b7c	0.0013202275
240	0x3de7c0aa	0.11316045
241	0x3dbbabad	0.09163604
242	0x3d11fc5c	0.03564106
243	0xbc8adc54	-0.016950764
244	0xbda6dc3b	-0.081474744
245	0x3d362dc1	0.044477228
246	0xbe2eda71	-0.17075516
247	0x3e1fd0a3	0.15606932
248	0xbe24f696	-0.1610969
249	0xbdf40949	-0.119158335
250	0xbd01990f	-0.03164011
251	0xbda0f819	-0.07859821
252	0xbe046510	-0.12929177
253	0x3e00225e	0.1251311
254	0xbd001546	-0.031270288
255	0x3d821554	0.06351724

lstm.weight_hh_l1 f4 [200, 50]
0	0xbd6cf233	-0.057848167
1	0x3c1e98ec	0.009680014
2	0xbe13ccac	-0.14433545
3	0xbb4fb799	-0.0031695126
4	0xbdde85e3	-0.108653806
5	0x3dd54435	0.104134
6	0x3de9c118	0.11413783
7	0xbe067351	-0.13129927
8	0xbdf29362	-0.11844517
9	0x3ca3d55e	0.019999202
10	0x3d538d16	0.051648222
11	0x3d89a09c	0.06720087
12	0x3e0fa843	0.1402903
13	0x3d40187e	0.046898358
14	0x3d8ce2ba	0.06879182
15	0x3e056506	0.13026819
16	0x3ddb4124	0.10705784
17	0xbca6ac3f	-0.020345805
18	0xbda12b5c	-0.07869598
19	0xbe178843	-0.14798073
20	0x3d755820	0.059898496
21	0x3e02dd35	0.12779696
22	0xbe1d9f3e	-0.15392777
23	0x3dad12a4	0.08450821
24	0x3e141481	0.14460947
25	0x3d770e5e	0.060316436
26	0x3cf1cda2	0.029516999
27	0x3d5a0136	0.05322381
28	0x3db15757	0.08659237
29	0x3d21e179	0.039521668
30	0xbe149cbc	-0.14512914
31	0xbdb3d024	-0.08779934
32	0x3dc62fa3	0.09677055
33	0xbd543b31	-0.05181426
34	0x3d1f7e3b	0.038938742
35	0x3c38b6f4	0.011274088
36	0xbda5c389	-0.08093936
37	0x3d477012	0.048690863
38	0xbd6c6ef9	-0.05772302
39	0x3c2e88f4	0.010652769
40	0xbda92c51	-0.08260406
41	0x3ddff967	0.109362416
42	0xbd8e9ec2	-0.069638744
43	0x3aa7a7f2	0.001279114
44	0xbd118cc1	-0.035534624
45	0xbd200199	-0.039064024
46	0x39957080	0.00028503314
47	0xbd062e01	-0.032758716
48	0xbd33bfb0	-0.04388398
49	0xbcee4202	-0.02908421
50	0x3d6b8073	0.057495546
51	0x3e221886	0.15829667
52	0xbc9697a3	-0.018382853
53	0xbc96a4ac	-0.018389069
54	0x3c5d5d2e	0.013510985
55	0x3dde0e9a	0.10842629
56	0x3bdd5a0f	0.0067551206
57	0x3dbfb7dd	0.09361241
58	0x3d96acf0	0.07357204
59	0x3dab31d4	0.08359113
60	0x3df352b4	0.11881009
61	0x3cb761c2	0.022385482
62	0x3d3d2989	0.04618219
63	0xbd008546	-0.0313771
64	0xbddc7988	-0.10765368
65	0xbd8f17ee	-0.06986986
66	0x3d5bff75	0.05371042
67	0xbbfd1e93	-0.007724592
68	0x3cc21def	0.023695914
69	0xbd556d1f	-0.05210602
70	0xbd9cdd49	-0.07659394
71	0x3e16017d	0.14649005
72	0x3cb58159	0.022156404
73	0xbc5819f0	-0.013189778
74	0x3b8e48d8	0.0043421797
75	0x3d17e4f2	0.037083574
76	0xbcbcaabb	-0.02303063
77	0x3dbf7d53	0.093500756
78	0xbdd40cec	-0.10354027
79	0x3dc9343d	0.09824417
80	0xbcf3c046	-0.029754769
81	0xbdaa7ed9	-0.083249755
82	0x3e114145	0.14185055
83	0x3d9e0af6	0.077169344
84	0xbe103f16	-0.14086565
85	0x3d97c0bf	0.0740981
86	0xbcb5d6f6	-0.022197228
87	0x3dff867a	0.12476821
88	0x3db11e0c	0.08648309
89	0x3da1a484	0.07892707
90	0xbcdc355a	-0.026880909
91	0x3dbf3603	0.09336474
92	0xbca322ab	-0.019913992
93	0xbd54df33	-0.05197067
94	0x3d991923	0.074754976
95	0x3d9c2b5f	0.0762546
96	0xbd8de892	-0.06929125
97	0x3d1dcc41	0.03852487
98	0xbe04b637	-0.12960134
99	0xbe132adf	-0.14371823
100	0x3d17f422	0.037098058
101	0x3d429d27	0.047513153
102	0x3c326f13	0.01089074
103	0x3d3bc5c4	0.0458429
104	0xbe208978	-0.1567744
105	0xbdaa5ef5	-0.08318893
106	0x3d1514a0	0.036396623
107	0xbe19adf8	-0.1500777
108	0xbdebaef6	-0.115079805
109	0x3db8bd54	0.090204865
110	0xbdb65de2	-0.089046255
111	0xbd0c7a02	-0.034296043
112	0x3de5efb6	0.11227362
113	0x3d931262	0.071812406
114	0x3bb0b89f	0.0053931023
115	0x3e18a69a	0.14907303
116	0xbe1ee4cc	-0.15516967
117	0x3d1eb041	0.038742308
118	0xbdb36c74	-0.0876092
119	0xbd12630b	-0.035738986
120	0x3d51871c	0.05115424
121	0x3bb0e6d9	0.005398613
122	0xbd43b94e	-0.047784142
123	0x3d32c022	0.043640263
124	0xbd283520	-0.04106629
125	0xbd84aa62	-0.064778104
126	0xbdba2ef2	-0.09090985
127	0xbdf7cf68	-0.121001065
128	0xbe184cf9	-0.14873113
129	0xbc64dec0	-0.013969123
130	0x3df6a83e	0.120438084
131	0x3dd82660	0.105541945
132	0xbdbbd427	-0.09171324
133	0x3dd3dfba	0.10345407
134	0xbe1262c8	-0.14295495
135	0x3d4ae5dc	0.049535617
136	0x3d776765	0.06040134
137	0x3e15faa6	0.14646396
138	0x3dae76c7	0.08518749
139	0x3dea2da9	0.1143449
140	0x3d9e642b	0.07733949
141	0x3dc3661e	0.09540962
142	0xbe14817c	-0.1450252
143	0xbd83e7d9	-0.06440706
144	0x3cb7724e	0.022393372
145	0x3e1e3f46	0.15453824
146	0xbd30544e	-0.04304915
147	0x3dea18ea	0.11430533
148	0xbd4d1258	-0.050066322
149	0x3e12cd59	0.14336146
150	0x3d878265	0.06616668
151	0x3c679409	0.014134415
152	0x3c5cb3b5	0.01347058
153	0xbdbde517	-0.09272211
154	0xbc242329	-0.010018148
155	0x3e0c1b40	0.1368227
156	0xbd8d7fff	-0.06909179
157	0x3d7bd13a	0.06147883
158	0x3ae412fe	0.001740068
159	0x3d9bc20e	0.07605372
160	0x3e20d96b	0.15707938
161	0x3ba45274	0.005014712
162	0xbdc52677	-0.09626477
163	0xbdc3fc1b	-0.0956957
164	0x3c091983	0.008367899
165	0xbdf6d237	-0.12051814
166	0x3d5206e4	0.051276103
167	0x3e0802f9	0.13282384
168	0x3ddd69fd	0.10811231
169	0xbd97c219	-0.07410068
170	0xbdbe2539	-0.092844434
171	0x3dc3b6a1	0.09556318
172	0xbd1ef27a	-0.038805462
173	0x3d7cead8	0.061747402
174	0x3dc5c487	0.09656625
175	0x3d42c2cd	0.047549058
176	0xbb959c45	-0.004565748
177	0xbd942a71	-0.072346576
178	0xbcb2586c	-0.021770678
179	0x3dea4f53	0.11440911
180	0xbc975161	-0.018471422
181	0xbd3bc5c2	-0.045842893
182	0xbdf80bb5	-0.12111608
183	0x3c5c35af	0.013440534
184	0x3e0f2b45	0.1398135
185	0xbde95afd	-0.11394308
186	0x3d008443	0.031376135
187	0x3d8d393e	0.06895684
188	0xbdc8fb2b	-0.098135315
189	0xbe173155	-0.14764912
190	0xbdb2b179	-0.087252565
191	0x3b6298e8	0.0034576003
192	0x3e072ac5	0.13199909
193	0xb9a47463	-0.00031367232
194	0xbdf67ac7	-0.12035137
195	0xbe0db0b6	-0.13836941
196	0x3dceeeef	0.10104167
197	0x3da580a5	0.080811776
198	0x3c972585	0.018450508
199	0xbe056a56	-0.13028845
200	0xbda14399	-0.07874221
201	0x3decb3d0	0.11557734
202	0x3ce5b3fa	0.028039921
203	0x3dcf7fc9	0.10131795
204	0xbcbe306e	-0.023216452
205	0xbd4f59ba	-0.05062268
206	0xbd8c713f	-0.068575375
207	0x3d199c45	0.037502546
208	0xbdcf5cb8	-0.101251066
209	0x3c98865e	0.018618759
210	0x3e016a89	0.12638296
211	0x3c356a0c	0.011072647
212	0x3db2c1fb	0.08728405
213	0xbdabf09c	-0.08395502
214	0xbbe30b61	-0.0069288467
215	0xbe10a078	-0.14123714
216	0xbcc096e1	-0.023509445
217	0x3ddeffc2	0.10888626
218	0xbd029847	-0.031883504
219	0x3d6b8c70	0.05750698
220	0xbbc0021d	-0.005859627
221	0x3c9ac1c0	0.018891215
222	0xbc17d3dc	-0.00926682
223	0xbd8ebcce	-0.069696054
224	0x3d9718c6	0.07377772
225	0xbdf111dc	-0.117709845
226	0xbcb493d3	-0.022043144
227	0xbdc7a6b1	-0.09748591
228	0xbcf87df0	-0.03033349
229	0xbd64754d	-0.05577593
230	0xbc4e8ac7	-0.012606329
231	0x3d3d0c01	0.046154026
232	0x3e0a13e6	0.13484153
233	0x3d809975	0.062792696
234	0x3dae6717	0.085157566
235	0x3d24e699	0.040258978
236	0xbcd5b1c9	-0.026085751
237	0xbdbf64fd	-0.09345434
238	0x3e0f8b6a	0.14018026
239	0x3d030a50	0.031992257
240	0xbdc08908	-0.09401137
241	0xbd0e3786	-0.03472092
242	0x3e01ac88	0.12663472
243	0xbd81d59a	-0.063395694
244	0xbdb2b450	-0.08725798
245	0x3d32150c	0.043477103
246	0xbdd48785	-0.10377411
247	0xbd4c9b02	-0.049952514
248	0xbdd9374a	-0.10606249
249	0xbc0972cb	-0.008389185
250	0xbd2e955e	-0.042622916
251	0xbc36a14d	-0.011146856
252	0x3d2281ad	0.03967445
253	0xbdc1750c	-0.09446153
254	0x3e007ec3	0.12548356
255	0xbdd5d44c	-0.10440883

lstm.bias_ih_l1 f4 [200]
0	0x3deb6ec1	0.11495734
1	0xbd8845ff	-0.06653976
2	0x3e1c70c0	0.15277386
3	0x3d5c3b65	0.05376758
4	0xbe05dee3	-0.13073306
5	0xbe0c7794	-0.1371749
6	0x3e1e733f	0.1547365
7	0x3db5fbf9	0.088859506
8	0xbc592fc6	-0.013256019
9	0x3d8baada	0.06819697
10	0xbe079f70	-0.13244414
11	0xbe0c0950	-0.13675427
12	0x3d0cd603	0.034383785
13	0x3dbbc817	0.091690235
14	0x3cce08e9	0.025150733
15	0x3e0e5764	0.13900524
16	0x3c980ee0	0.01856178
17	0x3e055055	0.13018925
18	0xbd9c645d	-0.0763633
19	0x3d856f1c	0.06515333
20	0xbd90daaf	-0.070729606
21	0xbd97fdfd	-0.07421491
22	0xbd7f5d09	-0.062344585
23	0xbd1dfe01	-0.038572315
24	0xbd17246a	-0.03689996
25	0x3de08ebc	0.109647244
26	0x3da3cfaa	0.07998593
27	0x3ddb9315	0.10721413
28	0x3c85d943	0.01633895
29	0xbd8e2737	-0.069410734
30	0xbc8a3664	-0.016871639
31	0x3dfabef7	0.12243455
32	0xbe194cf5	-0.14970763
33	0x3dc8f992	0.09813227
34	0xbd827956	-0.06370799
35	0x3d505632	0.050863452
36	0x3dbe6c71	0.09298027
37	0xbcedd4fd	-0.029032225
38	0x3ce5ac61	0.028036298
39	0xbdf9a6c6	-0.12190013
40	0xbd3f1f33	-0.046660613
41	0xbe0321f1	-0.12805916
42	0xbda5d43b	-0.080971204
43	0x3db9386d	0.090439655
44	0xbc784c31	-0.015154884
45	0x3d56bd3a	0.052426554
46	0x3c91a2b7	0.017777784
47	0x3e17a176	0.14807686
48	0xbdbefb57	-0.09325283
49	0x3c843a98	0.01614122
50	0x3cc5e8c6	0.024158847
51	0x3d0aa94b	0.033852857
52	0xbdf1c61a	-0.11805363
53	0x3cb86fa4	0.022514172
54	0xbe02c03d	-0.12768646
55	0xbe04a410	-0.1295321
56	0x3d90ab2d	0.07063899
57	0x3c30207e	0.010749934
58	0xbdf351b4	-0.11880818
59	0xbdbaf486	-0.091286704
60	0x3d89e2f0	0.06732738
61	0x3ce05948	0.027386323
62	0x3ce5fa71	0.028073521
63	0x3d39fb1b	0.04540549
64	0xbd915c4f	-0.070976846
65	0xbd56868e	-0.052374415
66	0x3bb6dca4	0.0055805016
67	0xbdb036d6	-0.08604209
68	0x3d8193e0	0.06327033
69	0x3d825277	0.06363385
70	0x3e092aac	0.13395184
71	0x3c6f3581	0.014600159
72	0xbdb1e9af	-0.0868715
73	0xbdf2d087	-0.1185618
74	0xbb352dc2	-0.0027645682
75	0xbdd68b87	-0.104758315
76	0xbd75e3ee	-0.060031824
77	0xbd869153	-0.06570687
78	0xbdcb449b	-0.09925195
79	0xbda204ab	-0.079110466
80	0xbe03ac8f	-0.12858795
81	0xbdff466a	-0.12464602
82	0xbd9667d8	-0.073440254
83	0xbe0af5dc	-0.1357035
84	0x3b670480	0.0035250485
85	0x3d9eea53	0.077595375
86	0x3ddea900	0.10872078
87	0xbc8cbf03	-0.017180925
88	0xbe16e3d6	-0.1473535
89	0xbd24da65	-0.04024734
90	0x3da4e191	0.08050836
91	0x3cd6054f	0.026125578
92	0x3e12f8bf	0.14352702
93	0x3d52c9ad	0.051461864
94	0x3ddad77a	0.1068563
95	0x3d001e40	0.03127885
96	0xbdd09518	-0.101846874
97	0xbda8a901	-0.0823536
98	0xbc658cf1	-0.014010654
99	0x3da8e933	0.08247604
100	0x3d8b7bab	0.06810697
101	0xbddf8847	-0.10914665
102	0xbd533363	-0.051562678
103	0x3ddd9030	0.10818517
104	0xbdf70ca9	-0.120629616
105	0xbdfb7015	-0.12277237
106	0xbdde2896	-0.10847585
107	0xba94ef11	-0.0011362751
108	0xbd97bf18	-0.07409495
109	0x3b1bdf65	0.0023784277
110	0xbd68f65e	-0.05687558
111	0x3b9fbe02	0.0048749456
112	0xbe05994b	-0.13046758
113	0xbdd18e3a	-0.10232206
114	0xbdb76686	-0.08955102
115	0x3dc0260a	0.093822554
116	0x3d1d7b19	0.038447473
117	0xbcceb92e	-0.025234785
118	0xbda75d95	-0.08172146
119	0x3d00dc52	0.031460114
120	0xbdc3cba1	-0.095603235
121	0xbd527735	-0.051383216
122	0xbe03f899	-0.12887801
123	0xbd6b1ec4	-0.057402387
124	0x3c5751c6	0.013142055
125	0x3dc7dfb8	0.09759468
126	0x3cca4468	0.024690822
127	0xbb903463	-0.0044007762
128	0xbe030354	-0.12794238
129	0xbd6348df	-0.055489417
130	0xbd779e8e	-0.060453944
131	0xbd9204b9	-0.07129807
132	0xbdd4b973	-0.10386934
133	0xbd34e32f	-0.04416197
134	0x3d6466db	0.055762153
135	0xbc3f601c	-0.011680629
136	0x3cc213eb	0.023691138
137	0x39addaa4	0.0003316003
138	0xbd5171f4	-0.051134065
139	0xbcaa2592	-0.020769868
140	0xbd7efc40	-0.062252283
141	0x3d13cf82	0.036086567
142	0xbd83f9fe	-0.064441666
143	0x3c5d7b79	0.013518208
144	0xbdafcd3e	-0.08584069
145	0x3dbcf26f	0.09225928
146	0x3befec22	0.0073218504
147	0xbd984857	-0.07435673
148	0xbd47868b	-0.048712295
149	0xbdd127c5	-0.102126636
150	0x3df374d3	0.11887517
151	0xbcc86242	-0.024460915
152	0x3dc4a5de	0.09601949
153	0xbdbc0f8a	-0.09182651
154	0xbd4ab667	-0.04949036
155	0x3d552a61	0.05204237
156	0x3d8d052c	0.06885752
157	0x3d9e98d0	0.077439904
158	0x3d04dd58	0.032437652
159	0xbcd6de63	-0.02622909
160	0x3c0a1810	0.0084285885
161	0x3d18cc2b	0.037304085
162	0x3d9807d2	0.074233666
163	0xbdccb419	-0.099952884
164	0xbd72afb8	-0.05924961
165	0xbdc554a5	-0.09635285
166	0x3d2244d4	0.03961642
167	0xbdc44ba0	-0.09584737
168	0x3dcc0983	0.09962752
169	0x3dd8d7bb	0.10588022
170	0x3d4ac3a2	0.049502976
171	0x3c1d1a17	0.00958874
172	0xbdd27a8d	-0.10277281
173	0x3df84a91	0.121235974
174	0xbe06e5d5	-0.13173611
175	0xbdeec2a6	-0.1165822
176	0xbd72d592	-0.059285708
177	0xbdba5b99	-0.09099502
178	0xbd985640	-0.07438326
179	0xbddf59a5	-0.1090577
180	0xbd1f6db8	-0.038922995
181	0xbd0d930d	-0.034564067
182	0xbda3dfdc	-0.08001682
183	0x3d895e6f	0.06707465
184	0x3dc4f4d8	0.09617013
185	0x3d3c1093	0.045914244
186	0x3d571bce	0.05251675
187	0xbd948c93	-0.07253375
188	0xbe144ee6	-0.14483222
189	0xbdb793a4	-0.08963707
190	0xbdf370e5	-0.11886767
191	0xbdbb0d6a	-0.09133418
192	0x3da82637	0.08210414
193	0x3d83a61d	0.06428168
194	0x3d5a1289	0.053240333
195	0x3ddde315	0.10834328
196	0x3e30ff2b	0.17284839
197	0x3d4c3e7d	0.04986428
198	0xbdb6e45a	-0.08930273
199	0xbe06369e	-0.13106772

lstm.bias_hh_l1 f4 [200]
0	0x3cd48d5f	0.025946317
1	0xbd696e20	-0.05698979
2	0x3e21f67e	0.15816686
3	0xba8b27cb	-0.0010616718
4	0x3db42de4	0.087978154
5	0x3dd15be1	0.10222603
6	0x3e039b90	0.12852311
7	0x3d13fb20	0.036128163
8	0xbd4a293c	-0.04935573
9	0x3d849bb7	0.06475013
10	0xbdabe41a	-0.08393116
11	0xbdbfb7d8	-0.09361237
12	0x3da493c2	0.08035995
13	0x3cb665b2	0.022265289
14	0x3b6c1a3d	0.0036026381
15	0x3d48908a	0.04896597
16	0xbd1132d6	-0.03544887
17	0x3e10500d	0.14093037
18	0xbe077649	-0.13228716
19	0xbdbfb512	-0.09360708
20	0xbd9b6ed3	-0.075894974
21	0x3de670d7	0.11251991
22	0xbdb41154	-0.087923676
23	0x3cfda291	0.030961307
24	0xbd0f4fc4	-0.03498818
25	0xbd14d8ba	-0.0363395
26	0x3d0ccaff	0.03437328
27	0x3dab08e3	0.083513044
28	0x3dc0e501	0.09418679
29	0x3df2119f	0.11819767
30	0xbc522028	-0.012825049
31	0x3dcee2fe	0.10101889
32	0xbd79869e	-0.060919397
33	0xbdcee5fc	-0.1010246
34	0xbc8a8463	-0.01690883
35	0xbdb07dba	-0.086177304
36	0x3c9a2acc	0.018819235
37	0x3d8ff515	0.070291676
38	0x3d83ecda	0.0644166
39	0xbceaf45d	-0.028680975
40	0x3da6da55	0.08147112
41	0xbd41578f	-0.047202643
42	0x3dfff72d	0.12498317
43	0xbdcbe4a1	-0.09955717
44	0x3c6bf836	0.01440244
45	0x3dac3ef5	0.084104456
46	0xbdacea26	-0.08443098
47	0x3d15725b	0.03648601
48	0x3c1d3f08	0.009597547
49	0x3d7f584b	0.062340062
50	0x3da08c5b	0.07839271
51	0x3d8863a3	0.06659629
52	0x3c85ea7f	0.016347168
53	0x3c2d6ebe	0.010585485
54	0xbda90579	-0.08252997
55	0xbd93c8d9	-0.07216043
56	0x3c97a07f	0.018509148
57	0xbba2cfe7	-0.0049686315
58	0x3d8c1dcb	0.0684162
59	0xbdbc3e85	-0.09191612
60	0xbdf16a63	-0.1178787
61	0xbc869798	-0.016429707
62	0xbe021f1d	-0.12707181
63	0x3e071990	0.13193345
64	0x3e1bfa97	0.15232311
65	0x3d36cdba	0.04462979
66	0x3b904744	0.004403027
67	0x3d558cf2	0.05213637
68	0x3e02140a	0.12702957
69	0x3bb356a3	0.0054729744
70	0x3d0a6cc7	0.033795144
71	0xbb87787b	-0.0041342354
72	0x3d3e7643	0.046499502
73	0x3c1df460	0.009640783
74	0xbc998d75	-0.01874421
75	0x3d986da5	0.07442788
76	0xbd9af1d5	-0.07565657
77	0xbc175ed8	-0.009238921
78	0x3dc57921	0.09642244
79	0x3dbafd19	0.09130306
80	0xbdd2ba11	-0.102893956
81	0xbdd33994	-0.103137165
82	0x3d381b40	0.044947863
83	0x3e09e39b	0.13465731
84	0xbdb863a1	-0.09003378
85	0xbd739a1b	-0.05947314
86	0xbda4c8f0	-0.08046138
87	0x3e09c159	0.13452663
88	0x3d9cd933	0.07658615
89	0xbe16261c	-0.14662975
90	0x3dc5e0f7	0.09662049
91	0x3df7a444	0.12091878
92	0xbd97ffe5	-0.07421855
93	0x3db98252	0.0905806
94	0xbddf0eba	-0.10891481
95	0xbc393e9f	-0.011306434
96	0x3e2052b3	0.15656547
97	0xbd609075	-0.054825265
98	0xbd4ea356	-0.050448738
99	0xbc0e93af	-0.008702203
100	0x3e071a1a	0.1319355
101	0xbd3188ee	-0.043343477
102	0x3cc6a6af	0.024249403
103	0xbde1c004	-0.11022952
104	0xbcdf5f88	-0.027267233
105	0x3d89151c	0.066934794
106	0x3da87df4	0.08227149
107	0xbe0040cd	-0.1252472
108	0x3dec7cfc	0.115472764
109	0xbc853778	-0.016261801
110	0x3b98ad4d	0.004659331
111	0xbbad7ebc	-0.005294649
112	0x3dec6a21	0.1154368
113	0x3d0195a6	0.031636856
114	0xbb852278	-0.004062947
115	0x3dccb4a0	0.09995389
116	0xbd4ae1cf	-0.049531754
117	0xbde24b9d	-0.11049578
118	0x3de8b8fd	0.11363409
119	0xbd086187	-0.033296134
120	0xbdc455de	-0.0958669
121	0xbdbc13cc	-0.091834635
122	0x3b0ce57b	0.0021499086
123	0x3dc1b512	0.094583645
124	0x3d5c1a9d	0.053736318
125	0x3dee2e34	0.11629906
126	0xbcf81ed6	-0.030288141
127	0x3d0b493c	0.03400539
128	0x3d41a6f4	0.04727836
129	0x3d742765	0.059607882
130	0xbd7fbc0d	-0.0624352
131	0xbd67dbe7	-0.0566062
132	0xbd7cc552	-0.061711617
133	0x3d64ee2f	0.055891212
134	0xbd759684	-0.059957996
135	0x3d0c5ac3	0.034266245
136	0xbcdf9320	-0.027291834
137	0xbc01b969	-0.00791774
138	0x3c4023f9	0.011727327
139	0x3d9b38a7	0.07579165
140	0xbca7a39c	-0.020463757
141	0xbd29bf06	-0.04144194
142	0xbd6caf80	-0.057784557
143	0x3da44dde	0.080226645
144	0xbe08864e	-0.13332483
145	0xbc341c9c	-0.010993149
146	0xbdcac3da	-0.09900637
147	0xbdcc63ce	-0.09979974
148	0x3def8eb9	0.11697144
149	0x3d9668d8	0.07344216
150	0xbc0478e4	-0.008085463
151	0xbdb29a2f	-0.087208144
152	0x3e088abb	0.13334171
153	0x3dd566e5	0.10420016
154	0x3c8b59e6	0.01701064
155	0xbddf4f72	-0.10903825
156	0xbd5fe225	-0.054659028
157	0x3bc2c0ea	0.0059434073
158	0xbd29ccb6	-0.041454993
159	0x3ddb8660	0.10718989
160	0xbda64ee8	-0.08120519
161	0xbdfa0fa9	-0.12210018
162	0x3bcdf8f2	0.00628578
163	0x3de902c3	0.1137748
164	0x3ddecb4f	0.10878622
165	0x3e094468	0.13405001
166	0x3d98e457	0.07465427
167	0xbe08eb56	-0.13371024
168	0xbc9ec442	-0.019380692
169	0x3de3963b	0.111126386
170	0xbdf2dbdb	-0.1185834
171	0xbdb59ccd	-0.08867798
172	0xbdbd846a	-0.092537716
173	0x3d43aa1e	0.04776966
174	0x3d59911c	0.053116903
175	0xbe164bd7	-0.14677368
176	0x3de7918f	0.1130706
177	0xbdeb657c	-0.11493966
178	0x3e000684	0.12502486
179	0x3da72789	0.081618376
180	0xbdd4d951	-0.10393012
181	0xbbe692c4	-0.007036539
182	0x3dca9ba4	0.09892967
183	0x3e0f66fc	0.14004129
184	0x3cd59178	0.026070341
185	0x3dae06ae	0.08497368
186	0xbd86be60	-0.0657928
187	0xbd9fc556	-0.07801311
188	0xbd3d689b	-0.046242338
189	0x3d4d2830	0.050087154
190	0x3ddd27ae	0.10798584
191	0x3dda47b4	0.106582075
192	0xbddc5a41	-0.10759402
193	0xbaf99d1c	-0.0019044015
194	0x3d80ac3e	0.062828526
195	0x3cbd5bba	0.023115028
196	0xbd11c2c3	-0.03558613
197	0x3e09a432	0.13441542
198	0xbdeab6d8	-0.11460656
199	0x3c93ac7c	0.018026583

fc.weight f4 [1, 50]
0	0x3e1941bf	0.14966486
1	0x3cce2e13	0.025168454
2	0xbe2023c5	-0.15638645
3	0xbd233848	-0.039848596
4	0x3d750f01	0.059828762
5	0x3dff5bb4	0.12468663
6	0x3e157017	0.1459354
7	0xbd1831b9	-0.037156794
8	0x3d7f4bdd	0.06232821
9	0xbd022e86	-0.03178265
10	0xbdcaaf0d	-0.098966695
11	0xbd981be7	-0.07427197
12	0x3b72665b	0.0036987278
13	0x3db42473	0.08796015
14	0xbe03b7a4	-0.12863022
15	0x3daad863	0.08342054
16	0xbcaa6f1f	-0.02080494
17	0xbd2ed657	-0.04268488
18	0x3d28a582	0.041173466
19	0xbdcdc405	-0.100471534
20	0xbd711cdd	-0.058865417
21	0xbdc2c44b	-0.09510096
22	0xbd21a1b0	-0.039460838
23	0x3d1921f0	0.03738588
24	0x3deb95af	0.11503159
25	0x3cbad801	0.022808077
26	0x39ddf4cb	0.0004233479
27	0x3d95dcfa	0.073175386
28	0xbcb01c3e	-0.021497842
29	0x3e05a826	0.13052425
30	0xbd914062	-0.07092358
31	0xbdc598be	-0.09648274
32	0x3df82d19	0.12117977
33	0xbca708b5	-0.020389894
34	0x3dac7608	0.0842095
35	0x3dbb2ab1	0.09139002
36	0xbcf2ca22	-0.0296374
37	0x3e147889	0.14499106
38	0x3d8bbb3d	0.06822822
39	0xbd965fb0	-0.0734247
40	0x3df46af0	0.11934459
41	0x3d59c89a	0.053169824
42	0xbe1880be	-0.14892861
43	0x3df1e7bc	0.11811778
44	0xbda6fbb5	-0.08153478
45	0xbdcb0168	-0.099123776
46	0x3e088950	0.1333363
47	0xbde68d83	-0.1125746
48	0x3d69b10d	0.057053614
49	0x3d515325	0.051104683
