LSTM/stock_Model/2317.pth (torch, 131029 bytes, 9 tensors)

lstm.weight_ih_l0 f4 [200, 5]
0	0x3eb1b54c	0.3470863
1	0x3efbcaae	0.4917807
2	0x3e9304ca	0.2871459
3	0x3e8221eb	0.25416502
4	0x3d2ccb3f	0.042186018
5	0xbd7d2dbf	-0.061811205
6	0x3dcd5185	0.10025314
7	0x3d592088	0.05300954
8	0x3df7531c	0.12076399
9	0x3ed18321	0.40920356
10	0x3dd0a975	0.10188571
11	0x3c5ddaee	0.013540966
12	0x3dc8d679	0.098065324
13	0xbb288f67	-0.002572024
14	0x3ead589c	0.33856666
15	0x3dec28e9	0.115312405
16	0x3da83d72	0.08214845
17	0x3e3e44c9	0.18580927
18	0x3e8df644	0.27726948
19	0xbe5742f8	-0.2102164
20	0x3d3fdf3b	0.04684375
21	0x3dda586b	0.10661396
22	0xbd5f501d	-0.05451976
23	0x3dda0c19	0.10646839
24	0xbdc8c4a7	-0.098031335
25	0x3e29e94e	0.16592905
26	0x3e111cea	0.14171186
27	0x3e066036	0.13122639
28	0xbd972be7	-0.073814206
29	0x3d3d87b0	0.04627198
30	0x3e6ca4a2	0.23109677
31	0x3ed2c040	0.411623
32	0x3e63ab63	0.22233348
33	0x3ef4d51e	0.47818846
34	0x3f1c92bb	0.6116139
35	0x3dc08c97	0.094018154
36	0x3d070d82	0.032971866
37	0x3e306c3a	0.17228785
38	0xbc0b8bac	-0.008517187
39	0xbda53dfd	-0.08068464
40	0x3daccd5c	0.08437607
41	0x3e34fbe4	0.17674214
42	0x3ccc45a5	0.024935553
43	0xbd591eb0	-0.05300778
44	0x3b6fbf0f	0.0036582386
45	0xbdd861d7	-0.105655365
46	0x3d3355ea	0.043783106
47	0xbc52b8ed	-0.012861473
48	0xbe83ac9a	-0.25717622
49	0x3edd190a	0.43183166
50	0xbe18778f	-0.14889358
51	0x3bc08de2	0.0058762887
52	0x3de99793	0.114058636
53	0xbccaa0bd	-0.02473485
54	0xbe33fad5	-0.17576154
55	0xbd9f9fea	-0.07794173
56	0x3cddb651	0.027064474
57	0xbd8886ff	-0.066663735
58	0xbce9982a	-0.02851494
59	0xbdc5d1f5	-0.09659187
60	0x3d3a1403	0.04542924
61	0x3c958c48	0.018255368
62	0x3e15bc90	0.14622712
63	0x3d14edef	0.036359724
64	0xbe13b02a	-0.1442267
65	0x3eb66846	0.3562643
66	0x3ee04b81	0.43807605
67	0x3ef9d4ac	0.48795068
68	0x3ef067f2	0.46954304
69	0x3d62f4dc	0.055409297
70	0x3dde354e	0.10850011
71	0x3d60b679	0.05486152
72	0xbaaee81c	-0.001334432
73	0x3ade2f0c	0.0016951277
74	0xbe134050	-0.14380002
75	0xbe055b56	-0.13023123
76	0x3e270da3	0.16313796
77	0x3ddcbaf1	0.10777844
78	0x3e30b46f	0.1725633
79	0xbe262a8d	-0.1622717
80	0x3db8da87	0.09026056
81	0xbd4f1524	-0.05055727
82	0x3bf972d9	0.007612568
83	0xbe0e4c65	-0.1389633
84	0xbe01a3c1	-0.12660123
85	0x3e59580a	0.2122499
86	0x3e60b673	0.21944599
87	0x3e42fd20	0.19041872
88	0x3e452a6d	0.19254465
89	0xbdd532b0	-0.104100585
90	0x3e193ce2	0.14964631
91	0x3dba7ca9	0.09105808
92	0x3e6e6064	0.23278958
93	0x3e767fd7	0.24072205
94	0x3e3a940f	0.18220542
95	0x3eb20f92	0.34777504
96	0x3f2730ea	0.6530901
97	0x3ee03a75	0.437946
98	0x3f28ac78	0.65888166
99	0x401af1d0	2.421009
100	0x3e06a4db	0.13148825
101	0x3d664dc3	0.056226503
102	0x3dd97d97	0.106196575
103	0xbdd46059	-0.10369939
104	0x3ccfb3bb	0.025354257
105	0xbe78ba45	-0.24289806
106	0xbdba7d84	-0.091059715
107	0xbe15670d	-0.14590092
108	0xbd51186f	-0.051048692
109	0x3dd767f9	0.10517878
110	0x3ddad1d3	0.10684552
111	0x3ceee001	0.029159548
112	0x3e67f86f	0.22653364
113	0x3de087b7	0.109633856
114	0x3dc0cab2	0.09413661
115	0x3dd17861	0.102280386
116	0x3e656ec9	0.22405542
117	0x3defe90d	0.11714373
118	0x3e5d0c5f	0.2158675
119	0x3e4a1eab	0.19738261
120	0x3dd9f4ca	0.10642393
121	0x3db8fca4	0.090325624
122	0x3d145e17	0.036222544
123	0x3c662caa	0.014048735
124	0x3e4a867e	0.19777867
125	0x3e2c5d9c	0.16832584
126	0xbd91468a	-0.070935324
127	0xbd44d9c4	-0.04805924
128	0xbaa797b4	-0.00127863
129	0xbe3a6c68	-0.18205416
130	0x3ddc2068	0.107483685
131	0x3dd136aa	0.102155045
132	0x3d6271dd	0.05528437
133	0xbd3cf3b7	-0.046130862
134	0x3f8bcaea	1.09213
135	0xbc4d1cc8	-0.012519069
136	0x3e652d67	0.22380601
137	0x3df1f3d9	0.118140884
138	0x3bc5ceb7	0.006036605
139	0x3d467902	0.048455246
140	0x3c81645d	0.015794927
141	0x3d34fa2d	0.0441839
142	0x3c37a492	0.01120867
143	0x3e484657	0.19558083
144	0x3e8b8972	0.272533
145	0x3e2c8937	0.16849218
146	0x3d8b9fe3	0.06817605
147	0x3e851669	0.2599366
148	0x3e3054e1	0.17219879
149	0xbe81269e	-0.25224775
150	0x3b316192	0.0027066213
151	0x3d99abb5	0.07503454
152	0x3e4828db	0.19546835
153	0x3e437273	0.19086628
154	0x3d44e7a8	0.048072487
155	0xbd759010	-0.05995184
156	0x3d4fe983	0.050759804
157	0xbd960db4	-0.073268324
158	0xbccbcd4f	-0.024878172
159	0x3e119cfd	0.14220043
160	0x3d66f0a3	0.056381833
161	0x3da03702	0.07822992
162	0x3e355831	0.17709424
163	0x3e139467	0.1441208
164	0x3fa346f6	1.275603
165	0x3d046128	0.032319218
166	0xbd8e32b7	-0.06943267
167	0x3d5bf977	0.053704705
168	0x3d3ac73b	0.045600157
169	0x3e1bbc47	0.15208541
170	0x3e2e2448	0.17006028
171	0x3dbd2cbf	0.0923705
172	0xbd415679	-0.047201607
173	0x3dc57387	0.09641176
174	0x3e347b1a	0.17625085
175	0x3dc96c8b	0.09835156
176	0xbdfe9a3c	-0.124317616
177	0xbe2c0756	-0.16799673
178	0xbd79d5c6	-0.060994886
179	0xbe921703	-0.28533182
180	0x3e9e5a6d	0.30928364
181	0x3df15ad6	0.11784904
182	0x3e950e06	0.29112262
183	0x3d7f7748	0.062369615
184	0x3f08d791	0.5345393
185	0xbd961159	-0.073275276
186	0x3d490819	0.04907999
187	0xbdfe881c	-0.124283046
188	0x3dce91e9	0.10086424
189	0x3eca39ab	0.39497122
190	0x3d5cc567	0.053899195
191	0xbc0783c5	-0.008271162
192	0xbd2e6819	-0.042579744
193	0xbd4fd516	-0.050740324
194	0x3cf82438	0.030290708
195	0x3c1b06c2	0.00946206
196	0x3e053977	0.13010202
197	0x3df578f6	0.11985962
198	0xbc809ce7	-0.015699817
199	0x3dec26a1	0.115308054
200	0x3d92d6a6	0.07169847
201	0xbe275c68	-0.16343844
202	0x3d6d4758	0.057929367
203	0xbe017340	-0.1264162
204	0xbe27b3f4	-0.1637724
205	0x3e177a76	0.14792809
206	0x3d46c57c	0.04852818
207	0x3d36e13d	0.044648398
208	0xbe50c89a	-0.20389023
209	0x3f0760b1	0.52881914
210	0xbd8c3a60	-0.06847072
211	0x3c18550b	0.00929762
212	0x3e04ecf3	0.12981014
213	0x3e0f0883	0.1396809
214	0xbe2152eb	-0.15754287
215	0x3d823b2e	0.06358944
216	0xbdb71416	-0.08939378
217	0x3dad0d76	0.08449833
218	0x3e07ebf0	0.13273597
219	0x3cb45483	0.022012955
220	0x3d220c03	0.039562237
221	0x3dc06a25	0.093952455
222	0xbd4c93fb	-0.049945813
223	0xbdff461f	-0.124645464
224	0xbc16f6be	-0.009214101
225	0x3e24e15f	0.16101597
226	0x3dd22eb6	0.10262816
227	0xbd6ac74e	-0.057318978
228	0x3da7f792	0.08201517
229	0xbc766295	-0.015038152
230	0x3dcbf50a	0.09958847
231	0xbd26ba6a	-0.040705122
232	0x3de540dd	0.11194012
233	0xbde8eca3	-0.1137326
234	0x3d5543ef	0.05206674
235	0x3d8e6f31	0.06954802
236	0x3e534a9e	0.20633933
237	0x3dfb400f	0.122680776
238	0xbc505995	-0.0127166705
239	0x3d361043	0.044449102
240	0x3eb87d39	0.36033037
241	0x3ea96c50	0.33090448
242	0x3ec079fe	0.37593073
243	0x3e328bc6	0.17436132
244	0x3e66affe	0.22528073
245	0x3e0f46e0	0.1399188
246	0x3d337197	0.0438095
247	0xbd376c0e	-0.044780783
248	0xbdfe043a	-0.1240315
249	0xbe6831ac	-0.22675198
250	0x3e5b45a6	0.21413288
251	0x3dd73768	0.10508615
252	0x3e588267	0.21143495
253	0x3e877e85	0.26463714
254	0xbe8f6031	-0.28003076
255	0xbe0ed24b	-0.13947408

lstm.weight_hh_l0 f4 [200, 50]
0	0xbea3e152	-0.32007843
1	0x3daefc8d	0.08544264
2	0x3e7b38e9	0.24533428
3	0xbea55d9c	-0.3229798
4	0x3e76bf5c	0.24096435
5	0x3e9df4e6	0.30850905
6	0x3e2d9b47	0.16953765
7	0xbe7764da	-0.24159566
8	0xbe15df63	-0.14635997
9	0x3dadc80b	0.08485421
10	0xbe6948a1	-0.22781612
11	0xbe4a0bf9	-0.1973113
12	0x3c4d6a4c	0.01253755
13	0x3ebe8fe9	0.3721917
14	0x3e195e41	0.14977361
15	0xbe4adf49	-0.19811739
16	0x3ca3fbb0	0.020017475
17	0xbe1ecda2	-0.1550813
18	0x3f0db479	0.55353504
19	0xbe878279	-0.2646673
20	0xbea5cfae	-0.3238501
21	0xbb8cd222	-0.0042975107
22	0x3f003292	0.50077164
23	0x3e64dec1	0.22350599
24	0xbe5bde8f	-0.21471618
25	0xbd539247	-0.051653173
26	0xbe8ea0e9	-0.2785714
27	0x3e2c91c4	0.1685248
28	0x3da2e3a1	0.07953573
29	0x3bf48ff1	0.007463448
30	0x3e365159	0.17804469
31	0x3e50092c	0.20315999
32	0xbe2cd6d7	-0.1687883
33	0x3df3545a	0.11881323
34	0xbe54e0cf	-0.20788883
35	0xbe1bb822	-0.1520696
36	0xbc242c9a	-0.0100203995
37	0xbd44e090	-0.048065722
38	0xbe2a7770	-0.16647124
39	0xbe3c7dd0	-0.18407369
40	0xbe922549	-0.2854407
41	0xbe30665c	-0.17226547
42	0xbec5ec8f	-0.38657042
43	0xbe209d53	-0.15685014
44	0x3e8abe19	0.27098158
45	0xbdcbf45f	-0.099587195
46	0xbdbc4e86	-0.09194665
47	0xbcf58fd8	-0.029975817
48	0x3ecd5f99	0.40111998
49	0x3ed2b2f9	0.4115217
50	0xbe987513	-0.2977682
51	0x3e4fac56	0.20280585
52	0x3e5834a9	0.21113838
53	0xbd2a1baa	-0.04153029
54	0x3ec418de	0.38300222
55	0x3dc2d36d	0.095129825
56	0x3c9401d8	0.018067285
57	0xbe0d1b58	-0.13779962
58	0xbe1b6267	-0.15174256
59	0x3e8f836b	0.2802995
60	0xbe949b75	-0.29024854
61	0xbe764465	-0.24049528
62	0x3f02dc62	0.5111753
63	0xbeb1c048	-0.3471701
64	0x3e49b77e	0.19698903
65	0xbd9d1613	-0.07670226
66	0xbdea369f	-0.114361994
67	0xbe4072e5	-0.18793829
68	0x3e93017d	0.28712073
69	0x3e02c1bf	0.12769221
70	0xbe6b3e93	-0.22973089
71	0xbd9993a0	-0.0749886
72	0x3e1e7730	0.15475154
73	0xbdd5f590	-0.10447228
74	0x3dd397ff	0.10331725
75	0xbd5474d4	-0.05186923
76	0x3db44822	0.08802821
77	0x3dc1cc88	0.09462839
78	0x3bd4d5e2	0.0064952234
79	0x3edf2c71	0.43588594
80	0x3e1e7c7c	0.15477175
81	0x3e7e24dd	0.2481875
82	0xbe2c5214	-0.16828185
83	0x3d92b6aa	0.07163747
84	0x3e1c7825	0.15280207
85	0xbd51685a	-0.051124908
86	0x3e1e662e	0.15468666
87	0xbd59c02e	-0.053161792
88	0xbddc9280	-0.1077013
89	0x3d0ea31b	0.03482352
90	0xbe998f9a	-0.29992372
91	0xbe52aefb	-0.20574562
92	0xbe1124e2	-0.14174226
93	0xbe8a0a53	-0.26961002
94	0x3e972b3c	0.29525173
95	0xbe125f14	-0.14294082
96	0xbdfef90a	-0.12449844
97	0xbe80c9ba	-0.25153905
98	0x3e91f8e1	0.28510192
99	0x3dc08f85	0.09402374
100	0x3f198106	0.599625
101	0x3d3bf315	0.045886118
102	0x3e098579	0.13429822
103	0x3ec1beeb	0.3784097
104	0xbd7af290	-0.061266482
105	0x3daf8c76	0.08571713
106	0xbf4effba	-0.8085896
107	0x3ebf72a4	0.3739215
108	0xbd8099ce	-0.06279336
109	0x3d7e0d18	0.062024206
110	0x3e5bd9bb	0.21469776
111	0x3d07cc5b	0.033153873
112	0x3e7e9c22	0.24864247
113	0xbec07de2	-0.3759604
114	0x3e2e0a2a	0.16996065
115	0xbda10049	-0.078613825
116	0xbcb41643	-0.021983271
117	0xbc839f0e	-0.016067054
118	0xbe70f05d	-0.23529191
119	0x3efc79f9	0.49311808
120	0x3e194699	0.14968337
121	0x3dc5d433	0.096596144
122	0x3e7ec9c5	0.24881656
123	0xbdd4e67c	-0.10395524
124	0x3ef73e45	0.48289695
125	0x3da48176	0.08032505
126	0x3f139855	0.57654315
127	0x3df2a08d	0.11847029
128	0xbebcff25	-0.3691341
129	0xbe1ffb86	-0.15623292
130	0x3eac237a	0.33620816
131	0xbe0f18d9	-0.13974322
132	0xbe5dffa8	-0.21679556
133	0x3eef7c29	0.46774414
134	0xbee38852	-0.44439942
135	0x3d2aa0eb	0.04165737
136	0xbdb679ab	-0.08909925
137	0xbe85fae6	-0.26167983
138	0xbde95d5c	-0.1139476
139	0xbd95f114	-0.07321373
140	0xbd8e56a4	-0.06950119
141	0x3e8a35cc	0.2699417
142	0xbbd33598	-0.006445598
143	0x3e02eeb1	0.12786366
144	0x3b2a9058	0.0026025977
145	0xbceb4fcb	-0.028724572
146	0xbc9f2cfe	-0.019430634
147	0xbe93b56c	-0.2884935
148	0xbebe489d	-0.37164775
149	0x3d8d27b9	0.06892342
150	0xbe8e0fc5	-0.27746406
151	0x3df3ed44	0.11910489
152	0xbdee2a08	-0.116291106
153	0xbbe70729	-0.007050414
154	0xbd7b4638	-0.061346263
155	0x3d0b729d	0.03404485
156	0x3db6e2bc	0.08929965
157	0xbeaf0198	-0.34180903
158	0x3d93f47e	0.072243676
159	0xbca3af41	-0.019981029
160	0xbc49d81d	-0.012319592
161	0x3e2a2238	0.16614616
162	0xbe124a9c	-0.14286274
163	0x3de4987e	0.11161898
164	0x3db15697	0.08659094
165	0x3e53cb72	0.20683077
166	0xbe1bd05c	-0.15216202
167	0xbd1a4a48	-0.037668496
168	0xbd095a64	-0.03353347
169	0xbe8420b9	-0.25806215
170	0x3dd194cc	0.10233459
171	0xbde1b222	-0.11020304
172	0xbf0beb1e	-0.54655635
173	0x3e0b052a	0.13576189
174	0x3da855e9	0.08219511
175	0xbd375db2	-0.04476709
176	0xbe31a9b8	-0.17349899
177	0xbe53ab9d	-0.20670934
178	0x3e011437	0.12605368
179	0x3d8a9213	0.06766143
180	0xbe9803ae	-0.29690307
181	0x3d71c756	0.059027992
182	0x3d47f660	0.048818946
183	0xbb94e171	-0.0045434763
184	0x3e9e11c2	0.30872923
185	0xbe2b865c	-0.16750473
186	0x3ecf02cd	0.40431824
187	0x3ec140f3	0.37744865
188	0x3d2ba569	0.041905794
189	0x3a9f33d5	0.0012146184
190	0x3e2012cf	0.15632175
191	0xbe1e39ad	-0.15451689
192	0x3dbcdad6	0.09221427
193	0xbd153760	-0.036429763
194	0xbdb30391	-0.087409146
195	0x3df7503a	0.12075849
196	0x3d92789d	0.071519114
197	0x3d233c5a	0.039852478
198	0xbe0c5573	-0.13704471
199	0x3da3d87c	0.080002755
200	0x3da6b7c5	0.0814052
201	0x3ce8f8f1	0.028439017
202	0x3cc4ee09	0.024039285
203	0x3d221766	0.039573096
204	0xbdfc2a7e	-0.12312792
205	0xbda24d87	-0.079249434
206	0x3dccd9d9	0.10002489
207	0x3d2b1851	0.041771237
208	0x3c100428	0.008790053
209	0xbe6658ce	-0.22494814
210	0x3d0f8342	0.035037287
211	0xbd1febcd	-0.039043237
212	0xbea00a7d	-0.31258002
213	0xbe4bde47	-0.19909011
214	0xbe10a390	-0.14124894
215	0xbc31429c	-0.010819104
216	0x3d73faf5	0.059565503
217	0x3e03fcf5	0.12889464
218	0xbd0ff198	-0.03514251
219	0xbe07ef4c	-0.13274878
220	0x3d490809	0.04907993
221	0x3dccd968	0.100024045
222	0xbda6875a	-0.08131285
223	0x3e773fbb	0.24145405
224	0xbd7264ee	-0.059178285
225	0x3d5a5d40	0.053311586
226	0xbe9b4bb3	-0.3033119
227	0xbdc9b0a2	-0.09848143
228	0xbd59c31b	-0.053164583
229	0xbd70832f	-0.058718856
230	0x3de7b81d	0.11314414
231	0xbcefa2d6	-0.02925245
232	0xbe86a8f8	-0.26300788
233	0xbe03fa16	-0.12888369
234	0x3dfcf6cd	0.12351761
235	0x3d8488ee	0.0647143
236	0x3e21c089	0.15796103
237	0xbe264df8	-0.1624068
238	0x3dd83c52	0.1055838
239	0x3c99e5f9	0.018786417
240	0x3e276b4d	0.16349526
241	0x3da0fc23	0.07860591
242	0x3d9e3c49	0.07726342
243	0x3d28f8a8	0.041252762
244	0x3c293d4e	0.010329558
245	0xbc91381f	-0.017726956
246	0x3ddbae9d	0.10726664
247	0xbc4fdc9a	-0.012686873
248	0xbd92fb80	-0.07176876
249	0xbdd41297	-0.10355108
250	0xbe13289d	-0.14370961
251	0xbe1e06b1	-0.1543224
252	0xbb7fc737	-0.0039028653
253	0xbd603c65	-0.054745097
254	0x3bc7fad0	0.006102897
255	0xbde10e83	-0.10989096

lstm.bias_ih_l0 f4 [200]
0	0x3e48513e	0.19562241
1	0x3e524c65	0.20536955
2	0x3e1a8f07	0.15093623
3	0xbb915ae9	-0.004435886
4	0x3d0bb3f5	0.034107167
5	0xbe046a2a	-0.12931123
6	0x3e5689d2	0.20951012
7	0xbdbc16b7	-0.0918402
8	0xbcb6d322	-0.022317473
9	0x3d69b2ce	0.057055287
10	0xbdd5b6e2	-0.10435273
11	0xbc8b2095	-0.01698331
12	0xbcc80435	-0.024416069
13	0xbe17f9c5	-0.14841373
14	0x3cd7df25	0.02635152
15	0xbe1806db	-0.14846365
16	0xbe283de4	-0.1642986
17	0x3e3db814	0.18527251
18	0x3e0d8401	0.13819887
19	0x3e4d49c5	0.20047672
20	0xbdb80145	-0.08984617
21	0x3ba2ec5d	0.0049720244
22	0x3d62b56c	0.0553488
23	0x3e37ce30	0.17949748
24	0x3e6bb313	0.2301753
25	0x3daee3e3	0.0853956
26	0x3ecf6568	0.40507054
27	0x3d4d321e	0.050096624
28	0xbcfca2b9	-0.030839311
29	0xbd86c321	-0.06580187
30	0x3cf27710	0.029597789
31	0x3d7597a9	0.059959088
32	0x3e31505e	0.17315814
33	0x3df2912c	0.118440956
34	0x3d9032a7	0.07040911
35	0x3e0b4462	0.13600305
36	0x3f05269a	0.52012026
37	0xbc956339	-0.01823579
38	0xbd2831f8	-0.04106328
39	0x3e0c2bd1	0.1368859
40	0xbe68b1ea	-0.22724119
41	0x3e86bcdb	0.2631596
42	0xbcf08020	-0.02935797
43	0xbc94e4f5	-0.018175581
44	0xbd3918dc	-0.045189723
45	0x3ddd8020	0.108154535
46	0x3d284be2	0.041087992
47	0x3d980e7f	0.0742464
48	0x3f25b157	0.64723724
49	0x3d6b8a7b	0.057505112
50	0x3c637e33	0.013885069
51	0xbceeefb0	-0.029167026
52	0xbdae69f7	-0.08516305
53	0x3d33afee	0.04386895
54	0xbe2e9671	-0.17049576
55	0xbd9751fb	-0.073886834
56	0x3da5d67f	0.080975525
57	0x3d19ce3d	0.0375502
58	0x3d91e5b2	0.07123889
59	0xbe2765ec	-0.16347474
60	0x3daa0fed	0.08303819
61	0x3c1ec6e2	0.009690972
62	0xbdb9b06e	-0.090668544
63	0x3de87919	0.113512225
64	0x3dbc8e93	0.092068814
65	0xbe2fc5f4	-0.17165357
66	0xbdb1ac00	-0.086753845
67	0xbe56be1d	-0.2097096
68	0x3da62991	0.08113397
69	0x3e44e7c3	0.19229035
70	0x3e0d2a7a	0.13785735
71	0x3acf6f58	0.001582603
72	0x3e0db2a9	0.13837685
73	0xbd5683d8	-0.05237183
74	0xbd948904	-0.07252696
75	0x3e880197	0.26563713
76	0x3e0008bb	0.1250333
77	0x3d2ac0cc	0.04168777
78	0x3d14279f	0.036170598
79	0x3da44512	0.080209866
80	0x3df9c736	0.121961996
81	0xbde76da9	-0.11300213
82	0xbe6efad7	-0.23337875
83	0x3daa73da	0.08322878
84	0x3dabed4a	0.08394869
85	0x3c540132	0.012939738
86	0xbdfa8071	-0.122315295
87	0x3e65e42d	0.22450323
88	0xbdfec3e7	-0.12439709
89	0xbda2ed05	-0.07955364
90	0xbb42662c	-0.002966295
91	0xbbf7454d	-0.007546103
92	0xbe3220ea	-0.17395368
93	0xbd0a5da6	-0.033780716
94	0x3db1779f	0.08665394
95	0xbe03a3db	-0.12855475
96	0x3cbaeb2c	0.022817217
97	0xbdaba4a4	-0.08381012
98	0xbe502ea1	-0.20330288
99	0x3caf18e2	0.02137417
100	0xbd3cfe9d	-0.046141256
101	0x3e0ef39b	0.13960116
102	0x3df62f4e	0.120207414
103	0x3dbb28e0	0.09138656
104	0x3d8cf309	0.06882293
105	0x3d1dd22d	0.038530517
106	0x3e38330e	0.17988226
107	0xbde268ad	-0.110551216
108	0xbceb3067	-0.028709603
109	0x3e339bc2	0.17539886
110	0xbd2be4de	-0.04196631
111	0xbda85198	-0.08218688
112	0x3e077e04	0.13231665
113	0x3e73bfc8	0.23803627
114	0x3d01bf84	0.031676784
115	0x3cd56d8a	0.026053209
116	0xbac7be74	-0.0015239255
117	0xbd9fb527	-0.07798224
118	0x3d30a9ea	0.043130793
119	0xbe2ab50e	-0.1667063
120	0xbd16b6a3	-0.03679527
121	0xbcd29d00	-0.025709629
122	0x3d488dca	0.048963346
123	0xbddcf4e2	-0.10788895
124	0x3e11a1fe	0.14221951
125	0xbdbeb82e	-0.09312473
126	0xbd75246a	-0.05984918
127	0x3cfb3433	0.030664539
128	0xbc82f3e6	-0.01598544
129	0x3da3624f	0.07977735
130	0xbe1d657d	-0.15370746
131	0x3d89ab24	0.067220956
132	0xbe597a91	-0.21238162
133	0xbd5cdf16	-0.05392369
134	0x3d9e692a	0.07734902
135	0xbc22a7a1	-0.009927661
136	0x3ca80f01	0.020514967
137	0x3e0198c3	0.1265593
138	0xbdef7d32	-0.11693801
139	0xbbec69d4	-0.007214764
140	0xbd8b278e	-0.06794654
141	0xbe626d08	-0.22111905
142	0xbdbb71ec	-0.09152588
143	0x3da3a227	0.079899125
144	0x3de33baf	0.11095368
145	0x3d8df3aa	0.06931241
146	0x3cdda6f8	0.027057156
147	0x3d217141	0.039414648
148	0x3d68d997	0.056848135
149	0x3d084836	0.03327199
150	0x3ea33580	0.31876755
151	0x3e9e65ab	0.30936942
152	0x3e49a2c5	0.19690998
153	0x3e1b3cc8	0.15159905
154	0xbe36ac09	-0.17839064
155	0xbd710f8c	-0.058852717
156	0x3d4bc21c	0.049745664
157	0x3dcf0556	0.101084396
158	0x3d6e94de	0.05824744
159	0x3e492dd3	0.19646387
160	0xbd29ffbb	-0.04150365
161	0xbdeb7459	-0.11496801
162	0xbe0c65e8	-0.13710749
163	0xbd4265aa	-0.047460236
164	0xbddabfbb	-0.10681101
165	0xbd486d12	-0.048932143
166	0xbdf6730f	-0.120336644
167	0x3e6880a9	0.2270533
168	0x3e762d0c	0.24040622
169	0x3a7ba5c7	0.0009599593
170	0xbdc689ca	-0.0969425
171	0x3de06c30	0.10958135
172	0x3e16ff87	0.14745913
173	0x3e12c909	0.14334501
174	0xbc0d5d5a	-0.008628214
175	0x3da8499b	0.08217164
176	0x3e9ebbf5	0.31002775
177	0xbcde1cb3	-0.027113294
178	0xbd792cce	-0.060833745
179	0x3cdc1905	0.026867399
180	0x3e519109	0.20465483
181	0xbd16ea3e	-0.036844485
182	0x3eb24f06	0.34825915
183	0x3e182179	0.14856519
184	0x3d4b4855	0.049629528
185	0xbdca87aa	-0.09889157
186	0x3f240217	0.6406569
187	0x3d95e809	0.07319648
188	0xbe4c3e00	-0.19945526
189	0xba504213	-0.0007944416
190	0xbc7f5d6b	-0.015586237
191	0x3e76d0e5	0.24103124
192	0xbd951836	-0.072800085
193	0xbe164066	-0.14673004
194	0xbcf38d60	-0.029730499
195	0xbd71e2cd	-0.059054185
196	0x3db81c23	0.08989742
197	0xbd55a98f	-0.052163657
198	0x3f4916e7	0.7855057
199	0xbdbde3bb	-0.09271952

lstm.bias_hh_l0 f4 [200]
0	0x3ed97723	0.42473707
1	0x3e9f4ef6	0.3111493
2	0x3c40781f	0.011747389
3	0xbd4a2edb	-0.04936109
4	0xbe068afe	-0.13138959
5	0x3dd8e61c	0.10590765
6	0x3e6c0012	0.23046902
7	0xbc45d05f	-0.012073605
8	0xbdab4a9e	-0.083638415
9	0x3dfa303f	0.122162335
10	0x3dc4c3fa	0.09607692
11	0x3e242ea1	0.16033413
12	0xbe215fed	-0.15759249
13	0xbe135605	-0.14388283
14	0x3e3b4259	0.18287028
15	0xbdf62630	-0.120190024
16	0xbd81dfa8	-0.06341487
17	0x3d3c394d	0.045953084
18	0x3e2cc989	0.16873755
19	0x3ebcf6cb	0.36907038
20	0x3e1b4d8d	0.15166302
21	0x3cba3ba1	0.022733511
22	0x3d70b4ec	0.05876629
23	0x3e433894	0.19064552
24	0x3e5bc851	0.21463133
25	0xbb617543	-0.0034402169
26	0x3ef20c7e	0.47275156
27	0xbdd3d158	-0.103426635
28	0x3d055644	0.032552972
29	0x3dc16203	0.094425224
30	0x3e68286c	0.2267167
31	0xbdbc9f79	-0.092101045
32	0x3e0bdcc0	0.13658428
33	0x3d5911d9	0.052995536
34	0x3e3fdaa9	0.18735756
35	0x3e1b6638	0.15175712
36	0x3ed8ebfc	0.42367542
37	0x3d106a39	0.03525755
38	0x3cb1a1f1	0.021683665
39	0x3e424853	0.18972902
40	0xbe2497e2	-0.16073564
41	0x3da2701b	0.07931539
42	0x3d0a08a6	0.033699654
43	0xbda6cac2	-0.08144142
44	0x3d73ad95	0.059491713
45	0x3df915fe	0.12162398
46	0xbda0026f	-0.07812964
47	0x3db95011	0.090484746
48	0x3f332379	0.69976
49	0xbcd2843b	-0.025697818
50	0x3d0abf6d	0.033873964
51	0xbdf44984	-0.119280845
52	0xbe2d6a6a	-0.16935125
53	0xbe068b4c	-0.13139075
54	0x3d304bba	0.04304097
55	0xbce85703	-0.028361803
56	0x3d749b1d	0.05971824
57	0xbda5b945	-0.08091978
58	0x3c5023d5	0.0127038555
59	0x3d5fd0e6	0.05464258
60	0xbd483219	-0.0488759
61	0x3d98923f	0.07449769
62	0xbe321c68	-0.17393649
63	0x3e82b6d1	0.25530103
64	0xbc2d55be	-0.010579525
65	0x3d188d28	0.037243992
66	0xbd8713b8	-0.06595558
67	0xbdf7e9b7	-0.121051244
68	0x3cd832ca	0.026391406
69	0x3c729c62	0.014807792
70	0xbe0107d3	-0.12600641
71	0xbdd741bf	-0.10510587
72	0x3d5a2c0c	0.053264663
73	0xbd0db1ae	-0.034593277
74	0xbdf5ba90	-0.119984746
75	0x3dd84c9d	0.10561488
76	0x3d367bc2	0.04455162
77	0x3cc105f1	0.023562403
78	0x3e050ce7	0.12993203
79	0x3dbc3188	0.09189135
80	0xbcb19faf	-0.021682588
81	0x3d2022f7	0.039095845
82	0xbd36bf32	-0.04461593
83	0x3d303a79	0.043024514
84	0xbc808a6d	-0.015691007
85	0xbe4d2a5f	-0.20035695
86	0xbe491fc2	-0.19641021
87	0x3de4b16d	0.11166654
88	0xbe195cd3	-0.14976816
89	0x3da19cdd	0.078912474
90	0xbc3962ea	-0.011315087
91	0x3e13dac6	0.14438924
92	0xbdb8f7fd	-0.09031675
93	0xbe03a1cd	-0.12854691
94	0x3ca8786d	0.020565236
95	0xbdbbb023	-0.09164455
96	0xbde15cad	-0.110040046
97	0x3d1e4a08	0.03864482
98	0xbe333f5d	-0.1750464
99	0xbe06b84b	-0.1315624
100	0xbdde1c69	-0.108452626
101	0x3d59706b	0.053085726
102	0x3c46980e	0.012121214
103	0xbd38da75	-0.04513021
104	0x3d769a34	0.060205653
105	0xbddd6982	-0.1081114
106	0xbd8f4cf2	-0.06997098
107	0xbe0876fd	-0.1332664
108	0x3e246280	0.160532
109	0x3e52c568	0.20583117
110	0xbd3d284e	-0.046181016
111	0x3e2e8006	0.17041025
112	0x3d58a7dd	0.052894462
113	0x3d3bf4eb	0.04588787
114	0x3e0754b6	0.13215908
115	0x3de37e6e	0.11108099
116	0xbd541492	-0.05177743
117	0x3d0af901	0.033928875
118	0x3dafdb71	0.08586777
119	0xbe5f9b38	-0.21836555
120	0x3dbb26e0	0.09138274
121	0x3e0cb843	0.13742165
122	0x3e42703b	0.18988125
123	0x3c16a692	0.009194987
124	0x3cdc2266	0.026871871
125	0xbdfadca9	-0.12249119
126	0x3d3c8544	0.04602553
127	0xbd68a914	-0.05680187
128	0xbd2c641d	-0.042087663
129	0x3cbc9134	0.023018457
130	0x3d694dc8	0.056958944
131	0xbd97aa62	-0.07405545
132	0xbbc65e30	-0.0060537085
133	0x3dcf2487	0.10114389
134	0x3d93594e	0.07194768
135	0xbca2b27a	-0.019860495
136	0xbd14b050	-0.036300957
137	0x3d7cbce9	0.061703596
138	0x3da06a1c	0.07832739
139	0x3e11339d	0.14179845
140	0xbdf915fa	-0.12162395
141	0x3c2b3d42	0.010451617
142	0x3da195b0	0.07889879
143	0x3c1e86cf	0.009675696
144	0xbdc45e59	-0.09588308
145	0xbd34e43f	-0.044162985
146	0x3e02acf5	0.1276129
147	0x3d25ae01	0.040449146
148	0xbdd015ac	-0.101603836
149	0x3dff2943	0.12459042
150	0x3e84ebd4	0.25961173
151	0x3ead3fbd	0.3383769
152	0x3e839fe9	0.2570794
153	0x3df5b27a	0.11996932
154	0x3dabff60	0.08398318
155	0x3db4c5f1	0.08826817
156	0x3de17944	0.11009458
157	0xbe0e8e9d	-0.1392159
158	0x3d76d490	0.06026131
159	0xbd4c7954	-0.049920395
160	0xbe01aa2d	-0.12662573
161	0x3dc63eaf	0.09679925
162	0xbe0036d4	-0.12520915
163	0xbe03b1b1	-0.12860753
164	0x3de991ff	0.114048
165	0x3ce411ef	0.027840583
166	0xbe03f81e	-0.12887618
167	0x3e614757	0.2199987
168	0x3e3e78c0	0.1860075
169	0x3dbb09e4	0.09132746
170	0xbd96b006	-0.073577926
171	0x3e0d4e59	0.13799419
172	0xbdb77807	-0.0895844
173	0x3e7ac66f	0.24489759
174	0x3e07387d	0.13205142
175	0xbdbd7cd7	-0.09252327
176	0x3e60d91c	0.2195782
177	0x3ddff25f	0.109349005
178	0x3dda746c	0.10666737
179	0xbc40c944	-0.011766735
180	0x3e2e11b7	0.16998945
181	0x3da1ca08	0.078998625
182	0x3ec7e58c	0.39042318
183	0x3d31b983	0.04338981
184	0x3e276948	0.16348755
185	0x3dc1f44a	0.094704226
186	0x3f094985	0.53627807
187	0xbd3bf58f	-0.04588848
188	0xbe08d101	-0.13360979
189	0x3bd054af	0.0063577513
190	0xbd811c7f	-0.06304263
191	0x3ce1d7fd	0.027568812
192	0xbd9b8696	-0.075940296
193	0xbd076378	-0.033053845
194	0x3c8450ba	0.016151775
195	0xbd7b53d5	-0.061359245
196	0xbd9daccd	-0.07698975
197	0x3c4a1e4e	0.012336327
198	0x3f25dde9	0.64791733
199	0xbdbe8d09	-0.09304244

lstm.weight_ih_l1 f4 [200, 50]
0	0xbc9f65df	-0.019457756
1	0x3b4b5842	0.0031027948
2	0x3d43bc18	0.047786802
3	0xbe301c8a	-0.17198387
4	0x3e8cf1a6	0.27528113
5	0x3e390f3f	0.18072222
6	0xbc760cc2	-0.01501769
7	0xbe15f277	-0.14643274
8	0xbd6d34dd	-0.057911742
9	0xbd411ffa	-0.047149636
10	0xbdefb309	-0.1170407
11	0xbdc64dac	-0.096827835
12	0x3e42a016	0.1900638
13	0x3ec41e6e	0.38304466
14	0x3eb1752e	0.34659714
15	0x3c2a1016	0.010379812
16	0xbea1feae	-0.31639618
17	0x3d5cabfe	0.053874962
18	0xbd9de6c1	-0.077100284
19	0x3e88b4b3	0.26700363
20	0xbc714e96	-0.014728209
21	0xbdb6f0ab	-0.089326225
22	0x3c505480	0.012715459
23	0x3cec188f	0.028820304
24	0x3c0b4be5	0.008501981
25	0xbe26efbc	-0.16302389
26	0x3ea377fb	0.31927475
27	0x3dff7578	0.12473577
28	0xbe3e1eb8	-0.18566406
29	0x3e1ff76d	0.15621729
30	0x3db97f6b	0.09057506
31	0x3dbc7930	0.09202802
32	0x3da81f93	0.08209147
33	0xbcddca15	-0.0270739
34	0xbdfbed2d	-0.12301097
35	0xbe277e9a	-0.16356888
36	0xbf098e78	-0.53733015
37	0x3d02094d	0.03174715
38	0xbe98d77d	-0.29851905
39	0xbdb6fe65	-0.08935241
40	0xbd3b8af7	-0.045786824
41	0xbd2d0b5e	-0.04224717
42	0xbdcf762b	-0.101299606
43	0xbe86b94a	-0.2631324
44	0x3e81ab49	0.25325993
45	0xbe50ade2	-0.20378831
46	0xbddaa257	-0.10675495
47	0xbe2a5672	-0.16634539
48	0x3f3ffd97	0.7499632
49	0x3e48b5b0	0.19600558
50	0xbe842452	-0.2580896
51	0x3f83cdcd	1.029718
52	0x3ed7ae93	0.42125377
53	0xbea826aa	-0.32841998
54	0x3e935794	0.28777754
55	0x3e88f6f3	0.26750907
56	0x3e67020e	0.22559378
57	0xbee7b751	-0.45257047
58	0xbe840dcf	-0.25791785
59	0x3f3bddc5	0.7338527
60	0xbeb4a52c	-0.35282266
61	0xbe7cb478	-0.24678218
62	0x3ea18b8b	0.31551775
63	0xbc54940e	-0.012974752
64	0x3eb70385	0.35744873
65	0xbe638f96	-0.22222742
66	0xbeb2b990	-0.34907198
67	0x3e797101	0.24359514
68	0x3e90e0a5	0.2829639
69	0xbf038c8d	-0.5138634
70	0xbc82340c	-0.015893959
71	0x3e80062e	0.25004715
72	0x3edd3fc7	0.4321272
73	0xbe9dfa4d	-0.30855027
74	0x3d533b75	0.051570375
75	0xbebb04b7	-0.36527035
76	0x3ee024dd	0.43778124
77	0x3e8f57ae	0.27996582
78	0xbdbf96ab	-0.093549095
79	0x3ec44010	0.38330126
80	0xbc1054cb	-0.008809279
81	0x3e8f6658	0.2800777
82	0xbee6ed3d	-0.45102873
83	0xbde5f018	-0.11227435
84	0x3de0d971	0.10978974
85	0xbec7e3b9	-0.39040926
86	0xbf1ec0a5	-0.620127
87	0x3f0d1670	0.5511236
88	0xbf04f38a	-0.5193411
89	0x3e863bf3	0.26217613
90	0xbe95f41c	-0.29287803
91	0xbf206446	-0.62653005
92	0xbe82676f	-0.2546954
93	0xbec3a4e5	-0.38211742
94	0x3dcb25d5	0.09919325
95	0xbeaf8057	-0.34277603
96	0xbdfbf29a	-0.12302132
97	0xbea35652	-0.31901795
98	0x3da0c397	0.07849806
99	0x3f2c3832	0.6727325
100	0x3e712d3b	0.2355241
101	0x3d871082	0.065949455
102	0xbd56cccb	-0.0524414
103	0x3de2b017	0.11068743
104	0xbda5e66e	-0.081005916
105	0xbd8a2436	-0.06745188
106	0xbadf93cb	-0.0017057596
107	0xbc843d3b	-0.016142478
108	0xbd0562ab	-0.0325648
109	0xbca5bf50	-0.020232826
110	0xbdefc03d	-0.117065884
111	0xba815700	-0.0009867847
112	0x3d98d353	0.07462182
113	0xbdfb2984	-0.12263778
114	0x3d68dff1	0.056854192
115	0xbd9ad975	-0.07561008
116	0xbdd7a971	-0.10530365
117	0x3e952b4b	0.29134592
118	0x3def2ace	0.11678086
119	0xbd4668e3	-0.04843987
120	0x3e33db80	0.17564201
121	0x3ca3db70	0.020002097
122	0x3eab2d8c	0.33433187
123	0xbe56f517	-0.20991932
124	0x3e7ee94f	0.24893688
125	0x3c3557fc	0.01106834
126	0xbd4d5378	-0.05012843
127	0x3cf37853	0.029720461
128	0xbd00c040	-0.031433344
129	0xbdb76b0e	-0.08955966
130	0x3bebdb25	0.007197755
131	0x3d167889	0.036736045
132	0xbee8f430	-0.454988
133	0x3cf8a47b	0.030351868
134	0xbe09251a	-0.1339306
135	0xbe332b2c	-0.17496938
136	0x3e1fc2a2	0.1560159
137	0x3d9c8456	0.076424286
138	0x3d02f0ff	0.031968113
139	0x3df242ca	0.11829145
140	0x3cfbd3d7	0.030740662
141	0xbe363080	-0.17791939
142	0xbdfe48a8	-0.12416202
143	0x3b1d2d04	0.002398313
144	0x3de33ee3	0.11095979
145	0xbc3de4a6	-0.011590159
146	0xbcf9861e	-0.03045946
147	0xbde436a6	-0.11143236
148	0xbde6d97d	-0.11271951
149	0x3cd9bf5b	0.026580503
150	0x3e7061c1	0.2347479
151	0x3ed0041b	0.40628132
152	0x3f07bfb7	0.5302691
153	0xbd1fa548	-0.038975984
154	0x3e20e200	0.15711212
155	0xbdba6fcc	-0.09103355
156	0xbd8c69fc	-0.068561524
157	0xbe939f7c	-0.28832614
158	0x3e34b7fc	0.1764831
159	0x3edb4896	0.42828816
160	0x3e0f3c8a	0.13987938
161	0x3e38bd94	0.18041068
162	0xbd507026	-0.050888203
163	0xbd97f88a	-0.07420452
164	0xbe61731a	-0.22016564
165	0x3e648998	0.22318113
166	0x3de68889	0.11256511
167	0x3d8c94e3	0.068643354
168	0xbd2e14a0	-0.04250014
169	0xbe9dbdcf	-0.30808875
170	0x3db900e9	0.09033377
171	0x3ea8e6ba	0.3298853
172	0x3c79b57f	0.015241026
173	0x3e9ea831	0.30987695
174	0x3ea0fd2e	0.3144316
175	0x3d904859	0.07045049
176	0x3ead41fb	0.33839402
177	0xbebbf0d2	-0.3670717
178	0xbe330d7e	-0.17485616
179	0xbed7e6a9	-0.42168167
180	0xbda7c04c	-0.081909746
181	0xbeb037a0	-0.34417439
182	0x3bea7acd	0.0071557523
183	0x3e10097f	0.14066122
184	0x3ea76959	0.3269756
185	0x3e9e8e62	0.30968004
186	0xbf3e697d	-0.7437971
187	0xbc825c78	-0.015913233
188	0x3e06bef0	0.13158774
189	0x3c8e9667	0.017405702
190	0xbdb6652f	-0.08906018
191	0xbf04e0de	-0.5190562
192	0x3ecf51b2	0.40492016
193	0x3ef87ddd	0.48533526
194	0x3bd3a05a	0.0064583244
195	0xbd8dd8ed	-0.06926141
196	0x3e841815	0.25799623
197	0xbcf38b7a	-0.029729594
198	0xbe0b9dcc	-0.13634413
199	0x3c230698	0.009950303
200	0x3acddd06	0.0015706129
201	0x3ca44448	0.02005209
202	0xbde0b924	-0.10972813
203	0xbe3dc1d0	-0.18530965
204	0xbdb5aeed	-0.08871255
205	0xbd5765e4	-0.052587405
206	0x3cb027e3	0.021503394
207	0x3c5394b9	0.012913876
208	0x3d97af8f	0.07406532
209	0xbe0694b6	-0.13142666
210	0xbd2e5c94	-0.042568758
211	0xbd9fdaae	-0.07805382
212	0xbdf2e4bb	-0.11860033
213	0xbe582e9d	-0.21111532
214	0xbd2264ed	-0.03964703
215	0xbcbf3e58	-0.023345158
216	0x3dce07cd	0.10060082
217	0x3e1e5d11	0.1546519
218	0x3df35eee	0.11883341
219	0x3d8cd9a4	0.06877449
220	0x3e5f5960	0.21811438
221	0xbd0c8f4a	-0.03431634
222	0x3e1c4d61	0.15263893
223	0xbd4b9240	-0.04970002
224	0x3d48cead	0.049025226
225	0x3df1d53e	0.11808251
226	0x3ba171d4	0.0049268994
227	0xbe1d19ed	-0.15341921
228	0x3de2cb57	0.1107394
229	0xbe695672	-0.22786883
230	0x3d881444	0.0664449
231	0xbd6b7547	-0.05748489
232	0x3cd8c04f	0.026458887
233	0xbe126166	-0.14294967
234	0xbe1325c6	-0.14369878
235	0xbc393bbe	-0.011305748
236	0xbcea871e	-0.028628882
237	0xbea3c043	-0.31982622
238	0x3e3bd6c5	0.18343647
239	0x3cb72bff	0.022359846
240	0x3d34f3ec	0.044177935
241	0xbe3da71c	-0.18520778
242	0x3d245537	0.04012033
243	0x3e347878	0.1762408
244	0x3b64b3e2	0.0034897258
245	0xbd35496d	-0.044259477
246	0x3d0997c4	0.033592
247	0xbd92f4ae	-0.07175575
248	0x3d87b0c4	0.06625512
249	0xbd7517c6	-0.059837125
250	0x3ca61f40	0.020278573
251	0xbe7b90f5	-0.24567015
252	0xbe23f7d0	-0.16012502
253	0x3dcd1fc8	0.100158274
254	0xbdd69c20	-0.10478997
255	0xbd2bdac3	-0.041956674

lstm.weight_hh_l1 f4 [200, 50]
0	0x3dcfd19e	0.10147403
1	0x3d9db421	0.077003725
2	0xbe7d3cce	-0.24730226
3	0xbd9d4a73	-0.07680216
4	0xbdd490ce	-0.10379182
5	0xbe3f40ce	-0.18677065
6	0x3e93d629	0.2887433
7	0xbea08750	-0.31353235
8	0x3d9b5881	0.0758524
9	0xbe50f6ab	-0.20406596
10	0x3e292cd6	0.1652101
11	0x3e3b7f67	0.18310319
12	0xbe10728a	-0.14106193
13	0x3d840b0b	0.06447419
14	0xbb09f542	-0.0021050726
15	0xbe42c5da	-0.19020787
16	0xbe7663ee	-0.24061558
17	0xbe05d0bf	-0.13067912
18	0xbdf9f88d	-0.122056104
19	0x3eac1cb9	0.33615664
20	0x3d92112d	0.07132182
21	0xbe1f2aa1	-0.15543605
22	0x3e4fd441	0.20295812
23	0x3e41e6ea	0.18935743
24	0x3def67b0	0.11689699
25	0xbe4a1a6b	-0.1973664
26	0x3ddb3fc0	0.10705519
27	0xbe45b097	-0.19305645
28	0x3df6d901	0.12053109
29	0xbdfdbfba	-0.123900846
30	0x3d6c7f6b	0.057738703
31	0xbe121adf	-0.14268063
32	0x3d8c93a4	0.06864098
33	0xbdbb295b	-0.09138747
34	0xbe27ddb1	-0.16393162
35	0xbd2d02e9	-0.042239103
36	0x3c7f758f	0.015591993
37	0xbde9a9e7	-0.114093594
38	0xbe2f9b01	-0.17148973
39	0x3d829c3c	0.063774556
40	0x3d08609d	0.033295263
41	0xbddc0452	-0.107430115
42	0x3c40faa4	0.011778507
43	0xbd0ff8cc	-0.03514938
44	0x3dfd2856	0.12361209
45	0x3ab0c3a8	0.0013486044
46	0x3ee47037	0.44616863
47	0x3d8ce4df	0.06879591
48	0xbeb4af0a	-0.35289794
49	0xbd888a08	-0.06666952
50	0x3ebbe53d	0.36698332
51	0xbeb21b3c	-0.34786403
52	0xbe84cf3b	-0.25939354
53	0x3ecc5936	0.39911813
54	0x3e25d106	0.16193017
55	0xbe66ccf4	-0.22539121
56	0x3e51b958	0.2048086
57	0xbecd6f8d	-0.4012417
58	0x3f0d304d	0.55151826
59	0x3df83bbe	0.1212077
60	0x3e93294d	0.28742447
61	0x3ed2f470	0.41202116
62	0xbe3ae75e	-0.18252322
63	0x3d94df39	0.07269139
64	0x3e88a57f	0.26688763
65	0xbe88590e	-0.26630443
66	0xbe46d909	-0.1941873
67	0xbe37e6a3	-0.17959075
68	0xbe412574	-0.18861943
69	0xbd728277	-0.059206452
70	0x3b0e60bd	0.002172514
71	0x3dddfcd6	0.1083924
72	0x3eab26a4	0.33427918
73	0x3e68318a	0.22675148
74	0x3e269ae6	0.16270027
75	0xbde23ce2	-0.11046769
76	0x3e361bc1	0.17784025
77	0xbebe5539	-0.37174395
78	0x3e21f9c6	0.15817937
79	0xbe632f55	-0.22186024
80	0x3ec57ed7	0.38573334
81	0x3e058db5	0.13042338
82	0x3edddd95	0.43333116
83	0xbe8f5f13	-0.28002223
84	0xbd6105ff	-0.05493736
85	0xbebf30ec	-0.37342012
86	0x3e6afb8b	0.22947519
87	0xbec51c3f	-0.38498113
88	0x3c1efe9b	0.009704257
89	0xbec7d23a	-0.39027578
90	0x3d5cd0ba	0.053909995
91	0xbe7cc379	-0.24683942
92	0xba8431a2	-0.0010085593
93	0x3ccc4a0f	0.024937658
94	0xbd33c88b	-0.043892425
95	0x3e34707f	0.17621039
96	0x3e1d154a	0.15340152
97	0x3e9ef26c	0.31044328
98	0xbea0a43f	-0.3137531
99	0x3c9f009f	0.019409476
100	0xbe01065b	-0.1260008
101	0x3de72150	0.11285651
102	0xbd762ae9	-0.060099516
103	0x3e6ccffe	0.23126218
104	0xbe228649	-0.15871538
105	0xbe408709	-0.18801512
106	0xbbfac3e5	-0.007652747
107	0x3dabc4ec	0.08387169
108	0xbd8a517f	-0.067538254
109	0x3d047deb	0.032346647
110	0x3cc19fda	0.023635793
111	0x3e255e62	0.16149285
112	0x3d1b7d9a	0.03796158
113	0xbed0e2b5	-0.40797964
114	0xbdfa38e4	-0.12217882
115	0xbbd0ba71	-0.006369882
116	0x3e09f539	0.13472451
117	0x3e62741e	0.22114608
118	0x3ddf66fa	0.10908313
119	0x3d9c8836	0.07643168
120	0x3d1d29b9	0.038369868
121	0x3e163814	0.1466983
122	0xbe1169ef	-0.14200567
123	0x3e1c6af1	0.1527517
124	0x3b4cd87d	0.0031256967
125	0x3d2cc9ea	0.042184748
126	0xbe75fded	-0.24022646
127	0x3db5b8f2	0.08873166
128	0xbcec3abe	-0.028836604
129	0x3e191fbf	0.14953516
130	0xbe13f1e9	-0.1444775
131	0xbd8cc9f9	-0.06874461
132	0xbd3c8f97	-0.046035375
133	0xbdc80c3e	-0.0976796
134	0xbdb01660	-0.08598018
135	0x3e4cde74	0.20006734
136	0xbd0edd65	-0.034879107
137	0xbcf6bd5b	-0.030119589
138	0x3e9f73f9	0.31143168
139	0xbd4c95ed	-0.049947668
140	0xbd0b515b	-0.034013133
141	0xbe214640	-0.15749454
142	0xbd5c4b14	-0.053782538
143	0x3da20dcd	0.079127885
144	0xbe3f831a	-0.18702355
145	0xbdc16574	-0.09443179
146	0xbe2f807f	-0.17138861
147	0xbd384fac	-0.044997856
148	0x3e04eff8	0.12982166
149	0xbdb8eb23	-0.09029224
150	0xbdd7ab86	-0.105307624
151	0xbd56e75c	-0.052466735
152	0x3e575e4d	0.21032067
153	0x3f0aa126	0.54152143
154	0xbe698393	-0.22804098
155	0x3e36376e	0.17794582
156	0x3d03047a	0.03198669
157	0x3e5c4d7c	0.21513933
158	0x3e0ea3a1	0.13929607
159	0xbee34106	-0.44385546
160	0x3d13feee	0.03613179
161	0x3daaf6c7	0.0834785
162	0xbe04db3f	-0.12974261
163	0x3f38050c	0.718827
164	0xbd177db6	-0.03698512
165	0xbda7b32b	-0.081884705
166	0x3daf5ed7	0.08563011
167	0x3e6d3250	0.23163724
168	0x3f215a4f	0.63028425
169	0xbeb6c82f	-0.35699603
170	0x3dec9df9	0.115535684
171	0xbec0b2f0	-0.37636518
172	0x3ebd6c40	0.3699665
173	0x3dcfb53f	0.10141992
174	0x3e341e6a	0.17589727
175	0xbf1323ea	-0.57476676
176	0x3b8b5a43	0.0042527034
177	0x3c0c61ce	0.00856824
178	0x3e947025	0.2899181
179	0xbe9075dc	-0.2821492
180	0xbdcac4e4	-0.09900835
181	0x3e7bad8b	0.2457792
182	0xbd94b692	-0.07261385
183	0xbe97605d	-0.29565707
184	0xbe399db6	-0.18126568
185	0xbd89f6ee	-0.06736551
186	0x3da9047e	0.0825281
187	0x3dd36529	0.10322029
188	0xbe2c6a2c	-0.16837376
189	0xbe205e60	-0.15661001
190	0x3e41bb72	0.18919161
191	0x3d7eb43e	0.06218361
192	0xbecd6de2	-0.40122896
193	0x3eb48876	0.3526036
194	0xbec2c1b3	-0.38038406
195	0xbe5078f0	-0.20358634
196	0x3c29a6de	0.010354726
197	0x3ddc08ae	0.10743843
198	0xbc8f986a	-0.017528731
199	0xbc52e9c2	-0.012873115
200	0xbc200317	-0.009766362
201	0x3dd28bdb	0.102805816
202	0xbe19e987	-0.1503049
203	0x3cc96664	0.024584956
204	0xbe875857	-0.26434585
205	0xbdb23c9e	-0.08702968
206	0xbea3d578	-0.319988
207	0xbe0746f7	-0.13210665
208	0xbe03c86a	-0.1286942
209	0xbea4b4d8	-0.32169223
210	0xbe3ca310	-0.18421578
211	0xbbad8db6	-0.0052964343
212	0xbe2de1ee	-0.16980717
213	0xbca20e1e	-0.019782122
214	0xbd7a4c9b	-0.061108213
215	0xbdcf434a	-0.10120256
216	0x3bc05ae0	0.005870208
217	0x3e9047be	0.28179735
218	0xbb418f52	-0.0029534888
219	0x3deec233	0.11658134
220	0xbcf9266b	-0.030413827
221	0xbdbb2b4e	-0.09139119
222	0x3d1f617f	0.03891134
223	0x3def349a	0.11679955
224	0x3e55737a	0.20844832
225	0x3ea50e46	0.32237452
226	0x3cc96c02	0.024587635
227	0x3e014f08	0.12627804
228	0xbe0a9603	-0.13533787
229	0x3da8a46d	0.08234487
230	0xbe5e3317	-0.21699177
231	0xbe295a9c	-0.16538471
232	0xbe19853d	-0.14992233
233	0xbe32d878	-0.17465389
234	0xbce0c8ac	-0.027439438
235	0x3e69bd5a	0.22826138
236	0x3e1450f1	0.14484002
237	0x3e6cd50e	0.23128149
238	0x3defc4a2	0.117074266
239	0x3e02c28b	0.12769525
240	0xbd187771	-0.037223283
241	0x3e31f926	0.17380199
242	0x3e34d460	0.1765914
243	0x3e73d049	0.23809923
244	0xbec9a53b	-0.39383873
245	0x3d9da91f	0.07698273
246	0x3d974d67	0.0738781
247	0xbe8298a3	-0.25507078
248	0x3e3225a3	0.1739717
249	0xbd440810	-0.04785925
250	0xbdbbefb9	-0.09176583
251	0x3e43eab3	0.191325
252	0xbc98b5be	-0.018641349
253	0xbe173da8	-0.14769614
254	0xbe090712	-0.13381603
255	0xbdcf7164	-0.101290494

lstm.bias_ih_l1 f4 [200]
0	0x3e313287	0.17304431
1	0x3ef75d59	0.48313406
2	0xbd7256ec	-0.059164926
3	0x3c8654ff	0.016397951
4	0xbc74e5e5	-0.014947389
5	0xbe4335fe	-0.19063565
6	0xbddde9ae	-0.108355865
7	0xbe1b5f2a	-0.15173021
8	0x3b8f678a	0.0043763565
9	0xbca770a7	-0.020439459
10	0xbd4a010c	-0.049317405
11	0x3dbcc7e8	0.092178166
12	0x3ef42957	0.4768779
13	0x3ef18c9f	0.47177598
14	0xbcb3a9ab	-0.02193149
15	0xbdb6fe32	-0.08935203
16	0x3d90bc82	0.07067205
17	0x3e4ed754	0.20199329
18	0x3cfbf720	0.030757487
19	0xbe11de99	-0.1424507
20	0xbd9bc677	-0.076062135
21	0x3f4c5ae8	0.7982621
22	0x3dc5baf8	0.09654802
23	0xbdd06a0e	-0.10176478
24	0xbc52f747	-0.012876338
25	0x3dbd9ce8	0.09258443
26	0xbdacbf4c	-0.084349245
27	0x3e78f790	0.24313188
28	0x3bd413a9	0.0064720702
29	0x3e06bbc5	0.13157566
30	0xbd55ce78	-0.052198857
31	0xbe3002a2	-0.17188504
32	0x3b3ae6fc	0.0028519025
33	0x3e334409	0.17506422
34	0xbe008c56	-0.12553534
35	0xbe196f7c	-0.14983934
36	0x3e1208d6	0.14261183
37	0xbdfdc144	-0.12390378
38	0x3d903ec8	0.070432246
39	0xbcc4004c	-0.023925923
40	0xbd1f26f2	-0.0388555
41	0x3dd61907	0.10453992
42	0x3bbf9952	0.0058471346
43	0xbddecff7	-0.1087951
44	0xbdb24831	-0.08705176
45	0xbe117466	-0.14204559
46	0x3d6b4787	0.05744126
47	0xbe2ecab4	-0.17069513
48	0x3c0e932c	0.008702081
49	0x3e7a9e40	0.2447443
50	0xbe267dbe	-0.16258904
51	0xbdab60e6	-0.08368091
52	0x3df1e739	0.1181168
53	0xbe039131	-0.12848355
54	0xbc705799	-0.014669322
55	0xbdcee45c	-0.1010215
56	0x3d3f46fe	0.046698563
57	0x3df6619c	0.12030336
58	0xbdcc7586	-0.09983353
59	0xbd9a187e	-0.07524203
60	0xbe4102fc	-0.18848795
61	0x3d83a608	0.06428152
62	0x3d8e066c	0.069348186
63	0xbe3c6002	-0.18395999
64	0xbe13c935	-0.14432223
65	0xbe12a9fd	-0.14322658
66	0x3db6637e	0.089056954
67	0xbd44386e	-0.047905378
68	0x3e1f4d54	0.15556842
69	0x3c27dcd5	0.010245522
70	0xbde652ad	-0.11246238
71	0xbe452b49	-0.19254793
72	0xbe1913fb	-0.14949028
73	0x3dfcf608	0.12351614
74	0xbd3ab0d2	-0.045578785
75	0x3d47df2c	0.048796818
76	0x3d9bbe8e	0.07604705
77	0x3d7d84ac	0.061894104
78	0x3d283666	0.041067503
79	0x3d90a2a8	0.07062274
80	0xbd528a3a	-0.051401354
81	0x3accf5f8	0.0015637269
82	0x3baf7dc1	0.005355567
83	0x3e736daf	0.2377231
84	0x3da382e9	0.079839535
85	0xbdc4e8f4	-0.09614745
86	0x3d63878b	0.055549186
87	0xbd9662c4	-0.07343057
88	0x3cee60bb	0.029098859
89	0xbc91d1cf	-0.01780024
90	0xbd8eb861	-0.06968761
91	0x3e57994e	0.21054575
92	0xbb06f6aa	-0.00205938
93	0x3de41462	0.111367
94	0x3d9ac730	0.07557523
95	0xbe5177b3	-0.20455818
96	0x3d2be3ec	0.04196541
97	0xbe560d83	-0.20903592
98	0x3e12a6be	0.1432142
99	0x3db5024e	0.0883833
100	0xbd99e1a7	-0.07513743
101	0xbd5cb808	-0.053886443
102	0x3b732b8b	0.003710481
103	0xbdfcafa3	-0.123381875
104	0xbd47b0b3	-0.048752498
105	0xbcfca534	-0.030840494
106	0xbcf3843c	-0.02972614
107	0xbd02a61b	-0.03189669
108	0x3df527b1	0.11970461
109	0x3de26780	0.11054897
110	0xbd2e9907	-0.042626407
111	0x3e36d235	0.17853625
112	0xbd8ea45f	-0.06964945
113	0x3b503c6a	0.003177429
114	0x3da24e67	0.0792511
115	0x3d8c0c01	0.06838227
116	0x3d5a5383	0.0533023
117	0xbd55a402	-0.052158363
118	0x3cf918f1	0.0304074
119	0x3e1f67fe	0.15567014
120	0x3e2a2f3d	0.16619582
121	0x3cb51e00	0.022109032
122	0x3da9fd12	0.083002225
123	0xbdb46538	-0.088083684
124	0xbbac1190	-0.005251117
125	0xbc7eb566	-0.015546178
126	0x3d6fbab5	0.058527667
127	0x3d5e7c09	0.054317508
128	0x3cf3aea3	0.02974636
129	0x3c863056	0.01638047
130	0x3d5e4f5a	0.054274894
131	0x3e051d90	0.12999558
132	0x3e010cb7	0.12602507
133	0x3d7f0e1e	0.062269323
134	0xbe16f37c	-0.1474132
135	0x3d6d28ef	0.057900365
136	0xbd066478	-0.03281066
137	0xbe1a926d	-0.1509492
138	0x3d8dcce0	0.069238424
139	0xbd7d854d	-0.061894704
140	0xbcb5ce8a	-0.022193212
141	0xbd62f4de	-0.055409305
142	0xbc936f3a	-0.017997373
143	0xbbdd9a51	-0.0067627807
144	0xbd71015f	-0.0588392
145	0xbd961eb9	-0.07330079
146	0xbd1a0496	-0.03760203
147	0x3d9031da	0.070407584
148	0xbd433c04	-0.047664657
149	0x3ce90f30	0.028449625
150	0x3d456255	0.04818948
151	0x3eb4ac4b	0.352877
152	0xbe1951e2	-0.14972642
153	0x3cdcb332	0.026940916
154	0xbe92e06d	-0.28686848
155	0x3d76ca31	0.06025142
156	0x3d4a27ac	0.04935424
157	0x3d9b9b01	0.07597924
158	0xbdc12f99	-0.09432907
159	0x3d383eb3	0.04498167
160	0x3d760a30	0.06006831
161	0x3c0210e4	0.007938597
162	0x3eca9157	0.3956401
163	0x3ecd8356	0.40139264
164	0xbd38ceaf	-0.045118984
165	0x3dafb135	0.085787214
166	0x3da54de3	0.08071496
167	0x3e73e09b	0.23816149
168	0x3da05587	0.07828813
169	0xbda6e3c7	-0.08148914
170	0x3d889dce	0.06670724
171	0x3f3a3970	0.7274389
172	0x3c3e17fc	0.011602398
173	0xbde2f6fc	-0.11082265
174	0xbd9cad33	-0.07650223
175	0x3d8d029b	0.068852626
176	0x3d0f5d1d	0.03500091
177	0x3dd20b3a	0.102560475
178	0x3da7d2e8	0.08194524
179	0x3c9350bd	0.017982835
180	0x3d3f6f3e	0.04673695
181	0x3a002f40	0.00048898533
182	0x3db5b103	0.08871653
183	0x3e18c66c	0.14919442
184	0xbda84800	-0.08216858
185	0x3cc36042	0.02384961
186	0x3dabc986	0.08388047
187	0xbd8dd697	-0.069256954
188	0xbe0a1c63	-0.13487391
189	0x3d15fca1	0.03661788
190	0x3d6843d2	0.056705303
191	0x3d31f855	0.04344972
192	0xbdaacda2	-0.083400026
193	0xbddd2db6	-0.10799734
194	0xbde751fc	-0.11294934
195	0xbce633a1	-0.02810079
196	0xbc00bfb6	-0.007858207
197	0xbd2a7bc7	-0.04162195
198	0x3d0ba3fb	0.03409193
199	0xbddeaf16	-0.10873239

lstm.bias_hh_l1 f4 [200]
0	0x3d5d78a5	0.054070134
1	0x3f0a2b17	0.53972
2	0x3ce1d692	0.027568135
3	0x3e4e6f2c	0.20159596
4	0xbe8578fb	-0.26068863
5	0xbcf3e5b1	-0.029772611
6	0x3dbd9320	0.092565775
7	0xbdde4355	-0.10852686
8	0xbd6ba92f	-0.057534393
9	0xbdbf1ae3	-0.093313
10	0xbdf6ddad	-0.12054
11	0xbde3fe7a	-0.11132522
12	0x3ef6df39	0.4821718
13	0x3eeb7ddf	0.4599447
14	0x3d8ba220	0.06818032
15	0xbdfc2984	-0.12312606
16	0xbca13415	-0.019678155
17	0x3e02338a	0.12714973
18	0xbe265834	-0.16244584
19	0x3ca38e9d	0.019965464
20	0xbdd87d55	-0.1057078
21	0x3f3b580f	0.7318124
22	0x3d811a6c	0.06303868
23	0xbd67fcb2	-0.056637473
24	0x3dedee81	0.11617757
25	0x3de9529c	0.113927096
26	0xbd91562a	-0.070965126
27	0x3eb2b99a	0.34907228
28	0xbd6759a0	-0.056481957
29	0x3bdab5e3	0.0066745146
30	0xbd4fd216	-0.050737463
31	0xbdcddc09	-0.10051734
32	0x3d90de4b	0.07073649
33	0x3e3ab8dd	0.18234582
34	0x3d2285db	0.039678436
35	0xbe00733a	-0.12543955
36	0xbd63bbc2	-0.05559898
37	0x3de00dac	0.10940108
38	0xbcea15d9	-0.02857487
39	0xbd23991d	-0.039940942
40	0xbde49599	-0.11161346
41	0xbdb22ec3	-0.08700325
42	0x3ddf29c5	0.10896639
43	0xbdf0f8c5	-0.11766199
44	0x3cf2b23b	0.029626003
45	0x3d9fd609	0.07804496
46	0x3e4a889b	0.19778673
47	0xbdf2adda	-0.11849566
48	0xbe19bea2	-0.15014127
49	0x3e031924	0.12802559
50	0xbe12a9a0	-0.1432252
51	0x3ccce244	0.025010236
52	0x3e0fc234	0.14038926
53	0xbd84e741	-0.06489421
54	0x3d7a3d78	0.061093777
55	0x3e11353a	0.1418046
56	0xbd9370b2	-0.07199229
57	0xbdf06806	-0.11738591
58	0xbc188009	-0.00930787
59	0xbcdee8d2	-0.027210627
60	0xbbd21cff	-0.006412148
61	0xbd9c6e34	-0.07638207
62	0xbe343602	-0.17598727
63	0xbc08ed70	-0.008357391
64	0x3b8645f9	0.004097697
65	0xbcd3d1f6	-0.025856953
66	0x3dcd5f58	0.10027951
67	0xbe21bfc1	-0.15795805
68	0x3de27c56	0.110588714
69	0xbd3bb3e0	-0.04582584
70	0xbd1e04c7	-0.038578775
71	0xbe8e669f	-0.2781267
72	0xbe37ec15	-0.17961152
73	0x3df5d5af	0.120036475
74	0xbd349f80	-0.044097424
75	0x3d636184	0.05551292
76	0x3e2f50c2	0.1712065
77	0x3c2f38f1	0.010694728
78	0x3cc0fed6	0.023559015
79	0x3d1c1ac1	0.038111452
80	0xbbe9881e	-0.007126822
81	0xbd84f495	-0.06491963
82	0xbe167d4b	-0.14696233
83	0x3e5f2bfb	0.21794121
84	0x3d82cfcf	0.063872926
85	0xbe47165b	-0.19442122
86	0x3dddeab2	0.1083578
87	0x3de37830	0.11106908
88	0x3c25a624	0.010110412
89	0xbc95ee0e	-0.01830199
90	0xbdd08485	-0.10181526
91	0x3e2075b8	0.15669906
92	0xbdb7c8ae	-0.089738235
93	0x3dfc1238	0.123081625
94	0x3e0fe70a	0.14052978
95	0xbe7dfbbe	-0.24803063
96	0xbdc0c294	-0.09412113
97	0xbe4090b5	-0.18805201
98	0xbd2a0c16	-0.041515432
99	0x3c528af9	0.0128505165
100	0xbcb002f8	-0.02148579
101	0xbc2edf11	-0.0106733
102	0xbda43467	-0.080178075
103	0x3d838083	0.06420996
104	0xbb9842c0	-0.004646629
105	0xbdae837c	-0.085211724
106	0x3d345b71	0.044032518
107	0xbd71acf3	-0.059002828
108	0x3d83bfa4	0.06433037
109	0xbe0103ee	-0.12599155
110	0x3e0176fb	0.12643044
111	0xbcc0e336	-0.023545843
112	0x3d3c0a7b	0.045908432
113	0xbccba1fc	-0.024857514
114	0x3d4bc6ca	0.049750127
115	0xbe0b87ac	-0.13625973
116	0xbd961ae8	-0.07329351
117	0x3e0ff967	0.14059983
118	0xbc8277cd	-0.015926266
119	0xbd9e6dd6	-0.07735793
120	0xbd1b2cf2	-0.03788466
121	0x3dc57295	0.096409954
122	0x3d8aa77a	0.06770225
123	0xbdbc2e9a	-0.09188576
124	0x3da8cfc0	0.0824275
125	0x3d5d7b71	0.0540728
126	0x3de5425b	0.11194297
127	0xbe42e71a	-0.19033471
128	0x3d4d7d7d	0.050168503
129	0x3def045b	0.116707526
130	0x3e1103ab	0.14161555
131	0x3e0cdb8c	0.13755625
132	0x3e0d106d	0.13775797
133	0xbc872327	-0.016496254
134	0xbd535334	-0.05159302
135	0xbe0230d1	-0.12713934
136	0x3e030ccf	0.12797855
137	0xbdea6fa1	-0.11447073
138	0xbe03f9ef	-0.12888311
139	0x3d3c3171	0.04594559
140	0x3dd1dbdc	0.10247013
141	0x3e3356bc	0.17513555
142	0x3dbda190	0.09259331
143	0x3de25d1f	0.11052918
144	0xbdf3d2af	-0.11905419
145	0xbe19c15f	-0.15015171
146	0x3d96bf4f	0.07360708
147	0xbb3d35bc	-0.002887114
148	0xbc15d40d	-0.009144795
149	0x3da51cd9	0.08062143
150	0x3d2ff0af	0.042954143
151	0x3ecf4271	0.40480378
152	0xbd09eedc	-0.03367506
153	0xbdb8e95f	-0.09028887
154	0xbc7d2632	-0.015451001
155	0x39ed96c2	0.00045316486
156	0xbdb437eb	-0.08799728
157	0xbd46fefd	-0.04858302
158	0x3da8e75f	0.082472555
159	0x3d812e17	0.06307619
160	0xbdc6044a	-0.09668787
161	0x3cc1da0c	0.023663543
162	0x3e96d7e5	0.2946159
163	0x3edc0962	0.4297591
164	0x3dd94804	0.10609439
165	0x3d10eb24	0.035380498
166	0xbddb5b42	-0.107107654
167	0x3e8898f6	0.266792
168	0x3d2628bd	0.040566195
169	0xbe3e9dc8	-0.18614876
170	0xbb855cf9	-0.004069921
171	0x3f3e1050	0.7424364
172	0xbe2f8bdd	-0.17143197
173	0xbd9c44d8	-0.076303184
174	0xbe1f2de8	-0.15544856
175	0x3da86dfb	0.08224102
176	0x3ddf8b52	0.10915245
177	0x3e429228	0.19001067
178	0x3c612e04	0.013743881
179	0xbdc35b22	-0.095388666
180	0x3dabe764	0.08393744
181	0x3ca55b28	0.020185068
182	0xbe2542e7	-0.16138802
183	0xbd6fcca3	-0.058544766
184	0x3d864ff2	0.06558217
185	0xbb8b6c45	-0.00425485
186	0xbc902a99	-0.017598437
187	0x3dfde12c	0.12396464
188	0xbd31f9c5	-0.04345109
189	0x3ca92cc5	0.02065123
190	0x3ce8772b	0.028377136
191	0x3dbc33d3	0.09189572
192	0xbd72f78c	-0.05931811
193	0xbce706da	-0.02820151
194	0x3cbfc6ac	0.023410164
195	0x3d376585	0.04477455
196	0xbdef9381	-0.11698056
197	0xbe08247d	-0.13295169
198	0xbe127303	-0.14301686
199	0x3c1a7a3e	0.009428559

fc.weight f4 [1, 50]
0	0x3e02b9ca	0.12766185
1	0xbe83463a	-0.25639516
2	0xbcf5c647	-0.030001773
3	0xbd2c50d3	-0.042069267
4	0x3d0c3afa	0.034235932
5	0xbd1f3095	-0.03886469
6	0x3d9dbfbd	0.07702587
7	0xbd66a646	-0.056310914
8	0x3da8dac0	0.08244848
9	0xbd9e802e	-0.07739292
10	0x3daf9b37	0.08574527
11	0x3e0b1ecc	0.13585967
12	0x3de2ef3b	0.11080786
13	0x3e37e451	0.1795819
14	0x3daaca31	0.08339346
15	0xbd4cc6b7	-0.049994197
16	0xbdb4634c	-0.08808002
17	0xbdf6557a	-0.12028022
18	0xbdbb38eb	-0.091417156
19	0x3d5d912a	0.054093517
20	0x3d9dd9b0	0.07707536
21	0x3e2a7a7c	0.16648287
22	0x3d78324f	0.060594853
23	0x3ce13378	0.027490363
24	0x3d28e769	0.041236315
25	0xbc870076	-0.016479712
26	0x3d543036	0.05180379
27	0xbdca3758	-0.09873837
28	0xbb4ae7f2	-0.0030961004
29	0xbc08b055	-0.008342822
30	0x3e0fd38a	0.1404554
31	0x3d9e5926	0.077318475
32	0x3da17e69	0.07885439
33	0x3b736d94	0.003714417
34	0xbdce6e49	-0.10079629
35	0xbd54d9d7	-0.05196556
36	0x3db56e86	0.08858971
37	0xbe144644	-0.14479929
38	0xbd8f894f	-0.070086114
39	0xbd84f2de	-0.06491636
40	0x3d67d29e	0.056597345
41	0x3d143e5f	0.036192294
42	0x3da68812	0.08131422
43	0x3ddc6d41	0.10763026
44	0x3d510248	0.051027566
45	0x3df8a872	0.121415034
46	0x3dac7ae9	0.08421881
47	0x3db7c03c	0.08972213
48	0x3d996175	0.074892916
49	0xbdd11a98	-0.102101505
