LSTM/stock_Model/2330.TW.pth (torch, 131077 bytes, 9 tensors)

lstm.weight_ih_l0 f4 [200, 5]
000000 69 69 b6 bd 24 be 52 3d d9 c0 49 3d ba 86 c1 bc
       -0.08906824 0.051450863 0.04925618 -0.023623813
000010 8c e1 c3 bd c3 b2 ad bd 46 e7 5c 3d 5d 1e ca 3d
       -0.09564504 -0.08481362 0.053931497 0.098690726
000020 6b 58 a0 3c bf 99 0c 3e 85 41 29 3d 9f d6 ac 3c
       0.019573411 0.13730524 0.04132225 0.021098433
000030 03 79 92 3b 6d 11 2c 3c 44 ba f6 bd 9e 52 2a 3e
       0.004469992 0.0105022015 -0.12047246 0.16633078
000040 7a 1a 0d bd f1 5e fb 3d 2c 75 01 bd 9e 9f 06 3e
       -0.03444908 0.12273968 -0.031605884 0.13146827
000050 a2 0e c8 39 20 fb bd bd fa 0e e4 bd d8 f4 18 3a
       0.00038157875 -0.09276414 -0.11135669 0.00058348244
000060 ca b5 90 3d 62 64 42 bd 90 39 7d bd 21 77 07 3e
       0.070659235 -0.047459014 -0.061822474 0.13229038
000070 db f9 1a 3e da ca 1d 3e c8 1f 07 3e 46 8a 16 3d
       0.15134375 0.15409413 0.13195717 0.03675296
000080 55 29 45 bc 50 27 e7 3d 48 8e 8f 3d 8d 47 f8 3d
       -0.01203378 0.11286795 0.0700956 0.12123022
000090 c9 e7 41 3e 55 2b f7 3d 9c c4 e8 3d 17 a5 2b bd
       0.18936075 0.12068812 0.11365625 -0.04190549
0000a0 64 80 e7 3d bb 3b 2e 3e 30 2d c9 3d 11 7a 1c 3e
       0.113037854 0.17014973 0.09823072 0.1528094
0000b0 de c1 16 3e 2c 33 b0 3c c4 f1 b4 3d 38 54 81 bd
       0.14722392 0.021508776 0.08835176 -0.063148916
0000c0 0c 68 ad 3c 01 2b 19 bd ab 7f fc bc f6 b6 08 3e
       0.021167777 -0.037394527 -0.030822596 0.13351044
0000d0 7c 17 c3 bd 0c c8 22 3e 26 8a 99 bd 32 88 44 bc
       -0.09525964 0.15896624 -0.07497053 -0.011995362
0000e0 23 21 90 bd 00 bf ff 3c 9c 2c 24 3d 04 e3 c5 bd
       -0.0703757 0.031219006 0.040081605 -0.096624404
0000f0 eb b4 33 bc 44 a3 e3 3d df 00 00 bd ed ed c2 bc
       -0.010968427 0.11115125 -0.03125083 -0.023795092
000100 c0 e7 e5 3d 73 78 0a 3e 0e 83 17 3d cc cc 9c 3d
       0.112258434 0.1352251 0.036990218 0.076562494
000110 b9 80 73 3d 15 72 98 bc 1c c7 14 3c 13 9d b6 bd
       0.05944893 -0.018609086 0.0090806745 -0.08916678
000120 88 e2 0d be 2a be fa bd ef 31 99 3d 8f af 14 3e
       -0.13855946 -0.12243302 0.07480227 0.14520095
000130 07 6d 71 3d ea bc da bc 5f 18 6c bd 79 a9 81 3d
       0.058941867 -0.02670141 -0.05764043 0.063311525
000140 8a 12 5b 3d 06 ad a5 3d 76 3d 1d 3e 63 c5 22 3c
       0.053484477 0.08089642 0.15355477 0.009934756
000150 43 94 df bd 75 b3 41 3d 8d 6c e9 3d b7 66 40 bd
       -0.109169506 0.047290284 0.113976575 -0.046972957
000160 c4 d6 29 3e c3 7b d1 3d ce f4 b6 ba 2a bd a9 3d
       0.16585833 0.10228684 -0.0013958456 0.08288033
000170 bb 45 cd 3d 60 a5 e3 3d 1b de 14 3d de 97 ef bc
       0.10023066 0.11115527 0.03634463 -0.02924722
000180 65 8f 6b 3d 03 e3 8d 3d b5 2c 90 3d 8f 68 46 3d
       0.0575098 0.06928065 0.07039777 0.04843956
000190 bb e4 5f 3e f7 b8 19 3e 1f 7b 76 3d 52 b3 25 3e
       0.21864597 0.15011965 0.06017601 0.16181687
0001a0 be 09 61 3d 5f 36 d2 3d de 56 54 3e 50 74 25 bd
       0.05494093 0.10264277 0.20736262 -0.040394127
0001b0 5c 5f 02 3e f1 51 f5 3d c4 6d 15 bd df 28 c3 3d
       0.12731689 0.1197852 -0.036481634 0.0952928
0001c0 d6 4c 7a bd ee cd cd 3d 3e 80 b7 3d 67 ff ec bc
       -0.061108433 0.100490436 0.08960007 -0.02893038
0001d0 b7 53 ca 3d df ff 1e 3d 8b 00 ab bd 8a df 5b 3d
       0.098792486 0.038818236 -0.08349713 0.05367998
0001e0 e0 41 75 3d e0 21 ec 3d f3 46 93 3d dc fd 5f bd
       0.059877276 0.11529899 0.07191267 -0.05468546
0001f0 a2 44 3c 3e 32 02 05 3e 78 1e c0 3d 9d 85 9a 3d
       0.18385556 0.12989119 0.093808115 0.07545016
000200 4d 5a d8 bd d1 d6 a6 bd 23 b9 30 3e 95 43 45 3d
       -0.105640985 -0.08146442 0.17258124 0.048160154
000210 b0 3b 87 bd bd 91 70 3d 3f e2 82 3d af 8a a8 bd
       -0.06603181 0.058732737 0.06390809 -0.08229577
000220 a9 78 aa bd c1 7c 0f 3e 41 15 8f 3d 2d 9e 04 3e
       -0.08323795 0.14012434 0.06986476 0.12950964
000230 e5 9f 1a 3d 2a 4b 51 3d 14 2e 4c 3e 18 d6 7f bc
       0.037750144 0.051097073 0.19939452 -0.015615009
000240 9b 96 9c 3e 64 58 31 3e 76 74 96 3e 7a af 76 3e
       0.30583653 0.17318875 0.29385728 0.24090376
000250 2c bf bd 3e 23 05 d9 3e 0f d3 10 3e 5d 2d 41 3e
       0.37059915 0.42386732 0.14143012 0.18864961
000260 2f 90 40 3e cb e6 64 3e 09 b8 94 3d d0 aa 6e bb
       0.18805002 0.22353666 0.072616644 -0.003641773
000270 66 45 a1 3d 70 b4 f6 3d 0e e1 d7 bc 75 59 0a be
       0.07874565 0.120461345 -0.026352432 -0.13510688
000280 b4 5f 24 3e 44 59 8c bd 6b 27 91 bd 90 db 86 3d
       0.16052133 -0.068529636 -0.070875965 0.06584847
000290 bd c2 f8 3c c0 94 59 bc 17 ea f8 3c 09 79 c0 3d
       0.030366296 -0.013280094 0.03038506 0.093980856
0002a0 a7 12 2a 3e 35 b5 1f 3d 9e c9 b4 3d 71 dc 0b bd
       0.16608678 0.038991172 0.08827518 -0.034145776
0002b0 64 bd a3 3d 9b df f5 bc 24 40 5f 3d f2 96 1b bc
       0.07995108 -0.03001385 0.05450453 -0.009496437
0002c0 51 f9 8b bd 96 27 0a 3e 50 21 25 3e f0 34 f8 bc
       -0.06834663 0.13491663 0.16125989 -0.03029868
0002d0 e5 d2 33 3e 9e bd b8 bc 7f 16 0d bd 33 7b 30 bd
       0.17560919 -0.022551354 -0.034445282 -0.043086242
0002e0 04 14 c7 3d 01 9a be 3d 06 5b b2 3b 1d 84 00 bc
       0.097206146 0.09306718 0.0054429797 -0.007843998
0002f0 27 62 c0 bd a8 7a bc 3b 37 d6 a6 bc 10 f3 ea 3d
       -0.09393721 0.0057519265 -0.020365817 0.11472142
000300 c8 43 1b 3e 78 06 86 bb fd 61 f4 3b 1f ef ab bd
       0.15162575 -0.0040901266 0.00745797 -0.08395218
000310 5d fc 72 3d fb 72 12 be 52 b2 b5 bd 73 24 f6 bc
       0.059322704 -0.14301674 -0.088719025 -0.030046677
000320 95 1f 52 3d fb b8 96 3d dd f3 b8 bd 80 fc d7 bd
       0.05129965 0.07359501 -0.09030888 -0.105462074
000330 5c 17 6a 3b cc 2d 56 3c d0 49 2b bd 95 57 2a bd
       0.003571949 0.013072442 -0.04181844 -0.04158743
000340 65 f0 ac bd 22 2b b8 bd 7e c3 28 3e a9 f6 0c 3e
       -0.08444289 -0.08992602 0.16480824 0.13765968
000350 ba 2d 25 3d cf 3f 34 3e 93 50 71 bc bc 1e 8f 3b
       0.04032681 0.17602466 -0.014728683 0.0043676775
000360 d0 e7 b4 3d 21 61 bf bd ee e6 cd bd 92 3c c1 3d
       0.08833277 -0.09344698 -0.10053812 0.09435381
000370 8d 71 ac 3d 2b 39 39 3e 32 48 27 bd cd 28 24 3e
       0.084200956 0.18088214 -0.040840335 0.1603119
000380 ee 57 63 3e 90 12 c2 bc 69 f3 20 bd cd c7 93 3d
       0.22201511 -0.023690492 -0.039294634 0.07215843
000390 ca 55 43 3d 54 26 46 3e cd da 08 3e 0c 2b 24 3d
       0.047689237 0.19350559 0.13364716 0.040080115
0003a0 14 f0 dd bc 42 7b 09 3e 75 c3 c2 bd 03 64 56 3d
       -0.027092017 0.13425925 -0.09509937 0.052341472
0003b0 b1 86 b2 3d 49 a7 d1 3d d6 ed 89 3d d7 83 ca bd
       0.087170966 0.10236985 0.06734817 -0.09888428
0003c0 af 9b 2b 3c 07 88 46 bd 8c 6e 06 3d 4c 1b 36 3d
       0.01047413 -0.04846957 0.03282027 0.044459626
0003d0 8b 07 ae 3d 06 e1 6e bd 8e d4 e4 3c 78 bc 86 bd
       0.084975325 -0.058320068 0.027933385 -0.06578916
0003e0 03 b8 c4 bc 6b 93 a0 3d dd 80 e7 3d 0d be f6 3b
       -0.024013525 0.07840618 0.113038756 0.00752998
0003f0 00 d8 71 3d f9 09 42 3c 44 0f eb bc 71 eb 54 3c
       0.059043884 0.011843198 -0.028693803 0.012995587

lstm.weight_hh_l0 f4 [200, 50]
000000 b2 84 1a be fa 3d 1a 3e 80 90 e1 3c e9 7e 5f bd
       -0.15089682 0.15062705 0.027534723 -0.05456439
000010 c9 e7 5a 3d 7b c4 ed bb ce 7b 27 bc 98 d9 11 3e
       0.053443704 -0.0072560883 -0.010222388 0.14243162
000020 69 19 51 bd 29 bf 1f bd 57 1c 85 3c 87 13 bb 3d
       -0.051049624 -0.039000664 0.016248865 0.09134584
000030 75 11 84 3d a7 fe e4 3d 36 d3 d7 bd 9d 89 79 bd
       0.06448642 0.111813836 -0.10538332 -0.060922254
000040 42 89 f4 3d 53 7c 38 3d ea f1 68 bc 0d c1 0f be
       0.11940242 0.04504044 -0.014217833 -0.14038487
000050 b7 8f b1 3d 1c 1c 7f 3d 74 51 9a 3c 4f 8d b1 3c
       0.086699896 0.062282667 0.018837668 0.021673827
000060 59 74 c5 bc a0 a8 de 3d ec c7 39 bd e5 24 c2 3d
       -0.02410333 0.108720064 -0.045356676 0.09479693
000070 5c 87 88 3b 03 49 c0 3c 51 5c 1b be 00 c8 38 3d
       0.0041665267 0.023472315 -0.15171935 0.04511261
000080 26 c3 c0 bd fe 62 0f 3e 49 97 e9 3d 23 10 af 3d
       -0.094122216 0.14002606 0.114058085 0.08548
000090 43 5f fa 3d ca 62 c0 3d 30 60 e9 bc c4 f3 30 3d
       0.12225201 0.093938425 -0.028488249 0.043201223
0000a0 7c a3 3f 3d 8d 54 b3 bd 6c 33 e8 3d ad 2c ed bd
       0.04678677 -0.08756361 0.11337933 -0.11580787
0000b0 63 8d 73 bb e9 4c c4 bd f3 23 02 be f0 55 72 3d
       -0.003716313 -0.09584982 -0.12709026 0.059163988
0000c0 0b 6d ea bc 4c c7 a8 bd ae 38 d6 3d 3c bd d3 3d
       -0.028616449 -0.08241138 0.104600295 0.10338828
0000d0 71 56 fd bd 45 24 a5 3c 94 66 0c be 73 bd ad 3d
       -0.12370003 0.020158896 -0.13711005 0.084834
0000e0 75 70 ba 3d b3 79 9f bd 3c 70 e6 bb 1c 91 c5 3c
       0.09103481 -0.07786884 -0.0070324223 0.024117045
0000f0 b9 12 0d 3e d4 a3 8c 3d 4f 28 a1 bd 36 b2 c4 bc
       0.13776673 0.06867185 -0.078690164 -0.024010759
000100 97 8d 7d 3d 90 f7 16 3e 4d 29 ef bd f5 f2 d3 bd
       0.06190261 0.14742875 -0.116777994 -0.10349075
000110 60 1d 00 3e 7e b2 6b 3d 3c 48 36 3d e0 68 56 bd
       0.12511206 0.05754327 0.04450248 -0.05234611
000120 90 3e b3 bd 4c c4 0d 3e f5 5b 4a bd da e5 b6 3d
       -0.08752167 0.13844413 -0.049404103 0.089305595
000130 10 d0 73 bd 8e ce 4d 3c 48 78 c7 3d 85 8a 93 bd
       -0.059524596 0.0125614535 0.09739739 -0.07204155
000140 17 d8 12 be 2f d9 e1 3c b5 9a 05 3d 70 6b d6 3d
       -0.14340244 0.027569382 0.032618243 0.10469711
000150 e6 8c 1c bc a6 e2 d6 bd f6 3f 88 3d 74 3e d7 3d
       -0.009555077 -0.104924485 0.066528246 0.10509959
000160 c8 5d 17 3d 79 e4 09 3e 3a 23 d6 bd c4 a8 cf 3b
       0.03695467 0.13466062 -0.10455938 0.006337257
000170 12 f3 ae 3d db 40 24 bd 91 2e 7d 3d 25 d8 b3 bd
       0.08542456 -0.040100913 0.061811987 -0.08781461
000180 dc 63 71 3d 94 ca 51 bd df 8f 21 3d 01 76 82 3c
       0.058933124 -0.051218584 0.039443847 0.01592541
000190 49 df 07 be 86 b7 fc bc 9a 36 a7 3d cf 44 82 3c
       -0.1326877 -0.03084923 0.08164711 0.015901951
0001a0 35 fd b3 3d 07 50 66 bd c8 14 9b bd 78 36 92 bd
       0.0878853 -0.056228664 -0.07572323 -0.07139295
0001b0 3d d2 e0 3d 15 73 4a 3d 36 a2 89 bd 12 ee 83 3d
       0.109776 0.049426157 -0.067203924 0.06441893
0001c0 19 26 33 bc 8f e6 af bc 36 ae ef bd 13 6b 34 3d
       -0.010934376 -0.021472244 -0.1170315 0.044047426
0001d0 96 73 4e 3d 3d 86 e5 3d 00 a4 e9 3d 73 2a e7 3d
       0.0504032 0.112072445 0.11408234 0.112873934
0001e0 d1 05 bd 3d 5e c4 7c 3d ca b2 70 bd 2e f4 b3 3d
       0.09229625 0.061710708 -0.058764257 0.08786808
0001f0 58 f1 c8 3d 97 e0 55 bd fb a7 13 be 6a 7c 82 bd
       0.09811658 -0.05221614 -0.14419548 -0.06371386
000200 1c 26 8a 3c a9 b7 9e 3c b9 1f 0e 3d cd 9c 60 3d
       0.016863875 0.019374685 0.03469822 0.054837037
000210 5e c7 12 be e5 96 e3 3d a9 5d 86 3c 02 ad 2d 3d
       -0.14333865 0.11112765 0.016402083 0.04240132
000220 2c 98 ea 3d aa 25 e2 3d 9a 8d bd 3d 0a d2 17 3e
       0.11454806 0.1104234 0.09255524 0.14826217
000230 1d df 01 bd 1e 32 d8 bb d9 f6 48 bd 13 0f 87 3d
       -0.031706918 -0.0065977713 -0.049063537 0.06594672
000240 c7 c7 ce 3d 23 ee ae bc 7e 32 aa bd 6a fe 76 bd
       0.10096698 -0.021353787 -0.08310412 -0.060301222
000250 cb c7 b9 3d 4d 9a ba bd 80 ed c0 bd 69 4c b3 bd
       0.090713106 -0.09111462 -0.094202995 -0.087548085
000260 b4 ef ee bd 7c 3d a1 3d de 32 84 3c 76 29 b6 3c
       -0.116668135 0.07873055 0.016137537 0.022236567
000270 97 ab 0c 3e 1b cf 9a bd b2 4e 17 be 73 bf d2 3b
       0.13737331 -0.075590335 -0.14776114 0.006431514
000280 c9 7b dd 3d 2c c9 fe 3d 65 5c 5a 3d c0 05 de 3d
       0.10814626 0.12440714 0.05331077 0.108409405
000290 8f db 4b 3d bf 55 c6 bc ec 8c 6d 3d a0 3a e0 bd
       0.049769934 -0.024210809 0.05799572 -0.10948682
0002a0 c9 ca 9b 3d 09 a0 95 3d 3e e1 0b 3e 91 1a c6 3d
       0.076070376 0.07305915 0.13660142 0.09673036
0002b0 60 e2 a6 3b ee ac 34 bc a9 7c ce 3d c6 ec d7 3d
       0.005092904 -0.011027558 0.10082371 0.10543208
0002c0 b1 9c be 3d bf eb a9 3d a1 66 1e bc 75 96 41 3b
       0.0930723 0.08296918 -0.009668023 0.0029539142
0002d0 40 3e 43 3d aa f4 22 3b 89 bb 92 bd 21 ec bb bd
       0.047666788 0.002486507 -0.07164676 -0.091758974
0002e0 ac 29 15 be 61 ec b2 bd 8b e3 0c 3d 4c 3c e7 3d
       -0.14566678 -0.08736492 0.03439669 0.112907976
0002f0 e6 29 8f 3d 79 b0 67 3c c4 5c d1 bd de 61 93 bd
       0.06990413 0.014141195 -0.10222772 -0.07196401
000300 31 54 73 3d 56 f5 1b 3e 07 94 d6 3d 6f 69 b2 bc
       0.059406463 0.15230307 0.10477453 -0.02177879
000310 54 4c 06 be dd 1f a3 bd 32 0f 94 bd 65 79 dc bd
       -0.13115054 -0.07965062 -0.07229461 -0.10765342
000320 1e a3 88 3d 2d a9 b6 3d 05 c8 26 3d 97 aa 0f be
       0.06671737 0.089189865 0.040718097 -0.14029919
000330 bb 3f 1b 3e fb b9 bb bc 18 ee 00 be 6b 35 f7 bd
       0.1516103 -0.02291583 -0.12590826 -0.120707355
000340 05 a9 ed bd 35 e6 49 bd c2 43 23 be 6f e8 cd 3d
       -0.116045035 -0.04929181 -0.15943816 0.10054099
000350 b5 c5 7b 3d 9c b6 e6 bc ef d4 7c bc 40 25 d9 bd
       0.061467845 -0.028163247 -0.015431627 -0.10602808
000360 bc de c2 bc a0 c7 be bd 18 76 5e bd 39 04 b9 3d
       -0.023787849 -0.09315419 -0.05431184 0.090340085
000370 bb cf e1 3c f3 e9 cc bc e5 e9 ff 3d 33 74 ce 3d
       0.027564874 -0.0250139 0.12495784 0.10080757
000380 18 42 9a 3d ff aa e7 bd bf 9c 59 3d 16 e0 15 3e
       0.07532138 -0.11311912 0.053128 0.14636263
000390 22 60 91 3d ce 53 b8 bd ca 61 69 3d 38 02 9e 3b
       0.07098414 -0.090003595 0.056978025 0.004822042
0003a0 7c 03 40 3c 98 5e 15 be ce 13 1d 3e b3 3b b4 bc
       0.011719581 -0.14586866 0.15339586 -0.022001123
0003b0 c3 bb a8 bd 3b d4 b7 bd fa 2a f1 3d 37 36 71 bd
       -0.08238938 -0.089760266 0.11775775 -0.058889594
0003c0 5e 4c 1b bc 67 d6 5d bd c0 d3 d4 3b fe d2 ab 3d
       -0.009478657 -0.054159548 0.006494969 0.08389853
0003d0 5e f1 c7 bc 7e b5 fd bc b2 a9 cb 3d 27 c8 93 bd
       -0.024407085 -0.030970331 0.09944476 -0.072159104
0003e0 be a8 35 bd bc 18 cc bd 73 f9 12 be c5 fc 29 bc
       -0.04435038 -0.09965655 -0.1435297 -0.010375206
0003f0 63 9c 9e bd 11 75 bb 3d 02 6a 87 bd 71 b7 0c bd
       -0.07744672 0.09153188 -0.06612016 -0.03435463

lstm.bias_ih_l0 f4 [200]
000000 0c 15 be bd 83 f1 07 3e 09 38 39 bd 99 f0 04 3e
       -0.09281358 0.13275723 -0.045219455 0.12982406
000010 78 93 c1 bd 2f e9 85 bc 5f c0 79 3c e2 70 be bd
       -0.094519556 -0.016346542 0.015243619 -0.092988744
000020 83 4d d7 bd d1 77 a7 3c 12 62 f1 bd 99 b4 08 3e
       -0.10512831 0.020442875 -0.117862836 0.13350143
000030 2a d3 13 3e 2e 6d 88 3d a8 04 0e be 72 04 f9 3d
       0.14436021 0.066614494 -0.13868964 0.12159051
000040 e3 9d 02 be 64 e1 bf 3d 72 fc ab bd a9 63 87 3d
       -0.12755542 0.09369162 -0.083977595 0.066108055
000050 79 8d 94 bc bd f6 04 3e 06 9d 81 3d db 9c 21 3c
       -0.018133866 0.12984748 0.06328778 0.009864057
000060 07 ed 9a 3d 7c 17 e5 bd 4f f0 f6 3b aa 40 c6 3c
       0.07564741 -0.1118612 0.0075359712 0.024200756
000070 f3 9f 86 3e 41 53 3a 3e 7e 8d a0 3d e1 8c a8 3d
       0.26293907 0.18195821 0.078394875 0.082299955
000080 ef a3 88 3d 18 dc ee bb 7a f9 2f 3e 16 91 01 be
       0.06671893 -0.007289421 0.17185012 -0.12653002
000090 27 0c d0 3d 29 3f bf bd b9 da 77 3e 30 ce 9e 3d
       0.10158568 -0.09338219 0.2420453 0.07754171
0000a0 19 b1 cb 3d 14 58 08 be 95 42 43 3d d0 1d 88 bd
       0.09945888 -0.13314849 0.04767092 -0.06646311
0000b0 e1 fc 0c 3e bc c3 20 bd 20 1a c2 bd a5 9c fa bd
       0.1376834 -0.039249167 -0.09477639 -0.12236909
0000c0 e5 2b 48 3d 2b 22 ba 3d b1 a3 84 bc 74 15 07 be
       0.048869986 0.09088548 -0.016191335 -0.13191777
0000d0 ad 10 b6 3c 51 67 d5 3d 1f ec 54 bc 33 28 b3 bd
       0.022224749 0.10420097 -0.012995749 -0.08747902
0000e0 be 2e 44 bd e0 51 ad bd 07 5d 5f 3d 02 77 7b bd
       -0.04789614 -0.08462882 0.054532077 -0.06139279
0000f0 0a 88 8a bc 92 05 f4 3d 2b 62 d8 3d 53 69 9f bd
       -0.016910572 0.11915125 0.10565599 -0.07783761
000100 c5 5f fe bd 8d 0e 98 3d 67 87 18 bd 1d 89 13 3e
       -0.1242061 0.0742465 -0.037238505 0.14407773
000110 d8 36 d4 bd e6 de de bb 1d 49 06 be 5d 88 13 3e
       -0.10362023 -0.006801474 -0.13113828 0.14407487
000120 20 21 ff 3d 90 c0 3b 3d f9 83 1c be 10 da 75 3d
       0.1245749 0.04583794 -0.15284719 0.060022414
000130 ee 3d 26 bc be d5 43 bd 71 8f 3a 3d b0 75 19 be
       -0.010146601 -0.047811262 0.045546953 -0.149863
000140 63 32 63 bd 05 51 1a bd 19 91 c3 bd 6b 89 50 bd
       -0.055467974 -0.037674922 -0.095491596 -0.050912302
000150 3a b1 12 3d a8 b1 34 bd f3 65 e8 3d 24 ec 2b bd
       0.035813548 -0.04411474 0.1134757 -0.041973248
000160 d6 c1 92 bd c1 e7 09 be 4f 15 6f bd 1a 0a f6 bd
       -0.071658775 -0.13467313 -0.05836993 -0.120136455
000170 20 d8 19 bd 71 97 d7 3d 05 45 48 3d bf e8 50 bd
       -0.03755963 0.10526932 0.048893947 -0.051003214
000180 68 3f ce 3c 36 12 b9 3d 7b b5 c6 bd 6c 6b a6 bd
       0.025176719 0.090366766 -0.097025834 -0.08125958
000190 e2 d6 f9 bd 63 70 32 3d e1 cb d5 bd 3a c3 31 bd
       -0.12199189 0.04356421 -0.104392774 -0.043399073
0001a0 48 5d bd bd ce 80 f1 3d 9f 03 ea 3d ba 4f 9d 3d
       -0.092463076 0.11792146 0.11426472 0.07681222
0001b0 f9 52 34 bd 2c 47 e7 bc 47 08 73 3d de b0 d6 3d
       -0.04402444 -0.02823218 0.059334066 0.104829535
0001c0 a0 15 b3 bd 24 8d f7 3d 42 b7 e4 bd 77 51 4b 3d
       -0.08744359 0.12087467 -0.11167766 0.049638238
0001d0 ff 15 14 be a9 cf ce 3d 59 d3 80 3d 05 d7 f9 3c
       -0.14461516 0.10098202 0.06290311 0.030498037
0001e0 fd f7 68 3b 44 7a 69 3d 7c 9e 62 3d 31 85 76 3b
       0.0035548203 0.057001367 0.055326924 0.003761601
0001f0 de 6a 00 3e 2e 60 18 bd af e5 d8 bd f7 a4 41 3d
       0.12540767 -0.0372011 -0.10590684 0.047276463
000200 46 c4 22 3d d6 60 89 ba 67 69 d6 3c 83 b9 25 3d
       0.039737962 -0.001048113 0.026173307 0.04046012
000210 44 83 01 be cc b2 04 3e ee f2 08 be a8 42 07 3d
       -0.1264773 0.1295883 -0.1337392 0.033022553
000220 8f a0 fd 3d 0d 61 84 3d 8f 66 b2 3d 37 45 ed 3d
       0.1238414 0.064638235 0.08710968 0.11585467
000230 7c 3c fe bd 72 70 ec bd 3c 4a 0a 3e 69 95 86 3d
       -0.1241388 -0.11544885 0.1350488 0.065714665
000240 c6 7d 10 3d 44 b2 1f bc ce 80 a7 3d b1 78 bd bc
       0.035276197 -0.009747092 0.081788644 -0.02312884
000250 23 bf 53 bd a8 3e 82 bc 1b 97 44 bd 6c c8 51 bd
       -0.051695954 -0.015899017 -0.047995668 -0.051216528
000260 62 22 ae 3d df b6 03 3e 3f 63 f0 bd 4e 13 34 3c
       0.08502652 0.12862729 -0.1173768 0.010990931
000270 b6 2f 11 bd 1c a9 60 bd 79 4c c8 3d 8b 17 0f 3e
       -0.03544589 -0.054848775 0.09780211 0.13973825
000280 35 f6 91 bd 82 2d 15 3d ca 2c 84 bd 78 b6 35 bd
       -0.071270384 0.036420353 -0.06453855 -0.04436347
000290 dc aa ee bd d8 a6 47 bd 00 13 25 bd 45 1e 52 3d
       -0.116536826 -0.0487431 -0.040301323 0.0512984
0002a0 74 e7 1f bd 83 43 aa 3d d8 5d be bb ef 4a 9a bc
       -0.03903909 0.08313658 -0.005809527 -0.01883456
0002b0 53 15 cc 3c 9b ec 03 3e 7d d9 d8 3d 71 b5 f3 3b
       0.024912512 0.12883227 0.105883576 0.007437401
0002c0 c6 47 ea 3d d3 86 f2 bd 41 e8 80 3d cb 7f 94 3e
       0.11439471 -0.11842122 0.06294299 0.29003748
0002d0 96 88 e9 3d dd 25 23 bd 62 e7 5a 3d ce 01 60 bd
       0.11403005 -0.03983103 0.05344332 -0.05468922
0002e0 bf ea 07 bc 57 d4 81 bd 6b 3f 7f 3d ae 14 f1 bd
       -0.008295714 -0.06339329 0.06231634 -0.117715225
0002f0 8b 64 17 3e 4f 77 c2 bd b7 06 7e 3d b3 00 67 bc
       0.14784448 -0.094954126 0.062018123 -0.014099288
000300 b0 9a 53 bd 87 5c d4 bd 5b 3d ba bd 45 c0 0e bd
       -0.051661193 -0.10369211 -0.09093734 -0.03485133
000310 93 04 67 bd 06 d1 ca 3d 69 f8 b8 3c e9 d9 be bd
       -0.056400847 0.09903149 0.022579389 -0.09318907

lstm.bias_hh_l0 f4 [200]
000000 6c 4e c3 3d 5b 1e 03 3e 46 c6 0a 3e 43 ae 5c 3d
       0.09536442 0.12804548 0.13552198 0.053877126
000010 67 e3 da bd 25 8d f4 bd 73 6b 29 bd 6e c9 e7 bd
       -0.10687905 -0.11940984 -0.041362237 -0.113177165
000020 fb a1 a5 3c 29 69 ee bd c4 72 8b bc 90 4a 6c bc
       0.02021884 -0.116411515 -0.017022498 -0.014422074
000030 18 7e a4 3d 4c d9 a3 bd 4c ce 70 bd d8 1d 1a bd
       0.08031863 -0.080004305 -0.05879049 -0.037626117
000040 64 6c 66 bd 62 c7 bd 3d 76 f2 80 3d 80 1d 41 bd
       -0.056255713 0.09266545 0.06296246 -0.047147274
000050 7f d0 37 bb 8b 2f c4 3d bf 2e 73 bc da 28 1c 3e
       -0.0028047857 0.095793806 -0.014842688 0.15249959
000060 47 96 c5 3d af 19 b8 bd c7 53 27 bd e2 9b 3b 3d
       0.09647804 -0.08989274 -0.04085138 0.04580296
000070 52 b6 bf 3c 01 13 26 3e 41 ca 3a bd 6c 4a 8f bd
       0.023402367 0.16218187 -0.04560304 -0.06996617
000080 56 6d 0e 3e eb 65 16 3d 46 a0 57 3d 2a 3a 3b 3d
       0.13908896 0.03671829 0.052643083 0.045709766
000090 e5 90 ad 3c 68 0e 8c 3d 59 46 27 3e 02 c5 6d 3d
       0.021187255 0.06838685 0.16335429 0.05804921
0000a0 9d 59 8b 3d 4b 1d 2d 3c aa 98 8b 3d b2 5c 38 bd
       0.06804202 0.010566066 0.06816228 -0.045010276
0000b0 6f 0a 9a bd 83 a8 58 bd e2 8b d4 bd 94 bb 87 bd
       -0.07521521 -0.05289508 -0.10378243 -0.066275746
0000c0 9b 9b ff bd 60 4b 04 3e b4 e3 c0 3d 40 ba ed 3d
       -0.12480851 0.12919378 0.09418431 0.1160779
0000d0 51 9a 81 3d 19 96 0d 3e 99 29 c7 bd c0 a2 3a bd
       0.06328262 0.13826789 -0.09724731 -0.045565367
0000e0 d9 bc de 3c b6 21 ce 3d 30 18 c6 3d 09 e0 a7 bd
       0.027189659 0.100650236 0.09672582 -0.08197028
0000f0 ca 0e 99 3d 1a c1 e5 3c d5 05 ef bd 9b ae 15 3d
       0.07473524 0.02804618 -0.11671034 0.03654347
000100 91 d3 86 3d 1b ea eb 3d 71 19 b2 bc 79 54 d0 bd
       0.06583322 0.115192614 -0.021740647 -0.10172362
000110 93 5d 6e 3d 94 49 16 3c 31 cd 00 3e 20 0b f8 bc
       0.058194708 0.009172816 0.12578274 -0.030278742
000120 f8 da 3c 3d ca 2a 53 bd 3e 39 20 be d2 84 9c bd
       0.046107262 -0.05155448 -0.15646836 -0.07642521
000130 55 32 df bd e1 43 de 3c ed 00 78 3d 5e d1 1b be
       -0.10898272 0.027131977 0.060547758 -0.15216586
000140 5e ba f3 3c 9d 10 b5 bd 56 b8 0a 3e 17 50 18 3e
       0.029751953 -0.08841059 0.13546881 0.14874302
000150 b5 5a 37 3c 03 64 a4 3d 65 4a fd 3d 07 2c 94 bd
       0.01119106 0.08026888 0.12367705 -0.0723496
000160 53 a7 4f bd a9 93 a6 bd 25 60 dc 3d c1 ed 86 bd
       -0.050696682 -0.08133633 0.107605256 -0.06588317
000170 bf 61 b1 bc 5d ae d1 bd 85 15 4b 3d bc 2e dc bd
       -0.021653054 -0.10238335 0.04958107 -0.107511014
000180 de a8 09 be 2b 29 02 3e 64 39 36 bd cc 4a 09 3e
       -0.13443324 0.12711017 -0.044488326 0.13407439
000190 3e 44 0f be 57 6d ec 3d bc 36 04 bd a5 df 09 3e
       -0.13990876 0.115442924 -0.03227876 0.1346422
0001a0 18 9f 34 bd f6 e8 f8 bd 60 13 64 bb 72 9b 97 3d
       -0.044097036 -0.12153809 -0.0034801587 0.07402696
0001b0 7d 31 38 bd 92 ce 11 be df 73 fa 3d d2 40 c0 bd
       -0.04496907 -0.14238957 0.12229132 -0.093873635
0001c0 db c1 07 bd b4 6f 03 3d dd 8a 58 bd 70 fc 8f 3d
       -0.03314386 0.03208895 -0.052866805 0.070305705
0001d0 9b f6 94 3d eb 78 e7 bd 95 44 52 3d c6 bc 1d 3e
       0.07273599 -0.1130236 0.051334936 0.15404043
0001e0 47 78 df 3d 18 34 6d 3d 2e a0 09 be b9 bb 0f be
       0.10911613 0.05791101 -0.1344001 -0.14036454
0001f0 db a5 5a 3d 02 50 09 bd 99 22 92 bd 9c 4d 85 bd
       0.05338083 -0.033523567 -0.07135505 -0.065089434
000200 7a 9e e8 bc e9 91 0e bd 6e 40 57 3c e3 72 8a 3d
       -0.02839588 -0.03480712 0.01313792 0.06760194
000210 31 50 a1 3c 29 a2 16 3d 86 1e 0d 3e 22 ac 4e bc
       0.019691559 0.03677574 0.13781175 -0.012614282
000220 ed 25 eb bc fe af 90 3c fd 5f ac 3d f4 d4 ac ba
       -0.028704608 0.017662045 0.08416746 -0.0013186024
000230 d2 72 ad 3d b4 89 b1 3d 60 a3 ea 3d d1 5b 60 3d
       0.08469166 0.08668843 0.114569426 0.054775063
000240 35 2d 09 bc 4f 57 e3 bd 69 4b 0c 3e d2 f8 70 3d
       -0.008372595 -0.11100637 0.13700642 0.058831044
000250 38 26 e9 3d 5c 27 20 3d 7d 80 d6 bd d8 ed a9 3d
       0.11384243 0.039100036 -0.10473726 0.08297318
000260 2b 1a 8a 3d a8 18 d3 bd af 16 09 be 5f 9a 44 bd
       0.067432724 -0.10307437 -0.1338756 -0.047998782
000270 9d fb 8b bd 75 67 80 3d 47 fc 96 3d e4 fb b0 3c
       -0.06835101 0.06269733 0.07372337 0.021604486
000280 29 fe d9 3d f8 3a 21 bc 32 5d 23 3b 4e 0b 8a bd
       0.1064418 -0.009840719 0.0024927375 -0.067404374
000290 de 00 45 3d 76 7f b3 3d d9 25 b9 bd 4a 61 ab 3d
       0.04809653 0.087645456 -0.09040422 0.08368166
0002a0 a4 d2 12 3d c7 4a d2 bd 5b 60 33 3e ac d8 19 3d
       0.035845414 -0.10268169 0.17517225 0.03756015
0002b0 56 4d 95 bc dd 33 1c bd 7e 08 71 3e b6 67 eb 3d
       -0.018225353 -0.0381354 0.23538396 0.11494391
0002c0 b6 43 a3 3a 00 3b 4a 3d 4d c1 09 3e 40 97 a3 3d
       0.0012456093 0.049372673 0.13452645 0.07987833
0002d0 94 e2 e2 3d 6f 14 f7 bd d2 3e 84 bd 06 f5 28 3d
       0.110783726 -0.12064444 -0.064572945 0.041249298
0002e0 fb 5c 14 3d d3 94 f7 3b f7 60 45 3d 54 7e fc 3d
       0.036221486 0.007555583 0.048188176 0.12328783
0002f0 54 54 23 bd 52 97 31 bd 7a 0e f1 3d ee cd 0c be
       -0.039875343 -0.0433572 0.11770339 -0.13750431
000300 fc fc df 3d d1 c9 96 3d 5a 60 e9 bc 34 da 16 bc
       0.10936925 0.07362712 -0.028488327 -0.009207297
000310 59 4d 73 3d 30 5e 55 3d 20 e5 1c 3d 33 56 64 3d
       0.059399936 0.052091777 0.038304448 0.05574627

lstm.weight_ih_l1 f4 [200, 50]
000000 ae 2b 1e bd 00 b0 11 3e e7 cd c4 3c 10 18 8a 3d
       -0.038615875 0.14227295 0.024023963 0.06742871
000010 aa fe b2 3c a3 ef c4 3b f7 21 de 3d e6 c9 1e 3e
       0.021849949 0.0060100122 0.10846322 0.15506706
000020 5c d0 ac bd ee d6 4c 3d 91 48 1f 3e e3 81 3c 3d
       -0.08438179 0.05000966 0.15555026 0.046022307
000030 68 4c d7 bc 3f 58 aa 3c fd 10 a5 bd 9f bb 6d 3c
       -0.02628155 0.020794032 -0.08059881 0.014510064
000040 c7 dc 8e bd ee 69 84 bc 30 95 0d 3e 89 73 7f 3d
       -0.06975704 -0.016163792 0.13826442 0.062366042
000050 9f 12 3c be 40 03 85 bc 9e 26 12 3d 70 d0 43 bc
       -0.18366478 -0.016236901 0.03568136 -0.011951551
000060 a9 37 61 be 8e ea 0a 3e c7 b8 bd bd 39 11 4f be
       -0.21993889 0.13566038 -0.09263759 -0.20221414
000070 4b b0 cc bd 8b b6 75 bc a9 cb 14 be 0c e2 04 be
       -0.09994563 -0.014997135 -0.14530815 -0.12976855
000080 e8 c5 6a bd d1 6a 6c 3c 83 ea 29 bd a9 ca 2a be
       -0.057317644 0.014429764 -0.041483413 -0.16678871
000090 fc 91 9c bd 54 1c 5f 3d 65 87 e7 bd 53 a9 14 3d
       -0.07645032 0.054470375 -0.11305121 0.036294293
0000a0 29 76 ee 3d 34 8b 5c 3d 31 35 84 3d b5 0b cb 3d
       0.11643631 0.053843692 0.06455458 0.09914342
0000b0 0c b7 49 be 69 52 57 3d c2 a4 b8 bd 3d a3 92 3d
       -0.19698733 0.052568827 -0.090158 0.071600415
0000c0 47 e3 78 bd 82 89 40 bd e5 3c 2d 3d fc 8e 1b 3e
       -0.060763624 -0.047006138 0.0422944 0.15191263
0000d0 68 1d c3 bd 38 8b f5 3d 51 b9 42 bd 98 25 0a bd
       -0.09527093 0.119894445 -0.047540013 -0.03372726
0000e0 89 10 0f bc 65 07 a3 bd a2 f0 d5 3c ea 5b 8e bd
       -0.00873197 -0.07960395 0.02611572 -0.06951125
0000f0 2c 2d ad 39 ab f2 1c 3c bb 0a 51 bc 96 fb de 3d
       0.00033030787 0.009579341 -0.012758906 0.1088783
000100 19 e7 aa bd 97 c1 e2 3d c7 35 0b bd 92 d4 b8 bd
       -0.0834486 0.110720806 -0.033986833 -0.090249196
000110 b5 cd c6 3d 15 d7 1d be 44 55 b7 3d e3 cd fc 3d
       0.09707204 -0.15414079 0.0895181 0.12343957
000120 0e 29 bc bd c4 f4 a8 3d e5 7b 95 3c 70 20 c7 bd
       -0.09187518 0.0824981 0.018247554 -0.09722984
000130 0c cc 71 3d f8 41 25 be 9c c9 4b bd 8c 20 83 bd
       0.059032485 -0.16138446 -0.049752817 -0.06402692
000140 09 6d 0e be b6 9c fb bd 49 2d 0f 3c 51 7b b6 bd
       -0.13908781 -0.122857496 0.008738824 -0.089102395
000150 31 bc b8 3c 2d 0c a9 3d da e1 a0 3d 2a 1e 85 3d
       0.022550674 0.082542755 0.07855578 0.06499894
000160 8f 2c 7f bb d3 9e 9b bd ba 9a 10 3c 18 d1 aa bd
       -0.003893647 -0.07598653 0.008825952 -0.08340663
000170 aa bf 1c 3e f0 4e ac bd 89 48 b7 3d 15 b9 05 3e
       0.15307489 -0.08413494 0.08949382 0.13058884
000180 90 f7 2f 3d ef 5e 06 3e 87 21 0a 3e c8 3b 87 bd
       0.042960703 0.13122152 0.13489352 -0.06603199
000190 0d cc 9d bd 46 a1 2a 3d df 1e 4e bd 6b f4 a6 bd
       -0.07704935 0.04165771 -0.05032241 -0.08152088
0001a0 93 68 1a 3d ef 77 99 3c f6 eb e0 3c 2f 66 6d 3d
       0.037697386 0.018733947 0.027456265 0.057958778
0001b0 61 29 1c bd 1a ac 02 bd b1 2b 61 bd 91 de d0 bd
       -0.0381254 -0.03190241 -0.054973308 -0.10198701
0001c0 7b f9 26 3e 58 dd ef 3d b9 e4 cd 3d 80 19 26 3d
       0.16306107 0.1171214 0.10053391 0.040551662
0001d0 f1 13 cf bd 2b 07 b9 3d aa b1 63 bc 68 b3 7d 3d
       -0.101112254 0.0903457 -0.013897339 0.061938673
0001e0 a9 68 de bd 5e d2 c5 bd ae a8 7a bd 48 07 13 3d
       -0.10859806 -0.09659265 -0.06119602 0.035895616
0001f0 f7 9d d9 bd d5 c9 40 3d 48 2c 16 3e 91 d9 cb 3a
       -0.106258325 0.047067482 0.1466533 0.0015552511
000200 f2 0c 95 3d 7f 80 dc bc 50 90 fd 3c 45 87 d7 bd
       0.0727786 -0.02691674 0.030952603 -0.105238475
000210 1e 2d 5e 3d 90 a6 20 be 2b a7 43 bc c7 77 5c bd
       0.054242246 -0.15688539 -0.011941711 -0.053825166
000220 24 a5 e7 bd b7 9a c6 3d eb 22 07 3e 15 df b8 bc
       -0.11310795 0.09697478 0.13196914 -0.022567311
000230 0c 95 fa bd 75 76 fe bd e2 e6 2e bd 99 da 7a bd
       -0.1223546 -0.12424938 -0.042700656 -0.061243627
000240 28 fa 0d 3e 7a 71 ab 3d e9 db 27 3d a2 38 e6 3d
       0.13864958 0.08371253 0.040981207 0.112412706
000250 88 9b b2 3d cc 33 95 bd 88 cc f5 bd c6 68 03 bd
       0.087210715 -0.0728527 -0.12001902 -0.03208234
000260 bf 90 cd bb ea 9d fc 3d 4b a1 10 3e 4c 85 02 be
       -0.0062733586 0.12334807 0.14124028 -0.12746161
000270 75 c9 71 bd 5a 1f 01 3e 35 e7 80 3d 2d b7 ea 3d
       -0.059030015 0.12609616 0.06294099 0.11460719
000280 b0 1d 13 bd 2e bb 80 3d 0e ac 83 bd 7f 23 05 3e
       -0.035916984 0.06285702 -0.06429301 0.13001822
000290 8d 80 df bb 3e 5f 2d bc a6 e2 e5 bd 38 d5 18 3e
       -0.0068207444 -0.01058179 -0.112248704 0.14925086
0002a0 b3 81 51 3d 89 45 8a bc 34 98 08 be b7 59 e5 3c
       0.05114908 -0.01687886 -0.13339311 0.027996881
0002b0 89 b3 9c bd 1a cf ed bb b0 6e 85 3b d5 e2 01 3e
       -0.07651431 -0.0072573544 0.004072033 0.12684186
0002c0 eb 76 f2 3d 96 d5 a6 3d e0 1b 21 be c8 56 ea 3d
       0.11839088 0.08146207 -0.1573329 0.114423335
0002d0 83 80 25 bb 37 0d 04 be a1 6e 3f 3d 08 8b fc 3d
       -0.00252536 -0.12895666 0.046736363 0.123312056
0002e0 7f 4e ad 3d 25 86 98 bd 3a 8f ca 3d 56 bb 02 be
       0.084622376 -0.07447461 0.098905995 -0.12766775
0002f0 8a d1 0d be 05 a3 9b bc 06 d8 d6 3d bd f8 94 3d
       -0.13849464 -0.018998632 0.10490422 0.072740056
000300 f6 e9 87 3d b8 8e 48 bd 29 11 84 bd 81 09 de 3d
       0.066364214 -0.048964232 -0.064485855 0.108416565
000310 2f b6 18 bd 8e c9 26 3d 77 9e 05 be d2 5e 04 bd
       -0.03728312 0.04071956 -0.13048731 -0.03231699
000320 18 39 65 3c a3 ea 8a 3b d5 15 39 bd d8 80 eb bc
       0.013990663 0.0042393967 -0.045186836 -0.02874796
000330 16 f3 cc bd 9b f2 ac bd 82 5d 35 bd 26 0a ed bd
       -0.100073025 -0.08444711 -0.04427863 -0.11574201
000340 e8 3f 35 bd e4 91 75 3d 36 ed df bd ec 4f 8f 3d
       -0.0442504 0.059953585 -0.10933916 0.06997666
000350 07 0b bb 3c 6c 02 77 3b fa c9 75 bd f0 44 00 3d
       0.022832407 0.0037690653 -0.060007073 0.031315744
000360 72 93 27 be ec f9 fc 3d 95 1e 85 3d 74 29 1d bc
       -0.1636484 0.12352356 0.06499974 -0.009592403
000370 9e e2 5e bd 12 81 0c 3e 28 d8 c6 3d 47 ea 5d 3c
       -0.054415338 0.13721111 0.09709197 0.013544626
000380 f1 74 8e 3d 29 73 8f 3d 51 57 18 be 4a f0 7b bd
       0.069558986 0.07004387 -0.14877059 -0.061508454
000390 76 00 9c 3d 09 6e 09 3c e1 c1 a1 3d 0f b8 55 bd
       0.076172754 0.008388051 0.078983076 -0.052177485
0003a0 fc ba 1c 3d e0 5c a6 3c 3e f1 1c be 0a 6e c6 bd
       0.03826426 0.020307958 -0.15326402 -0.09688957
0003b0 9e c8 8a 3d d7 71 70 3d cf 48 ce 3d 9d 87 83 bd
       0.06776546 0.058702316 0.10072481 -0.064223506
0003c0 ff 0c 11 bc ac 0c b8 bd d1 a7 0d 3d c0 17 96 bd
       -0.008853196 -0.08986792 0.03458387 -0.07328749
0003d0 9d fb 70 3d b7 71 bf bb a1 fa 1f 3e 19 e4 0e bb
       0.058833707 -0.0058424133 0.15622951 -0.0021803437
0003e0 30 ed c7 bd 0e 4d 44 bc b0 18 4d 3d 4e 66 58 3c
       -0.09762037 -0.011981262 0.050072372 0.013207985
0003f0 d0 4d ea bd f7 66 4c 3d 35 0b fe 3c 5b e1 03 bc
       -0.11440623 0.049902882 0.031011203 -0.008049334

lstm.weight_hh_l1 f4 [200, 50]
000000 17 57 9c bd af c7 86 3d ea ba e1 bd 6f 28 ee bd
       -0.076337986 0.065810554 -0.11021979 -0.11628806
000010 d5 18 ef 3d 90 6d 3f bd 6d 49 e2 bd cd 47 07 3e
       0.11674658 -0.046735346 -0.11049161 0.13210984
000020 51 28 d6 bc 6b a4 ae 3d 6d 3b dd bc a2 6e 06 3c
       -0.026142271 0.08527454 -0.027005875 0.008205088
000030 ef 1c 48 3d e1 d3 0a be 75 e1 02 3d 29 1b ce 3d
       0.04885572 -0.13557388 0.031953294 0.10063774
000040 be 1d b9 3d 92 0d 57 bd b0 d8 db 3d e1 29 d6 bd
       0.09038876 -0.052503176 0.10734689 -0.104572065
000050 da 0b 4d bd b2 86 1d 3d 12 04 b1 bd 08 26 6c 3c
       -0.05006013 0.038458534 -0.086433545 0.014413364
000060 5d d2 2e bd 74 6c fd 3d 1b c9 12 3d fc e1 13 3d
       -0.042681087 0.123742014 0.03583632 0.036104187
000070 c8 89 7d bd 9c 07 dd bc 48 f1 96 bc 71 15 db bb
       -0.061898977 -0.026981167 -0.018425599 -0.0066859056
000080 3e b5 68 bc ed 85 72 3c f4 62 5c 3d 32 19 04 3d
       -0.014203368 0.014802438 0.053805307 0.03225059
000090 69 58 b7 bd 00 a4 24 3d 26 6f 01 3d 85 d9 64 3c
       -0.0895241 0.040195465 0.03160014 0.013967876
0000a0 3e 4f d4 bd 1c 05 b1 bd 1a 69 16 3e 2e 36 96 bd
       -0.10366677 -0.08643553 0.1468853 -0.07334553
0000b0 44 b8 d3 bb 17 6c 71 3d 6f bf eb 3c 17 9d b1 3d
       -0.006461175 0.058940973 0.028777806 0.08672541
0000c0 15 44 d8 3d 4c ac 30 bd 37 84 89 3c b4 90 cb 3d
       0.105598606 -0.043133065 0.016786678 0.09939709
0000d0 c5 49 b1 3d 17 80 eb 3c a8 4a 0e bd d3 a4 5b 3d
       0.086566485 0.028747601 -0.034739166 0.053623985
0000e0 87 3d 06 3e 1b 5b 8b bb b6 70 69 3c d3 a9 cf 3d
       0.13109408 -0.004252804 0.014248064 0.10139813
0000f0 c5 a3 de 3d b6 fe 11 3e f1 65 f1 bd cc 30 f8 3c
       0.1087108 0.14257321 -0.11787022 0.030296706
000100 58 78 31 ba a0 04 05 3e 15 5e e0 3d 60 a9 58 3d
       -0.0006769947 0.12990046 0.10955445 0.052895904
000110 da 41 dc 3d 36 e9 04 be 00 a4 8e bd 31 ec 1b 3d
       0.10754748 -0.12979588 -0.06964874 0.038067047
000120 3b cf d9 bd 2e 6f 70 bc 49 17 fe bc 95 51 15 bc
       -0.10635229 -0.014674945 -0.031016963 -0.009113689
000130 a0 79 f2 3d f9 c8 b6 3d 04 99 0c bc ce 15 62 3d
       0.118396044 0.08925051 -0.008581404 0.055196576
000140 48 b7 16 3d d3 c4 f4 bd 36 95 b8 3b 5d c2 c8 3d
       0.036795884 -0.11951604 0.0056330217 0.09802697
000150 ee cb 94 3d f2 9a dc bd 12 01 14 bd 7c 01 2d bd
       0.07265459 -0.10771741 -0.036133833 -0.042237744
000160 96 36 a3 3d 48 ce 19 3e bf c7 0e 3e 80 9b 82 3d
       0.07969396 0.15020096 0.13943385 0.063773155
000170 a2 81 eb 3c 36 8a 8b 3d e4 21 13 bc ce ad 5c 3b
       0.028748337 0.06813471 -0.008980248 0.0033672932
000180 cc 25 0b 3e 73 cd 06 bd 26 9d fb bd c3 f4 4a bd
       0.13588637 -0.032910775 -0.12285833 -0.04954983
000190 88 57 e8 3d e9 9f 23 3e 5c 7b 99 3c fc 0b a3 bd
       0.1134482 0.1597897 0.01873558 -0.0796127
0001a0 56 8f 0d be 20 e8 d6 bd 04 62 3e bd f6 98 a1 bd
       -0.1382421 -0.10493493 -0.046480194 -0.07890503
0001b0 10 44 6c bd b8 35 1e 3d 8d 25 fe bd f6 74 d5 bd
       -0.057682097 0.03862545 -0.12409506 -0.10422699
0001c0 f5 0a 00 3e 7c e7 b3 bd d4 94 aa 3d af 9d 19 3c
       0.1250418 -0.087843865 0.08329168 0.009375974
0001d0 8f 7d a4 bb 00 e3 4e bd 77 65 64 3d 29 74 59 3c
       -0.0050198506 -0.050509453 0.055760827 0.013272324
0001e0 5d 2d b4 3d 7d 99 bc bc 05 80 f3 3d 27 b2 af bd
       0.08797715 -0.023022408 0.11889652 -0.08578902
0001f0 15 c0 75 3d 51 8c d5 3d e7 c0 da 3d 9a 04 a4 3c
       0.059997637 0.10427154 0.106813245 0.020021725
000200 d9 c7 bc bd 42 96 91 3c ba 35 ef bb 1d 3d 8b bd
       -0.092178054 0.017771844 -0.007300106 -0.06798766
000210 59 b8 9c 3a 8f 42 f3 3c 62 b1 3d bd 5e 25 22 3e
       0.0011956795 0.029694824 -0.046311744 0.15834567
000220 34 b1 9c 3d f0 c1 0f bb 7f 18 be ba bf a5 e9 3d
       0.07650986 -0.0021935664 -0.001450315 0.11408567
000230 98 16 a0 bd a0 03 81 3d fc 94 94 bd f8 97 f0 3c
       -0.078168094 0.062995195 -0.07254979 0.02936934
000240 39 9c a2 bd c0 93 22 be 97 57 9c 3b 1d 57 94 bd
       -0.07939953 -0.15876675 0.0047711837 -0.07243178
000250 e0 dd a1 bd 32 e6 0f bd 46 77 d8 3d 93 a1 4e ba
       -0.079036474 -0.03513164 0.105696246 -0.0007882353
000260 cb e6 fc bd b1 12 b3 3d ae 8b 93 3d ae 51 fe 3c
       -0.12348708 0.087437995 0.07204376 0.031044807
000270 b0 2a 08 3d 7a b0 1d 3d ec 7a 85 bd 96 e2 f2 bd
       0.033243835 0.03849838 -0.06517586 -0.11859624
000280 ab dd 8e 3d b2 ac 12 be 36 6b a8 bd 4d 20 c0 bd
       0.069758736 -0.1432369 -0.08223574 -0.09381161
000290 d9 de 0b 3e 11 68 b6 3c 19 f2 c3 bd e0 3d fc bd
       0.13659228 0.02226642 -0.09567661 -0.12316489
0002a0 c8 2a e8 bd 92 6a eb bd 1f e7 28 3c 85 4b 9d bd
       -0.11336285 -0.11494936 0.01030901 -0.0768042
0002b0 79 ec db 3d 52 a0 87 3d fd 49 9a 3c 68 1d 51 3d
       0.10738463 0.066223755 0.018834108 0.051053435
0002c0 6b 71 16 3e 9d b9 f2 bd aa 0b 92 3d 43 28 d5 3d
       0.14691703 -0.11851809 0.07131131 0.1040807
0002d0 98 98 3e 3d a3 54 5b 3d 07 5c ee 3d 6f b6 92 bd
       0.046532243 0.053547513 0.116386466 -0.07163703
0002e0 e2 48 cd 3d b3 d2 1a bc 65 5f bd 3d 09 dd b8 bd
       0.10023667 -0.009449649 0.09246711 -0.09026534
0002f0 78 11 77 3d 31 07 69 3d e6 6e 03 be e6 d3 ed 3d
       0.060319394 0.056891624 -0.12835273 0.11612682
000300 d6 ad f7 bd d8 95 aa 3d b6 cb 14 bd 81 af 84 bd
       -0.120937034 0.08329362 -0.036327086 -0.06478787
000310 c3 7b bf 3d f4 40 c6 bd 0f e7 10 3e 84 03 0d 3e
       0.093497775 -0.096803576 0.14150642 0.13770872
000320 f2 bd d1 3b c3 9c e7 3d 19 56 5a 3d 90 bb 21 bd
       0.006400817 0.11309197 0.053304765 -0.039485514
000330 e7 b7 e6 3d a4 16 e1 3b 82 46 1c 3e 16 83 dd 3d
       0.11265545 0.006869154 0.15261272 0.10816018
000340 d3 ee bd bc f9 f2 68 bd ae ba df 3d e9 8d a5 bd
       -0.02318517 -0.05687234 0.10924278 -0.08083708
000350 56 51 d3 3d 14 69 a5 3d ad 8c d6 bb 3a 7a 68 bc
       0.10318248 0.08076683 -0.0065475316 -0.014189297
000360 f4 04 6d bc 0e a0 27 3c 4c 3d 5e bd 49 80 c9 3d
       -0.014466513 0.010231031 -0.054257676 0.098389216
000370 cc e0 10 bd 1a fc 01 be 06 15 6c 3c dd 13 75 3d
       -0.035370633 -0.12693825 0.014409309 0.059833396
000380 ca 89 f5 bd 49 41 11 be 14 86 fb 3d 5b e2 0f be
       -0.11989172 -0.1418506 0.12281433 -0.14051192
000390 37 18 8c bd 07 6b 8b 3d f5 5e 9a bd ab cb 03 3e
       -0.06840556 0.06807523 -0.07537643 0.12870662
0003a0 b9 ff 49 bc 7a 88 e1 3d 03 93 07 be 4a 8b e8 bd
       -0.012329035 0.11012359 -0.13239674 -0.11354692
0003b0 3d 72 e5 3d 89 f2 a6 3d ff 9b 52 be d4 76 0a bd
       0.1120343 0.08151729 -0.2056732 -0.03380473
0003c0 0d 8a ee 3d 04 ef 86 bc 23 1c f6 3a 87 bd 27 3c
       0.11647425 -0.016471393 0.0018776696 0.010238058
0003d0 83 01 18 3d 53 4b 3a 3d 54 21 db bd 0d f0 d4 bc
       0.037110817 0.04548199 -0.10699716 -0.025993371
0003e0 d7 83 ec 3d ad f1 5f 3d ba 28 ef bd 72 fb 86 3d
       0.11548584 0.05467384 -0.1167769 0.06590928
0003f0 47 ef 59 3d e0 3b 8a 3d 33 7d ca bd e0 88 ac bb
       0.05320671 0.067497015 -0.09887161 -0.00526534

lstm.bias_ih_l1 f4 [200]
000000 23 5a b4 3d bd e9 ab 3d 0b 74 83 3d 01 dc 8c bd
       0.08806255 0.083941914 0.06418618 -0.068779
000010 97 16 03 ba 2d a1 07 be c6 fd a7 3b 47 ac f7 3c
       -0.00050006196 -0.13245077 0.0051266877 0.030233515
000020 76 e4 a3 3d 9f ac 0c bd 85 f3 b0 3d ef c2 eb bd
       0.0800256 -0.03434431 0.08640198 -0.1151179
000030 5a c7 d3 3d 99 fb fa 3d b9 6f 3a bc 8c 92 ca 3d
       0.10340758 0.1225502 -0.011379176 0.09891233
000040 7e 69 03 be 58 4f f7 3d 91 e3 48 bd e5 ef c7 bd
       -0.12833211 0.120756805 -0.04904515 -0.09762553
000050 95 7e a4 3c 9d 05 05 3d 00 4b af bd aa 5f 9c bd
       0.02007989 0.032476056 -0.08559227 -0.07635434
000060 41 b0 d4 3d 1b 5c 78 bc 61 af 0e 3c b6 f8 0d 3e
       0.1038518 -0.015158678 0.008708806 0.13864407
000070 b2 12 43 bd 34 6f 08 3e a4 7c 83 bd 42 44 3c 3d
       -0.04762525 0.1332367 -0.06420258 0.045963533
000080 27 c3 13 3d 28 84 31 bd 6d 2c 1b be 46 81 b9 3d
       0.036074784 -0.043338925 -0.15153666 0.0905786
000090 2f f2 c7 bd 2b 99 50 bd 41 3c 18 3e c7 0e 8a 3d
       -0.0976299 -0.050927322 0.14866735 0.067411
0000a0 82 27 04 3e 34 15 f1 3b f6 01 be bc dd 89 45 3c
       0.12905696 0.007357264 -0.023194294 0.012056795
0000b0 79 f2 07 bd 85 60 16 bd d8 4b a5 3d 99 97 65 bd
       -0.033190224 -0.036713142 0.08071107 -0.056052778
0000c0 bb 11 e8 bb fe 40 1d bd b7 9e 07 bd 43 78 6a bc
       -0.0070821918 -0.03839206 -0.033110347 -0.014310899
0000d0 f1 62 99 bd 28 26 b1 3d d8 e5 57 3d e0 3f c3 3d
       -0.07489575 0.08649856 0.05270943 0.095336676
0000e0 36 63 ad 3d 08 e3 f7 bc e7 91 d0 3d 38 34 b1 3d
       0.084661886 -0.030259624 0.10184079 0.08652538
0000f0 e0 5a a6 bd 89 7d d4 bd db c0 0c be b2 7d 29 be
       -0.08122802 -0.103755064 -0.13745444 -0.16551855
000100 ca 28 e0 bc 30 fe ec 3d 4a ac dd 3d 4b e7 03 bc
       -0.0273632 0.1157192 0.10823877 -0.00805075
000110 25 41 22 3d 38 4f ed bd 0c a8 6a 3d 6f b2 d5 3d
       0.039612908 -0.115873754 0.05728917 0.10434424
000120 bc a1 0c be 9a c5 f9 bd b6 37 a2 bd ad e3 9e 3d
       -0.13733572 -0.12195893 -0.07920782 0.077582695
000130 d6 17 f6 bd 39 f6 c2 3c a6 b7 eb bd 91 38 a1 3c
       -0.12016265 0.023799049 -0.115096375 0.019680293
000140 2e e0 23 3d 65 71 3f bc 97 43 95 3d 42 94 a0 3d
       0.040008716 -0.01168475 0.07288282 0.07840778
000150 29 ac 46 bd 4b 15 41 3d b7 68 6d 3c fb ae 8d 3d
       -0.04850403 0.047139447 0.014490298 0.069181405
000160 2a 74 f2 3d 77 be aa bd 23 3e 18 bc 01 a9 a8 bd
       0.11838563 -0.083371095 -0.009292158 -0.0823536
000170 20 5b 0f 3d 45 a4 bd 3c b6 92 17 3d be 6a 03 3e
       0.034999013 0.023149619 0.03700515 0.12833688
000180 ce c2 03 3d 3d af 81 3d b0 e0 12 3e 22 88 79 3d
       0.032168202 0.06332252 0.14343524 0.060920842
000190 b7 79 7b bd 01 7a 3f 3d 42 c4 d2 bd a1 95 a9 3d
       -0.061395373 0.04674721 -0.102913395 0.082804926
0001a0 65 42 51 3d d0 11 bd bd 3d ce 4f 3d 8f 85 18 3d
       0.05108871 -0.09231913 0.050733794 0.037236746
0001b0 79 22 0d bd cf 0e 80 3d f6 b0 3b bc 93 c1 ac 3d
       -0.034456704 0.062528245 -0.011455765 0.08435359
0001c0 ae 6b a8 bd 0b 84 9e bd ab 4b 4a bd 7b a2 84 bb
       -0.08223663 -0.07740029 -0.04938857 -0.0040476895
0001d0 56 62 3a bd 5e fa 94 bd 16 df 01 be 55 10 d2 bd
       -0.045503937 -0.07274316 -0.12682757 -0.10257021
0001e0 f5 87 49 3d bf 45 d4 3d 76 9d eb 3c ec a3 93 3c
       0.049201924 0.103648655 0.028761607 0.0180225
0001f0 59 a4 92 3d af c0 60 bd 19 b5 02 be 54 2e 3d 3d
       0.07160253 -0.054871257 -0.12764396 0.04618676
000200 93 47 05 bd ac c8 0e 3e e8 8a ac 3d 5d 98 80 3d
       -0.03253896 0.13943738 0.08424932 0.06279061
000210 a5 9e a7 3d 8f 39 5c 3d 41 c6 53 3d 15 cb c3 bb
       0.08184556 0.05376583 0.05170274 -0.005975137
000220 6e d7 f4 bd 08 9b 06 3e 5b 17 02 3e 2f fa bc 3c
       -0.119551525 0.13145077 0.12704222 0.023068516
000230 ff ee 53 3d 12 20 10 bd 97 5c 3f 3d 8b 0a bd bd
       0.051741596 -0.035186835 0.04671916 -0.092305265
000240 5f 30 02 3d 0c 30 d9 3d 70 20 70 3d fa 8f ee 3d
       0.03178441 0.10604867 0.058624685 0.11648555
000250 d1 6c a5 3d 0a 9c 26 3d 14 90 9c 3d 0b 91 a8 3d
       0.08077396 0.040676154 0.07644668 0.0823079
000260 8b 96 1a 3d de ac ae bd 08 50 16 bd f8 27 62 3d
       0.037741225 -0.085290655 -0.036697417 0.0552139
000270 12 07 c5 3d de f9 07 be c7 de 59 3d c5 a6 57 bd
       0.09620489 -0.1327891 0.053190973 -0.05264928
000280 85 2d 19 3e bb 68 63 3d 24 e8 3c bc 97 0b 26 3e
       0.1495877 0.0555198 -0.011529956 0.16215359
000290 05 4b 54 bc 3b 51 a2 bb 15 7b e5 3d fa 05 a5 3d
       -0.012957339 -0.004953531 0.11205117 0.080577806
0002a0 7f 5a c1 3d 25 4d b7 3d 38 bc 01 be eb ab 16 3d
       0.09441089 0.08950261 -0.12669456 0.036785048
0002b0 77 64 e4 bd a7 1f e1 bd a0 ee d8 3d 33 cd 6c 3a
       -0.11151975 -0.10992365 0.10592389 0.00090332626
0002c0 49 97 ce bd cc f8 64 3d 75 3b 2b bd 84 a6 79 3c
       -0.10087449 0.055901334 -0.04180475 0.015237454
0002d0 5f 26 de 3d f6 ad 04 3e 63 4d a2 bd 2a db 0d 3e
       0.108471625 0.12956986 -0.079249166 0.13853136
0002e0 28 ad ed bd 4d 58 2d bb ea f6 ff 3b 3d b2 13 3d
       -0.116052926 -0.0026450336 0.007811417 0.036058653
0002f0 35 43 da bd ed 0b 88 3d 18 1d eb 3d 84 c0 e9 3d
       -0.1065735 0.066429 0.114801586 0.114136726
000300 4b fb 29 bd f0 80 89 3c 22 c5 df bd 41 ef fc 3d
       -0.041499417 0.016785115 -0.10926272 0.123503216
000310 5d a8 b0 3a 8f 79 13 3c 0c 3d 71 3d 81 03 bd 3c
       0.001347791 0.00900115 0.05889611 0.02307296

lstm.bias_hh_l1 f4 [200]
000000 2d 75 8a 3d 61 d0 a0 3d 93 19 14 be e7 43 b9 3d
       0.06760631 0.07852245 -0.14462881 0.090461545
000010 2d 92 c4 bc 28 11 6d 3d 62 71 bf 3b 2e 45 f5 3b
       -0.023995483 0.05787769 0.0058423737 0.0074850535
000020 66 80 61 bd b0 97 d6 3c 5b a7 05 3e 72 15 73 bd
       -0.05505409 0.026195377 0.13052122 -0.059346624
000030 81 57 da bd b5 d9 77 3d af 0c ae bd 64 99 cb 3d
       -0.10661221 0.060510356 -0.08498513 0.09941366
000040 34 f5 77 bd 8a 83 e5 3d a4 ae d5 bd a3 fe 16 3d
       -0.06053658 0.1120673 -0.10433701 0.036863934
000050 78 3b 84 bc 70 f1 84 3d 1f c9 8b 3d b9 7f 90 bd
       -0.016141638 0.06491363 0.0682547 -0.07055611
000060 ec 90 96 bc 9e ae cf bd e5 6f 8f bd e0 ee b1 bd
       -0.018379651 -0.101407275 -0.07003764 -0.0868814
000070 cd 24 5e bd 73 46 b5 3d 66 b7 16 bd 26 63 d2 bc
       -0.054234315 0.08851328 -0.036795996 -0.025682043
000080 d4 27 c2 3d 8c b6 b4 3d aa 06 3c 3d bc a4 01 be
       0.09480253 0.088238806 0.045904793 -0.12660497
000090 11 18 cd bd f5 42 aa bd 81 a3 2d 3e 37 81 76 3d
       -0.10014356 -0.08313552 0.16956903 0.060181823
0000a0 8f 55 e4 3d 87 f7 eb bd 4e cd 9b bd ff f0 69 3d
       0.111491315 -0.115218215 -0.07607518 0.057114597
0000b0 d8 fa e0 3d 46 e5 16 3e 56 35 ce 3d 7a 46 4e bb
       0.10985345 0.14735898 0.10068767 -0.0031475113
0000c0 a2 c5 43 bd cf 9c fe 3d 15 6e a1 bd 30 d7 ae 3b
       -0.0477959 0.124322526 -0.078823246 0.005335711
0000d0 06 d6 ff bc 8f 48 0e bd f6 60 90 bc 31 0f 08 3e
       -0.031229984 -0.034737166 -0.01762436 0.13287045
0000e0 51 8d 81 3c 55 3a be 3a 6f 20 c8 bc 21 ff 74 bd
       0.015814455 0.0014513234 -0.024429528 -0.059813622
0000f0 b0 bd b4 ba 0f 0e 16 3d 34 7e 9b 3d eb d6 ea bc
       -0.0013789441 0.0366345 0.07592431 -0.028666934
000100 97 f1 14 3d 09 ae 75 bc ca 7f 96 bd 7b f6 19 3d
       0.03636321 -0.0149951065 -0.073485926 0.037588578
000110 0f ec 58 bd ec e2 cc bd 20 ed d8 bd 35 82 99 bd
       -0.052959498 -0.100042194 -0.10592103 -0.07495538
000120 d7 7c 0a be 05 c1 40 3d 6d b8 e5 3d d9 a2 ab 3d
       -0.13524185 0.047059078 0.11216817 0.0838067
000130 90 9b ea 3d 4e b8 d8 3d 8b 90 f7 bd 00 2e a4 bd
       0.114554524 0.10582028 -0.12088116 -0.08016586
000140 9c 2b 5c bd c3 ba b0 bd e2 c2 a6 bd 5f db d8 3c
       -0.053752527 -0.08629372 -0.0814264 0.026471792
000150 71 bf 2d bd c0 64 a7 3d b1 ae be 39 40 6a 22 bd
       -0.0424189 0.081735134 0.0003636978 -0.03965211
000160 94 c3 f3 3c 15 5b f5 3d 9f 59 fe bc df 30 8b bd
       0.029756345 0.11980263 -0.031048594 -0.06796431
000170 26 4c c1 3d b2 6e de bb 84 d0 3e bc 16 69 a1 bd
       0.09438352 -0.0067880983 -0.011646394 -0.07881372
000180 82 7f 8a 3d 1d 00 3f bd b8 f6 e7 bd 9f 31 ae bc
       0.067626014 -0.046630967 -0.11326355 -0.021263896
000190 b5 44 57 bd 41 e1 14 be cf 04 8c bb 22 2c 2a 3d
       -0.05255576 -0.14539053 -0.004273034 0.041545995
0001a0 23 37 9e bd 5a 08 c8 3d 03 df 90 3c 94 b0 e8 bb
       -0.0772536 0.09767218 0.017684465 -0.007101128
0001b0 19 46 86 3d 4b 36 ac bd 9e ac b7 3d f0 76 3d bc
       0.06556339 -0.08408793 0.08968471 -0.011564001
0001c0 78 c3 f4 3c 2b 30 ec 3d e5 fb aa bd 3f 6f 98 3d
       0.029878363 0.11532625 -0.08348826 0.074430935
0001d0 37 83 c6 bb 79 5d eb bd c0 dd 85 3d b9 9f bd 3d
       -0.0060581225 -0.11492438 0.06536436 0.0925898
0001e0 57 94 85 bd d1 7f f0 3d 4b a0 91 bd 46 da 8d bc
       -0.06522434 0.11743129 -0.071106516 -0.017315995
0001f0 88 a5 8b 3c ca 3b da 3d d9 71 e3 bd 44 b0 be bd
       0.017046705 0.10655935 -0.11105699 -0.09310964
000200 cc 73 8b ba bd a8 e0 bd a2 6d 5d 3d 9a 3c 77 bd
       -0.0010639369 -0.10969684 0.054059632 -0.06036053
000210 47 65 bf 3d bb f7 90 3d 3d c4 98 3d 99 6a cf bd
       0.09345489 0.07078501 0.074593045 -0.10127754
000220 49 26 e5 bc a9 e3 0f 3d 6f c0 f2 3d ac 34 07 3e
       -0.027972357 0.035129223 0.1185311 0.13203686
000230 7f 3f 03 3e 2f e8 05 3e 49 4d 82 3b be b8 19 be
       0.1281719 0.13076852 0.0039764983 -0.1501188
000240 f4 c0 97 3c 4f 6f 9b 3b 8d 4e b3 3d e1 7c d2 bd
       0.018524624 0.0047434936 0.08755217 -0.10277725
000250 d9 2c 16 be 85 e1 b2 bd 00 98 18 3e 3c f5 2e bd
       -0.14665546 -0.08734421 0.14901733 -0.042714342
000260 f4 a3 08 be 62 e4 da bd d0 b7 41 3d 52 e7 90 3d
       -0.13343793 -0.10688092 0.047294438 0.07075371
000270 1d 0a d6 3b ed 93 bf 3d d9 da 30 bc fb 37 01 be
       0.0065319673 0.093543865 -0.010794365 -0.12619011
000280 0f 74 1c 3e fa 65 87 3d 9f 93 d0 3d 69 ac f7 3c
       0.15278648 0.06611247 0.101844065 0.030233579
000290 a6 f3 04 3d 63 23 df bd 6b 0f aa 3b 0d 81 11 3d
       0.032458924 -0.10895421 0.0051898262 0.035523463
0002a0 a3 28 d0 3d 94 61 5d bd cd c8 cc bc 32 10 af 3c
       0.10164001 -0.054048136 -0.024998093 0.021370027
0002b0 0a ae 9e bd c6 a8 6e 3d a6 99 9b 3d d1 4e d9 3d
       -0.07748039 0.058266424 0.075976655 0.10610736
0002c0 64 cf 84 3c 10 f0 0b 3e 52 ce 75 bb 7b a7 ac bd
       0.016212173 0.13665795 -0.003750701 -0.08430382
0002d0 71 05 f9 bd 09 70 dc bc 21 4d d3 3d a2 86 ab bd
       -0.12159241 -0.026908891 0.103174455 -0.083752885
0002e0 12 dd 85 3d 59 76 9c bd 4d 8f 47 3d 41 e1 68 3d
       0.065363064 -0.076397605 0.048720647 0.056855444
0002f0 3b d9 af bd 50 0a 91 3d 4e 8e 80 3d ec e6 a3 bd
       -0.08586355 0.07082045 0.062771425 -0.08003029
000300 d8 14 d9 bd 38 d4 ef bd dc 1d b7 bd d9 6e bb 3d
       -0.10599679 -0.117103994 -0.08941242 0.09152002
000310 36 95 99 bd ee d5 09 3e ef 26 bb bd 48 ff 0a 3e
       -0.07499163 0.13460514 -0.09138285 0.13573945
