LSTM/stock_Model/2330.pth (torch, 131029 bytes, 9 tensors)

lstm.weight_ih_l0 f4 [200, 5]
-0.0418117 0.2430286 0.12007179 0.12889251 -0.18794817 0.118832655 0.35532078 0.27251068
0.28102598 0.045220856 0.12051376 0.20655762 0.061024368 0.18712258 0.5451278 -0.0058530923
0.11757294 0.14201447 0.12415603 0.3791218 -0.013388172 -0.009705259 0.22241735 0.09643504
-0.035051845 -0.03697241 -0.006373188 0.16237625 0.21348275 -0.20936362 -0.023808029 -0.061967965
-0.07666436 0.021678168 0.126621 -0.41835302 -0.1872444 -0.26344043 0.05558409 0.77719885
0.16716269 0.16391988 0.14208853 0.26944408 0.030495172 -0.05294728 0.08045511 -0.023350952
-0.045414656 0.54377085 0.00028099588 -0.051538397 0.16082829 0.17698321 0.048266236 -0.017974086
0.107733935 -0.09939815 0.05477806 0.14404868 -0.1519186 -0.28617704 -0.15302868 -0.23345837
0.18527265 -0.06272944 0.018284766 -0.16830924 0.052526537 0.094810896 -0.20232028 -0.08530163
-0.21596701 -0.22877371 0.11181632 0.21779992 0.11465728 0.09395652 0.42812663 -0.08067172
0.14379877 -0.0043688724 0.22727408 0.078722514 -0.22351232 0.24629687 0.19202274 0.23245709
0.32635328 -0.082282744 -0.08547364 0.003059551 0.0022438979 -0.022191774 0.17372787 -0.017804721
0.20808387 0.19779155 0.0064199823 -0.08741393 -0.1137265 -0.20445342 -0.10849409 0.028719647
-0.09890282 0.011573111 -0.11641266 -0.12330176 0.18453155 -0.0064772093 0.2085853 0.20427237
0.042584945 0.22113048 -0.02326557 -0.06552035 -0.033207927 0.042198345 -0.1363457 -0.18793626
0.0055716974 -0.17216618 0.027219387 -0.19380088 0.14099212 0.1488362 0.059568275 0.13122332
0.29223555 -0.19327275 0.12299081 0.13774666 0.037217837 -0.013139973 -0.0072986577 0.16015233
0.0076123546 0.18067382 0.0128096035 0.5022851 -0.064785786 0.027513556 0.051280767 -0.15643916
0.12780674 0.03246328 0.09629706 -0.035233393 -0.0035204203 -0.035324838 -0.012361796 -0.06083004
-0.0035599316 0.13753241 0.04607688 0.1366505 0.08314913 0.13855867 0.19181184 0.22381157
-0.0285345 0.0745297 0.20910704 0.16115743 0.2588306 0.09074026 0.017402222 0.06267675
0.24164836 0.08323723 0.10690124 -0.016354674 0.03368993 0.1182186 -0.018004717 -0.03576383
-0.056382313 0.045257337 -0.06329015 0.105598666 0.12039256 0.08486225 0.14103362 0.15091245
-0.2415604 0.14762355 0.31637976 0.19037744 0.2872675 0.27622867 -0.16507961 -0.19744186
-0.00553164 -0.19977821 0.14416645 -0.08271865 -0.12617333 -0.2632669 -0.0014372296 0.014140663
-0.05118627 -0.008733575 0.16101213 0.054759905 -0.19363886 0.03449878 0.18175381 0.050395805
0.03153774 -0.076688014 0.37850904 0.31026426 0.40205255 0.5141663 0.008135949 0.0051135467
0.20660791 0.23355226 0.28943333 0.33928442 0.07100627 0.2095171 0.11318737 0.24202935
-0.06907227 0.07268331 -0.054081008 -0.09626375 -0.13696304 0.06624808 0.17342995 -0.017393181
0.019285021 0.15179677 -0.20111106 0.046643924 0.013293631 0.12530933 0.13457596 -0.15914667
-0.23823646 -0.010083863 -0.16605583 -0.018535154 -0.25190416 0.21708062 0.390213 0.33367106
0.28966525 -0.054369017 0.18993722 0.107918195 0.20269354 -0.013119699 -0.28947085 -0.09746577
00000000: bf42 2bbd 7ddc 783e 33e8 f53d 66fc 033e
00000010: 7c75 40be 895e f33d 9bec b53e 8586 8b3e
00000020: a3e2 8f3e 8139 393d ebcf f63d d783 533e
00000030: b0f4 793d 109d 3f3e 7f8d 0b3f 4ccb bfbb
00000040: 15ca f03d 3e6c 113e 8445 fe3d 411c c23e
00000050: 105a 5bbc cf02 1fbc 60c1 633e bc7f c53d
00000060: 8692 0fbd 6270 17bd 2dd6 d0bb f645 263e
00000070: 399b 5a3e 6b63 56be 0e09 c3bc 1fd2 7dbd
00000080: 3402 9dbd 6a96 b13c efa8 013e 5e32 d6be
00000090: ffbc 3fbe aae1 86be 25ac 633d 81f6 463f
000000a0: b22c 2b3e 9dda 273e a87f 113e 93f4 893e
000000b0: 03d1 f93c 3fdf 58bd a6c5 a43d 7f4a bfbc
000000c0: b804 3abd 9134 0b3f a152 9339 ed19 53bd
000000d0: 2cb0 243e 163b 353e d1b2 453d 643e 93bc
000000e0: 9ca3 dc3d 4291 cbbd f65e 603d 7f81 133e
000000f0: 8d90 1bbe cc85 92be 8db3 1cbe b60f 6fbe
00000100: 1db8 3d3e 4b78 80bd efc9 953c 4259 2cbe
00000110: 1126 573d 372c c23d 0c2d 4fbe 9fb2 aebd
00000120: 7526 5dbe a843 6abe f4ff e43d f106 5f3e
00000130: 70d1 ea3d 476c c03d 6a33 db3e 3737 a5bd
00000140: fc3f 133e c228 8fbb 89ba 683e 4539 a13d
00000150: 6ae0 64be 3f35 7c3e 9ca1 443e 3b09 6e3e
00000160: c717 a73e db83 a8bd ce0c afbd bf82 483b
00000170: 5c0e 133b 86cb b5bc b8e5 313e 35db 91bc
00000180: f013 553e de89 4a3e b75e d23b 1306 b3bd
00000190: 70e9 e8bd 3d5c 51be 2632 debd 7745 eb3c
000001a0: 908d cabd 259d 3d3c c369 eebd a285 fcbd
000001b0: d7f5 3c3e c53e d4bb 6397 553e c72c 513e
000001c0: 8d6d 2e3d 0770 623e 7097 bebc 892f 86bd
000001d0: 0905 08bd 2cd8 2c3d 359e 0bbe 5d72 40be
000001e0: c992 b63b 554c 30be 31fb de3c bd73 46be
000001f0: 3d60 103e 8468 183e ddfd 733d 685f 063e
00000200: e69f 953e 4be9 45be 9be2 fb3d 760d 0d3e
00000210: bb71 183d 0b49 57bc 9429 efbb f9fe 233e
00000220: 0f71 f93b 8f02 393e 5fdf 513c c295 003f
00000230: 69ae 84bd 1c64 e13c c80b 523d 9631 20be
00000240: c5df 023e 37f8 043d 6537 c53d e450 10bd
00000250: dab6 66bb c7b0 10bd 2189 4abc ec28 79bd
00000260: be4d 69bb 4cd5 0c3e 1cbb 3c3d 1cee 0b3e
00000270: 174a aa3d 53e2 0d3e 536a 443e dc2e 653e
00000280: 2fc1 e9bc 07a3 983d 2820 563e 7406 253e
00000290: 7285 843e 08d6 b93d 1b8f 8e3c ab5c 803d
000002a0: ab72 773e 4878 aa3d 0aef da3d 3dfa 85bc
000002b0: 74fe 093d 981c f23d a17e 93bc 187d 12bd
000002c0: 24f1 66bd c25f 393d 449e 81bd 1d44 d83d
000002d0: 6090 f63d 42cc ad3d 1e6b 103e cb88 1a3e
000002e0: 9c5b 77be a12a 173e 87fc a13e 4ef2 423e
000002f0: ba14 933e d86d 8d3e a10a 29be 332e 4abe
00000300: c242 b5bb a992 4cbe 5fa0 133e 6568 a9bd
00000310: 9533 01be ebca 86be 6c61 bcba 3dae 673c
00000320: b2a8 51bd 4517 0fbc 5de0 243e ec4b 603d
00000330: 4449 46be 984e 0d3d ac1d 3a3e d56b 4e3d
00000340: b82d 013d 9b0e 9dbd f0cb c13e f5da 9e3e
00000350: d5d9 cd3e 67a0 033f a54c 053c 8a8f a73b
00000360: 0691 533e 5328 6f3e 9b30 943e b0b6 ad3e
00000370: bc6b 913d a78b 563e c8ce e73d 8bd6 773e
00000380: c375 8dbd fdda 943d 0c84 5dbd ee25 c5bd
00000390: 0a40 0cbe 13ad 873d 9f97 313e 257c 8ebc
000003a0: 9ffb 9d3c 9d70 1b3e 0ff0 4dbe b30d 3f3d
000003b0: 88cd 593c 1751 003e 48ce 093e 58f7 22be
000003c0: 42f4 73be c936 25bc 8a0a 2abe 09d7 97bc
000003d0: 95f9 80be 624a 5e3e 00ca c73e efd6 aa3e
000003e0: 014f 943e 0cb2 5ebd e77e 423e 3704 dd3d
000003f0: e58e 4f3e 02f4 56bc 8635 94be 229c c7bd

lstm.weight_hh_l0 f4 [200, 50]
-0.19109742 -0.24339373 0.03639157 -0.019106945 -0.033017658 -0.1391333 0.01056669 -0.0032264795
-0.0425676 0.53297645 -0.36834812 -0.06366771 -0.21961342 0.16089734 -0.22710216 -0.13618973
-0.021550557 0.28657734 -0.08448505 0.1397907 0.1037479 0.20961694 0.044823736 -0.12998359
-0.01409189 -0.22130315 -0.12959571 0.042707216 0.14712189 0.0022503308 0.07311119 0.06827573
0.22751004 -0.102094695 -0.12777288 -0.01970308 -0.13885793 0.0110875135 0.15202434 -0.05729847
-0.025013048 0.009734016 -0.27599707 -0.2385829 -0.062608205 0.25002408 0.42279005 -0.02105465
0.053367462 0.23080204 -0.32521608 -0.6433913 0.32369643 -0.046969708 0.14026852 -0.21477842
0.27715245 0.054142814 -0.13044362 0.38727152 -0.019176604 0.006329624 0.23839809 -0.10654071
-0.11521149 -0.17872109 0.14724644 0.29274294 -0.29796708 0.18787459 -0.17352946 0.5190594
-0.15956424 -0.140699 0.03638176 -0.16660371 -0.25445625 -0.2356287 0.42164445 0.20932649
0.28616038 0.3035948 0.31139418 -0.53509885 -0.41405064 0.24414542 -0.33045837 -0.11119249
0.131897 -0.090857506 0.18365556 0.12848268 0.16587839 0.14772636 0.1120012 0.30258024
0.45511857 0.051538754 0.08887615 0.28700212 -0.43729818 -0.6646393 0.09839375 -0.023295198
-0.0035265684 0.13856216 -0.17635353 0.048533253 -0.011236666 -0.16275726 -0.065536 0.08356776
0.1085208 0.17352436 -0.20512372 -0.1459336 0.16647632 0.12145357 -0.20936675 0.050813254
-0.29399976 0.36871544 -0.11771536 -0.27813512 -0.096153185 -0.0961419 -0.07624269 -0.11769323
-0.5331504 0.2198439 0.29360965 -0.0015707888 -0.09521595 -0.4104688 -0.35964665 -0.16424231
-0.516476 -0.29449338 0.11640955 0.25119036 0.05717238 -0.124651544 0.6182535 -0.1613776
-0.03379462 0.12638983 -0.09138428 0.011415106 -0.23856255 0.15385997 0.4002743 0.40698442
-0.019517628 0.12532437 -0.2543627 -0.092021085 0.017462168 -0.5625192 -0.277726 -0.06556782
-0.00732545 0.13092619 0.0108757345 -0.059800096 -0.09732913 -0.22194009 0.08808851 -0.10963347
-0.11756692 0.24382555 0.0668291 0.1910699 -0.30607036 -0.25666633 0.08531516 -0.037983775
-0.19219889 -0.26487717 0.021637706 0.22165184 -0.21326177 0.09859992 0.19156763 0.07241824
0.052978437 -0.100305215 0.2515529 0.17368853 0.049508683 -0.07235838 0.20757788 0.0016831656
-0.63834405 -0.2530142 0.19841607 0.16188732 -0.06141889 0.25106552 0.06898362 -0.11338641
0.24423772 0.23704347 -0.0058897296 0.21084861 -0.10062082 0.08504149 -0.17968008 0.25720686
0.087909214 -0.15761602 0.086419724 -0.01628782 -0.13894437 0.039494645 -0.06991741 0.10482025
-0.051030904 -0.036962826 0.06998164 0.06767028 -0.02933123 -0.0760301 -0.10995074 -0.033283874
-0.06862807 -0.14652598 0.13166195 -0.14619765 0.025695069 0.021869669 -0.075318076 0.019101089
0.008504815 0.096853 0.059084203 -0.009275954 0.038380574 0.0996495 0.13826597 -0.08582271
0.14265937 0.075886354 0.023335194 -0.032614782 -0.015491547 0.024019057 0.15571155 0.11652176
-0.064335525 0.09334563 -0.12298785 0.02176588 0.017913071 0.033685412 0.08438861 -0.12987939
00000000: 0baf 43be 353c 79be 540f 153d 2b86 9cbc
00000010: 863d 07bd f678 0ebe e91f 2d3c 5873 53bb
00000020: 5d5b 2ebd 2571 083f 2098 bcbe 3764 82bd
00000030: 57e2 60be 46c2 243e 788d 68be 5275 0bbe
00000040: cb8a b0bc 44ba 923e 7f06 adbd 4b25 0f3e
00000050: c779 d43d d3a5 563e 1899 373d 6b1a 05be
00000060: ace1 66bc 4b9d 62be bdb4 04be c3ed 2e3d
00000070: 1fa7 163e 497a 133b 52bb 953d 25d4 8b3d
00000080: 64f8 683e 0617 d1bd e5d6 02be 5b68 a1bc
00000090: c630 0ebe 67a8 353c 45ac 1b3e cdb1 6abd
000000a0: 2ae8 ccbc 6c7b 1f3c 7d4f 8dbe 134f 74be
000000b0: bb38 80bd 2803 803e f077 d83e cd7a acbc
000000c0: d797 5a3d 5f57 6c3e b982 a6be 4bb5 24bf
000000d0: 8abb a53e 4f63 40bd 8da2 0f3e e0ee 5bbe
000000e0: ede6 8d3e dbc4 5d3d 0393 05be 7448 c63e
000000f0: 4118 9dbc bc68 cf3b a11e 743e 0432 dabd
00000100: 00f4 ebbd a902 37be c5c7 163e 67e2 953e
00000110: 248f 98be 3262 403e b5b1 31be 14e1 043f
00000120: cf64 23be 6613 10be 0a05 153d 2a9a 2abe
00000130: 1748 82be a648 71be c8e1 d73e af59 563e
00000140: 9d83 923e c770 9b3e 0f6f 9f3e 3dfc 08bf
00000150: 72fe d3be 4201 7a3e d731 a9be e3b8 e3bd
00000160: 0210 073e 8013 babd 3410 3c3e f790 033e
00000170: 06dc 293e 9445 173e e360 e53d cceb 9a3e
00000180: 4d05 e93e 4d1a 533d b304 b63d f1f1 923e
00000190: 8ce5 dfbe cd25 2abf aa82 c93d 92d5 bebc
000001a0: 001e 67bb 3de3 0d3e 0596 34be ceca 463d
000001b0: fe19 38bc d7a9 26be bd37 86bd 9325 ab3d
000001c0: 2740 de3d 5fb0 313e f40b 52be 9e6f 15be
000001d0: c578 2a3e a6bc f83d 3d64 56be 8f21 503d
000001e0: 2387 96be 45c8 bc3e c014 f1bd ba67 8ebe
000001f0: f6eb c4bd 0be6 c4bd 2125 9cbd 2609 f1bd
00000200: 8b7c 08bf c21e 613e 0154 963e ede2 cdba
00000210: 9400 c3bd f728 d2be 9b23 b8be 232f 28be
00000220: c537 04bf d6c7 96be 2168 ee3d 069c 803e
00000230: 962d 6a3d 4f49 ffbd dd45 1e3f 2b40 25be
00000240: 3a6c 0abd 566c 013e ae27 bbbd 6d06 3b3c
00000250: be49 74be 788d 1d3e c1f0 cc3e 4360 d03e
00000260: 6fe3 9fbc 0855 003e d43b 82be 8d75 bcbd
00000270: d20c 8f3c 4201 10bf 1a32 8ebe 6c48 86bd
00000280: 540a f0bb 8411 063e 2330 323c f2f0 74bd
00000290: 7f54 c7bd 4344 63be c067 b43d 8387 e0bd
000002a0: edc6 f0bd 68ad 793e b2dd 883d d4a7 433e
000002b0: 41b5 9cbe c569 83be b7b9 ae3d e094 1bbd
000002c0: c9cf 44be fb9d 87be 8f41 b13c b3f8 623e
000002d0: 4b61 5abe c1ee c93d 4e2a 443e 0450 943d
000002e0: ebff 583d d26c cdbd 8bcb 803e 68db 313e
000002f0: 9ec9 4a3d a130 94bd 4c8f 543e aa9d dc3a
00000300: 846a 23bf 148b 81be 952d 4b3e cac5 253e
00000310: 6092 7bbd a98b 803e 4947 8d3d 2237 e8bd
00000320: 7419 7a3e 86bb 723e a2fe c0bb b3e8 573e
00000330: 4a12 cebd 3c2a ae3d 0efe 37be 9eb0 833e
00000340: bf09 b43d 1866 21be d3fc b03d 096e 85bc
00000350: 6f47 0ebe 23c5 213d dc30 8fbd 00ac d63d
00000360: c805 51bd 5566 17bd 8952 8f3d b796 8a3d
00000370: 0c48 f0bc abb5 9bbd db2d e1bd ac54 08bd
00000380: e08c 8cbd e80a 16be 64d2 063e d6b4 15be
00000390: 777e d23c 0528 b33c 5d40 9abd e379 9c3c
000003a0: c857 0b3c de5a c63d 4702 723d 2cfa 17bc
000003b0: f334 1d3d 0915 cc3d 9895 0d3e d1c3 afbd
000003c0: 4c15 123e 4e6a 9b3d 7329 bf3c 1497 05bd
000003d0: 42d0 7dbc 9dc3 c43c d972 1f3e f6a2 ee3d
000003e0: 58c2 83bd fe2b bf3d 0ee1 fbbd 5c4e b23c
000003f0: 6fbe 923c b7f9 093d f0d3 ac3d 1aff 04be

lstm.bias_ih_l0 f4 [200]
-0.017714731 0.20250562 0.009111793 0.13289884 -0.13472894 -0.06471197 0.037862852 -0.061837967
0.20832424 0.16115981 -0.02191637 -0.0293091 -0.039426308 -0.05396765 -0.16408725 -0.011758219
0.091613136 0.27266982 -0.18344109 0.091459766 0.37457743 -0.0017206761 0.008082746 0.0974779
-0.12511379 0.12474048 0.0305957 0.09233651 -0.11927361 0.11326456 0.16525847 -0.011546391
-0.008261099 -0.01508799 0.07904531 0.10876224 -0.10508303 0.39926243 0.019241877 0.2333592
0.089357816 0.13976349 0.3071345 0.05876176 0.34113935 -0.1791679 0.24842757 -0.17200932
0.06810915 0.15795249 -0.05230112 0.016627949 -0.28009287 -0.08246737 -0.18700813 -0.05409509
-0.088266246 0.12459524 -0.15608203 -0.034314573 -0.021403886 0.035451815 0.0705001 -0.14167295
-0.007958788 0.00088009227 -0.04091611 -0.09699553 0.08975252 -0.09075815 0.25979808 -0.073296376
0.033524334 -0.098144695 -0.0842195 -0.07769858 0.026422057 0.17137094 -0.032057837 0.08990001
-0.09955856 -0.123683855 -0.039153147 -0.1266294 0.03404805 -0.18901321 0.06934534 -0.28444108
-0.052191336 -0.20246011 -0.065220535 -0.008954817 0.032677554 0.11722142 -0.23998164 -0.12300124
0.07318801 0.0045044054 0.11614269 -0.09895936 -0.07298975 -0.012589818 -0.12243865 -0.03643028
-0.009057525 0.1829834 -0.0020220445 0.027463462 0.20698772 -0.18408088 -0.05644741 -0.02586071
0.10748067 -0.18635415 0.090500824 -0.06041692 -0.15748711 -0.07080524 -0.10989131 -0.04933054
0.054012783 -0.14482464 0.019840362 0.038041566 0.105162434 0.14216548 -0.030258112 0.13718656
0.07994432 -0.07425765 -0.035092115 -0.11424857 0.037251737 0.15436824 -0.10885261 0.02010313
0.036854636 -0.0016394135 -0.082911976 0.011170594 -0.01313325 -0.03704109 0.06626062 0.029570399
0.04429186 0.03416133 -0.14630257 0.0174415 0.027038075 -0.09458664 -0.1255996 0.117064305
0.20212252 0.06565283 -0.19776149 0.05027209 -0.12461218 0.13846084 0.07949335 0.21361402
0.010226572 0.00533558 0.011943801 0.16251087 0.05390085 -0.07516189 -0.09858062 0.15717256
-0.20117024 -0.06677212 0.08759477 -0.1034589 0.14037892 -0.14882675 -0.07673026 0.06283475
-0.1633265 0.27906153 -0.14293523 0.0437116 0.1583505 -0.035155587 0.092886835 0.00561994
-0.0943292 -0.11030417 0.102393314 0.45976144 0.08053725 0.15917334 0.065369874 -0.05977343
0.19456327 0.11883993 0.240692 -0.050176762 0.15237403 -0.0684014 -0.039973613 0.2846259
00000000: 7c1e 91bc a25d 4f3e a149 153c a216 083e
00000010: 62f6 09be b687 84bd 1416 1b3d cf49 7dbd
00000020: f352 553e 1407 253e f689 b3bc a319 f0bc
00000030: 7b7d 21bd 2f0d 5dbd 7d06 28be 8ca5 40bc
00000040: ab9f bb3d 619b 8b3e fbd7 3bbe 424f bb3d
00000050: 9dc8 bf3e 4f88 e1ba 7e6d 043c 7ea2 c73d
00000060: d41d 00be f077 ff3d d5a3 fa3c ed1a bd3d
00000070: b945 f4bd 40f7 e73d 8439 293e 132d 3dbc
00000080: 9059 07bc 9e33 77bc 82e2 a13d bdbe de3d
00000090: c635 d7bd 206c cc3e 24a1 9d3c b7f5 6e3e
000000a0: 3b01 b73d 291e 0f3e bc40 9d3e 2cb0 703d
000000b0: d1a9 ae3e ca77 37be cc63 7e3e 3623 30be
000000c0: cf7c 8b3d 4cbe 213e b339 56bd 5637 883c
000000d0: 5568 8fbe a7e4 a8bd 0f7f 3fbe d092 5dbd
000000e0: efc4 b4bd ca2b ff3d f8d3 1fbe 708d 0cbd
000000f0: 3457 afbc ec35 113d 5b62 903d b712 11be
00000100: 9465 02bc feb5 663a a797 27bd 98a5 c6bd
00000110: 2bd0 b73d 69df b9bd 4104 853e 691c 96bd
00000120: d050 093d 1600 c9bd 467b acbd 6f20 9fbd
00000130: 1273 d83c dd7b 2f3e 144f 03bd 7f1d b83d
00000140: 5ce5 cbbd f64d fdbd 0d5f 20bd 23ab 01be
00000150: f875 0b3d ae8c 41be ee04 8e3d 43a2 91be
00000160: 95c6 55bd b451 4fbe 5892 85bd 3ab7 12bc
00000170: e6d8 053d c911 f03d bfbd 75be 13e8 fbbd
00000180: 98e3 953d b199 933b 38dc ed3d 34ab cabd
00000190: a67b 95bd 8645 4ebc 1dc1 fabd eb37 15bd
000001a0: 0366 14bc 0060 3b3e 4784 04bb 0efb e03c
000001b0: 97f4 533e b37f 3cbe 6635 67bd d7d9 d3bc
000001c0: d31e dc3d 9fd3 3ebe 7f58 b93d bb77 77bd
000001d0: 4d44 21be 5602 91bd b20e e1bd d20e 4abd
000001e0: 823c 5d3d e94c 14be 4188 a23c 79d1 1b3d
000001f0: 675f d73d d493 113e dcdf f7bc a27a 0c3e
00000200: d9b9 a33d 6514 98bd c0bc 0fbd 27fb e9bd
00000210: 4795 183d b512 1e3e 1eee debd 52af a43c
00000220: e3f4 163d 97e1 d6ba c1cd a9bd de04 373c
00000230: d82c 57bc 66b8 17bd a6b3 873d 9f3d f23c
00000240: 626b 353d c0ec 0b3d 57d0 15be 7ae1 8e3c
00000250: f47e dd3c a4b6 c1bd 2e9d 00be 69bf ef3d
00000260: 35f9 4e3e fe74 863d fd81 4abe 1bea 4d3d
00000270: ac34 ffbd aec8 0d3e 69cd a23d a2bd 5a3e
00000280: 5a8d 273c 17d6 ae3b efaf 433c 4069 263e
00000290: 23c7 5c3d 7aee 99bd a3e4 c9bd d8f1 203e
000002a0: 92ff 4dbe d2bf 88bd e364 b33d 42e2 d3bd
000002b0: 7ebf 0f3e 0a66 18be c124 9dbd 81af 803d
000002c0: 103f 27be 27e1 8e3e 9d5d 12be ef0a 333d
000002d0: a226 223e 4eff 0fbd 743b be3d 7927 b83b
000002e0: ab2f c1bd 27e7 e1bd 96b3 d13d da65 eb3e
000002f0: b7f0 a43d 56fe 223e a4e0 853d fcd4 74bd
00000300: 983b 473e 5962 f33d f777 763e 2686 4dbd
00000310: f007 1c3e 0916 8cbd 5fbb 23bd 7cba 913e

lstm.bias_hh_l0 f4 [200]
0.07475302 0.09921171 0.21403106 0.0747865 -0.1099896 0.010486474 0.04972531 0.13576834
0.025358707 0.28029236 -0.06549328 -0.072433576 0.015989035 -0.06663336 -0.058527134 0.004834789
0.0015590715 0.27125713 -0.09943683 -0.07615599 0.25049716 -0.008597849 -0.033569884 0.10175903
0.062536746 -0.0816961 0.08988293 0.04877687 -0.1877293 0.10625243 0.0056955386 0.036208984
-0.09346165 0.044784542 -0.16124792 -0.023430265 0.07582314 0.42702734 -0.11273908 0.07068452
0.16750443 0.14527224 0.28815398 -0.04871327 0.07166171 -0.12559979 0.27672645 -0.2113306
-0.047745373 0.27881703 0.106810085 0.0138608795 -0.32264033 -0.024734775 -0.13634281 0.045772634
-0.18243289 -0.024235282 -0.07234291 -0.023234302 0.06650315 0.05311808 0.11529272 -0.0075395806
0.05097091 -0.07468695 -0.156291 -0.07919665 -0.08021472 0.11913777 0.112994455 -0.19387732
-0.03890895 0.035863478 -0.19876827 -0.019575164 0.0018901883 0.20372804 0.11372344 0.016409323
0.00872043 -0.114951685 -0.01005963 -0.038031343 0.08566997 -0.07370957 0.075935796 -0.29048157
0.008223546 -0.042888395 -0.10427087 -0.08990776 -0.1971613 0.12129871 -0.19524363 0.036325198
0.09916486 -0.0045104357 -0.103134945 -0.012965026 -0.095553726 0.00826966 -0.14241275 0.0068269297
0.018396063 -0.075427696 0.011790172 -0.047767118 -0.051558476 -0.14037828 0.097988 0.006524015
0.09167188 -0.03354089 0.07202504 0.10296185 0.051402774 0.101062596 -0.0913803 -0.13063858
-0.024752611 0.08528016 0.053212866 -0.040119756 0.092439674 -0.051542703 0.15022512 -0.006389973
0.01251844 0.0590858 -0.0102134645 -0.13095333 -0.042482477 -0.037279546 -0.12524202 0.04960298
-0.1186334 0.19057362 -0.14026287 -0.038723253 -0.08793903 0.005933984 0.049385615 0.016361823
-0.044746444 -0.011528882 -0.14772223 -0.05177932 -0.008469432 0.03714856 -0.100848615 -0.1011331
0.20952184 0.17108127 -0.2292961 0.13590688 -0.13043055 0.13686821 0.12736635 0.29091838
-0.16194962 0.051630728 -0.1777452 0.14070198 -0.08243565 -0.03886954 0.051181965 0.16105378
-0.16638476 0.14675206 0.24463366 -0.0873456 -0.041559216 0.024954041 -0.06433379 -0.0428365
-0.09482928 0.24471198 0.0631482 -0.15542065 0.056687385 0.2312576 -0.067554 0.007886022
0.00218825 -0.061224002 0.18854688 0.3439932 -0.014336955 0.098673955 0.01669452 -0.032316826
0.10140702 0.049184248 0.23669101 0.07892642 0.17081404 -0.106098644 0.062422693 0.12509838
00000000: 1d18 993d 822f cb3d f52a 5b3e aa29 993d
00000010: 3a42 e1bd 76cf 2b3c c4ac 4b3d db06 0b3e
00000020: 10bd cf3c 7b82 8f3e 5721 86bd 0e58 94bd
00000030: 70fb 823c 1277 88bd 26ba 6fbd 266d 9e3b
00000040: c259 cc3a 37e2 8a3e 89a5 cbbd acf7 9bbd
00000050: 2a41 803e fedd 0cbc 9380 09bd 0a67 d03d
00000060: 4413 803d 4950 a7bd 8b14 b83d 41ca 473d
00000070: 1c3c 40be e09a d93d a4a1 ba3b df4f 143d
00000080: d268 bfbd ff6f 373d 2d1e 25be d4f0 bfbc
00000090: 2a49 9b3d 54a3 da3e bfe3 e6bd 0cc3 903d
000000a0: 4886 2b3e 3fc2 143e eb88 933e 9187 47bd
000000b0: 60c3 923d 3b9d 00be 17af 8d3e 0c67 58be
000000c0: a790 43bd 1bc1 8e3e 3fbf da3d be18 633c
000000d0: 1d31 a5be 95a0 cabc 739d 0bbe 167c 3b3d
000000e0: b0cf 3abe 1289 c6bc 8528 94bd dd55 bebc
000000f0: ce32 883d 5892 593d 971e ec3d 960e f7bb
00000100: dfc6 503d 79f5 98bd bf0a 20be da31 a2bd
00000110: 9d47 a4bd 81fe f33d a369 e73d c787 46be
00000120: fe5e 1fbd 95e5 123d e989 4bbe 185c a0bc
00000130: 32c0 f73a 159e 503e d6e7 e83d d86c 863c
00000140: 22e0 0e3c ca6b ebbd 25d1 24bc c1c6 1bbd
00000150: bd73 af3d 0bf5 96bd 3a84 9b3d 00ba 94be
00000160: 0dbc 063c beab 2fbd f78b d5bd 8f21 b8bd
00000170: a7e4 49be 756b f83d f2ed 47be bbc9 143d
00000180: f216 cb3d 47cc 93bb 6a38 d3bd 436b 54bc
00000190: acb1 c3bd 787d 073c a6d4 11be 70b4 df3b
000001a0: 57b3 963c d679 9abd 912b 413c 74a7 43bd
000001b0: fb2e 53bd 53bf 0fbe efad c83d 68c7 d53b
000001c0: 77be bb3d 2c62 09bd dd81 933d aadd d23d
000001d0: b78b 523d e8f9 ce3d 9825 bbbd 1fc6 05be
000001e0: fdc5 cabc 5da7 ae3d bcf5 593d 9d54 24bd
000001f0: 0351 bd3d 711e 53bd 9dd4 193e fb62 d1bb
00000200: 251a 4d3c f403 723d 6056 27bc a118 06be
00000210: 1b02 2ebd 70b2 18bd 723f 00be 7f2c 4b3d
00000220: 11f6 f2bd bb25 433e 12a1 0fbe 469c 1ebd
00000230: 6119 b4bd de71 c23b 9248 4a3d 3b09 863c
00000240: 0c48 37bd a3e3 3cbc 7f44 17be 8d16 54bd
00000250: 5fc3 0abc 1729 183d b889 cebd df1e cfbd
00000260: e58c 563e ee2f 2f3e 99cc 6abe 2c2b 0b3e
00000270: 968f 05be 2e27 0c3e 536c 023e 41f3 943e
00000280: 1fd6 25be be7a 533d d602 36be 2e14 103e
00000290: 06d4 a8bd ab35 1fbd 2ea4 513d 48eb 243e
000002a0: c460 2abe 2c46 163e 3f81 7a3e 40e2 b2bd
000002b0: ff39 2abd 6b6c cc3c 6fc1 83bd 5375 2fbd
000002c0: db35 c2bd c795 7a3e d853 813d 9726 1fbe
000002d0: 0831 683d cbce 6c3e c059 8abd 6034 013c
000002e0: be68 0f3b 05c6 7abd 6f12 413e e01f b03e
000002f0: 8ce5 6abc 9215 ca3d f2c2 883c a65e 04bd
00000300: 7cae cf3d 6c75 493d 215f 723e 2da4 a13d
00000310: e0e9 2e3e 3f4a d9bd f0ae 7f3d ca19 003e

lstm.weight_ih_l1 f4 [200, 50]
0.026554879 0.105079986 -0.051756013 -0.26427612 0.051819354 0.15576336 -0.014029373 -0.050146323
0.12131469 -0.2118505 0.10013213 -0.027475813 -0.21296032 -0.12663879 0.019199006 0.018467925
-0.009227411 -0.16732924 0.15649979 0.04828495 -0.038180824 -0.097690076 -0.0422953 -0.100897215
-0.1348278 -0.06172884 0.1597084 -0.09867442 0.040920537 0.101184495 0.02897445 -0.0022012836
-0.13707915 -0.03736699 0.084059015 0.06376759 0.0059096534 0.022529926 -0.19786155 -0.07599302
0.004521638 0.068931915 -0.065385975 -0.02283692 -0.008816701 0.0047152387 0.033706885 -0.11809557
0.113774404 0.17068382 0.11601522 0.041669674 -0.17143898 0.014236852 0.12191622 -0.09270491
-0.17472605 -0.11087643 0.06604886 0.084205754 -0.024015963 -0.11325297 0.15023565 -0.19426465
-0.038373284 0.12560214 -0.03597539 0.0050915447 -0.09673383 0.025315477 0.025839873 -0.20372519
0.18124868 -0.10334858 0.1352249 -0.012694945 0.02559856 0.068395 0.2345298 0.18767884
-0.16908817 -0.19840226 0.1559266 0.22532152 0.055677142 0.26076856 -0.088112585 0.18721764
0.029763559 -0.28656375 0.057058223 0.0048712096 0.17737834 0.17266712 0.1586499 -0.10688841
-0.020240666 -0.059948847 0.11098262 0.13418394 -0.09876357 0.18457912 0.05109221 -0.38253418
0.19557124 0.119093165 0.054214682 0.18974932 0.14161685 -0.053874124 0.08169552 -0.31690183
-0.028908258 -0.17200887 0.023583058 0.15090154 -0.17338167 -0.14821702 0.028484171 -0.13356417
-0.2105004 -0.043841295 0.17978612 0.22231124 -0.07157591 0.03221552 0.12897871 -0.28568965
-0.16669635 -0.20666106 -0.043035366 -0.14337125 -0.15066795 0.16029939 -0.105138555 0.14325917
-0.05987961 0.08209303 -0.09494316 0.1515189 -0.16459274 -0.028432053 0.36430576 0.23732395
0.043410063 -0.15487616 0.0457995 -0.07742697 -0.021386238 -0.036363617 0.014190452 -0.10511858
0.24386963 -0.23932381 -0.089488864 -0.1737319 0.24203812 -0.43875235 -0.14654084 -1.0509875
1.0071898 0.25240013 -0.20270237 0.22761308 -0.09381913 -0.2953777 0.21678977 -0.041432556
0.11305445 0.12093887 -0.28897658 0.10782715 -0.27579296 0.07700848 -0.10108186 0.10234904
-0.20258935 -0.31322438 -0.2151419 0.28738496 -0.22847804 -0.23612982 -0.07675649 -0.092272505
0.39472193 0.13632634 0.32573777 -0.113987975 -0.5360825 0.04501884 0.22929177 0.3025397
0.1911664 -0.25865668 -0.15168935 -0.22381732 -0.20755725 0.2880554 -0.28169632 0.25283763
-0.4946659 -0.14050935 0.021429298 -0.2798886 -0.32469514 -0.1837436 0.15789163 -0.10297312
-0.3256263 -0.8058999 0.742063 0.1951369 0.0065251044 0.17283988 -0.2894266 -0.47199282
0.3953442 0.66273063 -0.04643359 0.3159289 -0.6244322 0.19804157 -0.16564538 -0.115056954
-0.17271516 -0.2891178 -0.24409328 -0.03099176 -0.0029442487 0.43694317 0.26814553 -0.13781023
0.35922584 -0.078529306 0.017108507 0.4123203 0.39781845 -0.30751267 -0.38864195 0.39210182
0.56453127 0.4386081 0.7000362 -0.019835236 -0.27594754 -0.40821153 -0.068656616 0.14016953
-0.4475421 0.05365299 -0.13888793 0.054310124 -0.02825221 -0.07503414 0.04048305 0.10596713
00000000: 9e89 d93c 2d34 d73d 1dfe 53bd 334f 87be
00000010: 8840 543d 6e80 1f3e 75db 65bc 3b66 4dbd
00000020: d673 f83d 56ef 58be 1312 cd3d f514 e1bc
00000030: 4512 5abe 99ad 01be 3c47 9d3c 0c4a 973c
00000040: 912e 17bc 5b58 2bbe 7b41 203e 71c6 453d
00000050: 7f63 1cbd bc11 c8bd d63d 2dbd 33a3 cebd
00000060: 4c10 0abe 61d7 7cbd 998a 233e d015 cabd
00000070: 4b9c 273d d139 cf3d d35b ed3c 6943 10bb
00000080: 7a5e 0cbe 210e 19bd 2227 ac3d 9598 823d
00000090: c4a5 c13b ae90 b83c 389c 4abe 3aa2 9bbd
000000a0: 402a 943b 2d2c 8d3d 15e9 85bd 7e14 bbbc
000000b0: ed73 10bc 4a82 9a3b 3b10 0a3d 17dc f1bd
000000c0: 8e02 e93d bdc7 2e3e 6399 ed3d d2ad 2a3d
000000d0: b38d 2fbe af41 693c 36af f93d 12dc bdbd
000000e0: 63eb 32be 2f13 e3bd a044 873d 1174 ac3d
000000f0: 20bd c4bc 2cf1 e7bd 60d7 193e 50ed 46be
00000100: 4e2d 1dbd d99d 003e ee5a 13bd f9d6 a63b
00000110: 631c c6bd 6762 cf3c 24ae d33c 569d 50be
00000120: 4199 393e 6ca8 d3bd 6578 0a3e 75fe 4fbc
00000130: 12b4 d13c ae12 8c3d 9428 703e e22e 403e
00000140: 7325 2dbe f629 4bbe 39ab 1f3e afba 663e
00000150: b70d 643d 7583 853e 5f74 b4bd fbb5 3f3e
00000160: b5d2 f33c 7cb8 92be e2b5 693d ab9e 9f3b
00000170: aba2 353e a6cf 303e 1f75 223e 50e8 dabd
00000180: c1cf a5bc ec8c 75bd db4a e33d 8467 093e
00000190: 8e44 cabd 4f02 3d3e 1146 513d 85db c3be
000001a0: d443 483e 1ee7 f33d 3710 5e3d a54d 423e
000001b0: 0204 113e 1dab 5cbd fb4f a73d f540 a2be
000001c0: 03d1 ecbc 1823 30be 4231 c13c ef85 1a3e
000001d0: f78a 31be 34c6 17be a357 e93c 0cc5 08be
000001e0: 6b8d 57be ee92 33bd da19 383e 8fa5 633e
000001f0: 6496 92bd 6cf4 033d ff12 043e ea45 92be
00000200: 73b2 2abe f59e 53be da45 30bd eacf 12be
00000210: b348 1abe 8625 243e e252 d7bd 88b2 123e
00000220: 5244 75bd 6420 a83d 8f71 c2bd c527 1b3e
00000230: 008b 28be 56ea e8bc 4986 ba3e 0d05 733e
00000240: c0ce 313d db97 1ebe 4298 3b3d 0892 9ebd
00000250: 3132 afbc 04f2 14bd 127f 683c 6948 d7bd
00000260: f6b8 793e 4d11 75be f045 b7bd c6e6 31be
00000270: d7d8 773e 26a4 e0be cd0e 16be c286 86bf
00000280: 98eb 803f 973a 813e 3691 4fbe 6713 693e
00000290: 3e24 c0bd bf3b 97be 23fe 5d3e 2fb5 29bd
000002a0: 1789 e73d ccae f73d bdf4 93be 7bd4 dc3d
000002b0: bc34 8dbe 9fb6 9d3d 0204 cfbd 609c d13d
000002c0: 9573 4fbe f25e a0be 294e 5cbe 1f24 933e
000002d0: 26f6 69be 04cc 71be 8232 9dbd 5ef9 bcbd
000002e0: fe18 ca3e 2299 0b3e 1ac7 a63e 8772 e9bd
000002f0: b43c 09bf ad65 383d 76cb 6a3e 7ce6 9a3e
00000300: 20c1 433e a66e 84be 7454 1bbe 5e30 65be
00000310: e389 54be ff7b 933e 803a 90be ef73 813e
00000320: d944 fdbe afe1 0fbe 7f8c af3c 8f4d 8fbe
00000330: 713e a6be 4827 3cbe 58ae 213e 92e3 d2bd
00000340: 7eb8 a6be 754f 4ebf d7f7 3d3f f8d1 473e
00000350: 8bd0 d53b f0fc 303e b92f 94be 0ba9 f1be
00000360: 8e6a ca3e b7a8 293f 2631 3ebd 6fc1 a13e
00000370: cada 1fbf 69cb 4a3e f19e 29be fba2 ebbd
00000380: 3edc 30be 4007 94be 97f3 79be 6ee2 fdbc
00000390: 4cf4 40bb 04b7 df3e 5f4a 893e 201e 0dbe
000003a0: 73ec b73e f9d3 a0bd 2427 8c3c a51b d33e
000003b0: dcae cb3e 4d72 9dbe 14fc c6be 92c1 c83e
000003c0: 1f85 103f 3e91 e03e 9335 333f 817d a2bc
000003d0: ff48 8dbe 1a01 d1be d79b 8cbd 9a88 0f3e
000003e0: 3d24 e5be 3dc3 5b3d a338 0ebe 4b74 5e3d
000003f0: 2e71 e7bc 80ab 99bd 8ed1 253d 4b05 d93d

lstm.weight_hh_l1 f4 [200, 50]
-0.08562108 0.14238173 0.04887358 -0.09608279 0.051480927 0.032875124 -0.08812907 -0.045611963
-0.0045724143 -0.23661433 0.022920724 -0.21321471 -0.06776295 -0.16955581 0.13344648 -0.16333008
-0.12483572 -0.22831886 0.18285993 -0.11864674 0.057555996 -0.10705533 -0.100034855 0.01695151
-0.0039102524 -0.115027525 -0.008475953 0.23101336 0.17695896 0.015167693 0.50625503 -0.051147815
-0.28324983 0.040456258 0.02864062 -0.113243595 0.027188193 0.027859556 0.031333745 -0.021691583
0.1007135 0.13879107 -0.19453885 -0.0008603912 -0.0662483 0.1773929 -0.11401463 0.0306555
0.082709506 0.11933303 0.10880072 0.109004214 0.35823837 -0.14344367 -0.30997804 0.12655404
-0.23787883 -0.11143546 -0.1730073 0.0048041525 0.036452256 0.018584292 0.047572568 -0.07610286
0.21336362 -0.17596996 -0.21653023 -0.13856117 -0.3348805 -0.23099865 -0.10510354 0.16148417
0.073240355 0.073079735 0.17352556 -0.22831674 0.21093108 0.18769635 0.08377759 -0.018029844
0.50546825 0.32140034 -0.3478587 0.061677307 -0.17970535 -0.10033894 -0.1830125 0.15128896
0.02592977 0.32122034 -0.10644576 0.007015578 -0.07527819 -0.011034759 0.091094166 0.13188334
0.15115602 0.031018954 0.4903693 -0.07204315 -0.005394707 -0.08558488 0.06748946 -0.16639397
0.50073326 -0.10516627 0.08561303 0.02891167 0.23014227 0.12983762 0.16723053 -0.057927452
-0.018601391 0.05789478 0.1120178 0.15861155 0.068936676 -0.103406735 0.022178508 -0.25841856
0.17417805 -0.38572988 0.28003037 0.10191987 0.0350066 -0.034781545 0.10163899 0.1910354
0.033509973 0.18719879 -0.18633194 -0.34639087 0.08630656 -0.15144335 0.015344765 0.042751953
0.17701682 -0.026712153 0.102161266 0.00064842234 -0.35313854 -0.27022249 -0.3070987 0.10521426
0.18797423 0.3199451 0.04652792 -0.010642719 -0.13337347 0.065108195 0.17757607 -0.026322294
0.35312697 -0.87097716 -0.6979211 -0.420585 -0.04859784 0.26224616 -0.7171587 0.14302762
0.036281183 0.27318165 -0.21978869 0.032771807 -0.13088912 -0.1628153 0.09472751 -0.3470418
-0.2407375 -0.17004886 0.031222643 0.09690615 -0.08265827 -0.34529814 -0.13093306 -0.2556141
0.3978998 0.09374706 -0.32717794 -0.19491935 1.2218698 0.16965252 -0.38220516 0.33213857
0.2363884 -0.4911108 -0.28706506 -0.11620417 -0.2109338 -0.27351302 -0.004068875 -0.15512262
-0.047579728 -0.24120155 -0.10640358 0.18330485 -0.28694442 -0.04359943 0.42590073 0.08931766
0.21284126 -0.15374762 -0.10373327 -0.5423529 -0.31920302 -0.22085096 0.27515453 -0.33877328
-0.13869864 0.3349322 -0.10235375 0.406238 -0.057546478 0.09173521 -0.23135991 0.13418558
0.3381179 -0.304639 -0.396804 0.20028795 -0.28326827 0.43381956 -0.0890969 0.16787031
-0.25521177 -0.026395407 0.14448865 -0.37169293 -0.5932065 -0.04723602 1.5258001 0.4318922
-0.34352016 0.22780646 0.14066367 -0.21842371 0.023498287 -0.14478263 -0.40157855 0.124720015
0.40618086 -0.051451296 -0.5243383 -0.07814423 -0.049398165 0.37177825 0.74579114 -0.20249432
0.6384164 -0.34214988 0.085261196 0.34654132 0.160754 -0.106920294 -0.075490795 0.06590533
00000000: 1b5a afbd 84cc 113e aa2f 483d 0ec7 c4bd
00000010: aadd 523d 11a8 063d 047d b4bd 9cd3 3abd
00000020: 31d4 95bb 074b 72be 3ec4 bb3c f554 5abe
00000030: 4dc7 8abd 0aa0 2dbe 32a6 083e 0040 27be
00000040: dfa9 ffbd 6bcc 69be a23f 3b3e 10fd f2bd
00000050: d6bf 6b3d d33f dbbd 13df ccbd e5dd 8a3c
00000060: 9321 80bb 8d93 ebbd b9de 0abc c48e 6c3e
00000070: bb34 353e ea81 783c ee99 013f 5f80 51bd
00000080: 1f06 91be 76b5 253d bc9f ea3c 42ec e7bd
00000090: c6b9 de3c b939 e43c d057 003d 8cb2 b1bc
000000a0: e142 ce3d 3f1f 0e3e 3135 47be e08b 61ba
000000b0: 30ad 87bd 7ca6 353e 8180 e9bd 3e21 fb3c
000000c0: 9a63 a93d e064 f43d e9d2 de3d 9a3d df3d
000000d0: 056b b73e e6e2 12be 71b5 9ebe 6297 013e
000000e0: 8296 73be 4638 e4bd d328 31be 276c 9d3b
000000f0: f64e 153d 163e 983c 74db 423d d1db 9bbd
00000100: fe7b 5a3e 7831 34be 1aba 5dbe fbe2 0dbe
00000110: 7575 abbe e98a 6cbe 8640 d7bd 1b5c 253e
00000120: 0aff 953d d4aa 953d afb0 313e ddcb 69be
00000130: 51fe 573e 7933 403e 9693 ab3d 53b3 93bc
00000140: 5e66 013f 968e a43e 891a b2be 58a1 7c3d
00000150: ae04 38be 817e cdbd a167 3bbe 7eeb 1a3e
00000160: ab6a d43c fe76 a43e 3c00 dabd efe2 e53b
00000170: 742b 9abd 22cb 34bc 948f ba3d 6d0c 073e
00000180: a5c8 1a3e 761b fe3c af11 fb3e 5c8b 93bd
00000190: 15c6 b0bb 2047 afbd ea37 8a3d 2e63 2abe
000001a0: 0e30 003f 6a61 d7bd e255 af3d 2bd8 ec3c
000001b0: 6aaa 6b3e 27f4 043e 7b3e 2b3e 5645 6dbd
000001c0: f261 98bc 1423 6d3d 9769 e53d 116b 223e
000001d0: ac2e 8d3d e9c6 d3bd b4af b53c 704f 84be
000001e0: bb5b 323e 637e c5be 2460 8f3e 5dbb d03d
000001f0: 1563 0f3d 1877 0ebd 1a28 d03d c99e 433e
00000200: c141 093d 0ab1 3f3e cdcd 3ebe 255a b1be
00000210: 7ec1 b03d f713 1bbe 9c68 7b3c ac1c 2f3d
00000220: e643 353e 72d3 dabc ed39 d13d e3fa 293a
00000230: 93ce b4be 9a5a 8abe 0a3c 9dbe 937a d73d
00000240: 517c 403e d8cf a33e 0f94 3e3d cd5e 2ebc
00000250: 0e93 08be 7257 853d 80d6 353e daa1 d7bc
00000260: 0fcd b43e 5cf8 5ebf f5aa 32bf eb56 d7be
00000270: 870e 47bd 2145 863e b697 37bf d575 123e
00000280: 949b 143d 77de 8b3e 4910 61be bb3b 063d
00000290: cc07 06be 0eb9 26be 7f00 c23d 76af b1be
000002a0: e483 76be 4a21 2ebe a1c6 ff3c bb76 c63d
000002b0: bd48 a9bd ebca b0be 5113 06be dadf 82be
000002c0: 86b9 cb3e 75fe bf3d de83 a7be f098 47be
000002d0: 3b66 9c3f 64b9 2d3e 65b0 c3be 110e aa3e
000002e0: cd0f 723e e072 fbbe 31fa 92be 74fc edbd
000002f0: 08ff 57be e609 8cbe 3354 85bb 77d8 1ebe
00000300: f6e2 42bd 8afd 76be 1fea d9bd 44b4 3b3e
00000310: 61ea 92be 5195 32bd a90f da3e 2dec b63d
00000320: 0ff3 593e 0470 1dbe 1c72 d4bd a4d7 0abf
00000330: 946e a3be c126 62be 0ee1 8c3e b173 adbe
00000340: 0407 0ebe 3c7c ab3e d89e d1bd 6dfe cf3e
00000350: dbb5 6bbd abdf bb3d 9de9 6cbe f267 093e
00000360: ca1d ad3e a5f9 9bbe e529 cbbe 4918 4d3e
00000370: 8a08 91be 991d de3e 6f78 b6bd 32e6 2b3e
00000380: 1eab 82be 2e3b d8bc d5f4 133e 894e bebe
00000390: 62dc 17bf 8f7a 41bd 6b4d c33f f920 dd3e
000003a0: e0e1 afbe 1946 693e 230a 103e 77aa 5fbe
000003b0: 7b7f c03c e641 14be b49b cdbe 356d ff3d
000003c0: f0f6 cf3e 98be 52bd 093b 06bf 150a a0bd
000003d0: bb55 4abd b859 be3e 2bec 3e3f ac5a 4fbe
000003e0: 426f 233f 452e afbe 6c9d ae3d dd6d b13e
000003f0: b29c 243e 07f9 dabd eb9a 9abd 60f9 863d

lstm.bias_ih_l1 f4 [200]
0.07736273 0.18242821 -0.021107275 0.107699215 0.20043077 0.032473657 0.079678625 -0.018558145
-0.1201269 -0.03594526 -0.038732633 0.056001235 -0.028834427 -0.015371219 0.14963876 -0.016888624
0.039061107 0.34487048 0.031968407 -0.024757616 0.059348732 0.32081953 -0.047412716 0.039555833
-0.02979584 0.08960131 0.118188955 -0.09228186 0.060341075 -0.029589863 0.502252 -0.013110429
0.14641733 -0.1813358 -0.009013864 0.34719914 0.083674766 0.046461225 -0.0055068485 0.0049958434
0.18750842 0.03138812 0.26811934 -0.06473133 -0.09139789 0.063930765 0.14087456 -0.062302463
0.24147964 0.08803232 -0.06019109 -0.13242671 -0.083494276 0.20861079 0.09890531 -0.055181526
-0.021364061 -0.12934174 0.09951708 0.11998708 0.14779335 0.016745191 0.012631701 -0.08195404
0.004542077 -0.087546825 0.10558527 -0.020789184 0.13828631 0.0016438825 -0.007813243 -0.1408018
0.03734472 0.053109422 0.03797134 0.049365684 0.091528885 -0.1767426 0.006534518 0.06578907
0.057721514 -0.07288018 -0.13705598 -0.11187297 -0.057563085 -0.19311479 -0.019985547 -0.06803651
-0.17231782 0.11860013 0.11278838 -0.00645323 0.045647644 0.118446164 -0.019730316 -0.09373069
0.14187142 -0.08010591 0.04017521 -0.06514089 0.014245635 -0.011211261 -0.10890989 0.030485725
0.110337295 -0.03201998 0.079939224 -0.0060934573 0.01326824 0.03049903 -0.08656014 -0.052067656
-0.17123502 0.092366934 -0.04208276 0.13830298 0.019624593 -0.052577216 -0.083802976 -0.050621122
-0.11405551 -0.024735743 -0.005417139 0.1266966 -0.13508071 -0.039702293 0.07175434 0.014734627
0.16218598 -0.04766164 -0.06891363 -0.022609737 -0.09164282 0.08991757 0.07187403 -0.07020138
0.011055562 -0.123090796 0.016241768 0.06422014 -0.051732387 -0.071188934 -0.025887372 -0.051217947
-0.13206346 0.19891539 -0.030886717 -0.121185504 -0.03808798 0.08110192 0.040470373 -0.0030051258
-0.048502408 -0.14740485 0.10072064 -0.11237275 0.15819784 -0.25308788 -0.06602704 -0.13336655
-0.10503704 -0.1212944 -0.12663001 -0.0682507 0.05750232 0.039705046 0.10303258 0.18128385
0.14734827 -0.011909594 0.04556445 0.21900937 0.10083984 0.0566689 -0.09503242 0.18282759
-0.02997134 0.072681196 -0.10034898 0.12502761 0.5282764 -0.03840925 0.0522671 -0.18020476
-0.13449763 0.5343489 -0.15836255 -0.10448548 0.08466785 0.046679005 0.07226696 -0.093906805
0.17992301 -0.022751832 0.0025474636 -0.027880305 0.07756648 0.028284665 0.21456125 -0.11750104
00000000: 5a70 9e3d 76ce 3a3e 2ae9 acbc 6891 dc3d
00000010: b93d 4d3e 1903 053d 8c2e a33d 4007 98bc
00000020: 1805 f6bd 563b 13bd 1ca6 1ebd 8d61 653d
00000030: 2d36 ecbc 91d7 7bbc e73a 193e 035a 8abc
00000040: 8afe 1f3d dd92 b03e 4ef1 023d 7cd0 cabc
00000050: a817 733d 7542 a43e d633 42bd 4c05 223d
00000060: 6816 f4bc e480 b73d 0d0d f23d 46fe bcbd
00000070: 3428 773d 7166 f2bc 9693 003f 20cd 56bc
00000080: 6dee 153e 18b0 39be e3ae 13bc 16c4 b13e
00000090: ad5d ab3d 204e 3e3d cb72 b4bb 2cb4 a33b
000000a0: 3502 403e d490 003d f046 893e dc91 84bd
000000b0: d12e bbbd 22ee 823d 6c41 103e de30 7fbd
000000c0: 7046 773e 4a4a b43d ef8a 76bd de9a 07be
000000d0: 0cff aabd 119e 553e de8e ca3d 0606 62bd
000000e0: af03 afbc 2972 04be 9ccf cb3d c9bb f53d
000000f0: 2457 173e 362d 893c 32f5 4e3c 85d7 a7bd
00000100: b4d5 943b c04b b3bd 173d d83d 144e aabc
00000110: ed9a 0d3e 8b77 d73a 1e03 00bc 592e 10be
00000120: c7f6 183d 4489 593d d687 1b3d ac33 4a3d
00000130: 7f73 bb3d 03fc 34be 831f d63b 6cbc 863d
00000140: 656d 6c3d 3442 95bd 6758 0cbe a81d e5bd
00000150: 45c7 6bbd e2bf 45be bbb8 a3bc ba56 8bbd
00000160: 1574 30be a0e4 f23d 98fd e63d 9e75 d3bb
00000170: 06f9 3a3d e793 f23d 79a1 a1bc e0f5 bfbd
00000180: be46 113e 910e a4bd c38e 243d 9668 85bd
00000190: 8666 693c 70af 37bc 260c dfbd 33bd f93c
000001a0: 85f8 e13d 6227 03bd 2db7 a33d a0ab c7bb
000001b0: 0863 593c 1ad9 f93c 7146 b1bd e544 55bd
000001c0: 3c58 2fbe e02a bd3d f95e 2cbd 4c9f 0d3e
000001d0: c1c3 a03c 355b 57bd e5a0 abbd 1858 4fbd
000001e0: ef95 e9bd 9da2 cabc 4182 b1bb c1bc 013e
000001f0: 9952 0abe df9e 22bd f0f3 923d 8169 713c
00000200: 1514 263e da38 43bd 9722 8dbd 0e38 b9bc
00000210: 3baf bbbd b426 b83d b132 933d bec5 8fbd
00000220: 6322 353c 0717 fcbd 750d 853c d985 833d
00000230: 57e5 53bd 81cb 91bd c111 d4bc e9c9 51bd
00000240: a53b 07be 7ab0 4b3e 2406 fdbc 1b30 f8bd
00000250: 2402 1cbd c318 a63d 43c4 253d a5f1 44bb
00000260: 76aa 46bd 4cf1 16be 9f46 ce3d af23 e6bd
00000270: 9dfe 213e bc94 81be 2f39 87bd 3e91 08be
00000280: a91d d7bd 3369 f8bd 4cab 01be 06c7 8bbd
00000290: 8d87 6b3d c2a1 223d bf02 d33d 79a2 393e
000002a0: 77e2 163e 7520 43bc caa1 3a3d fe43 603e
000002b0: 1e85 ce3d a61d 683d 5ba0 c2bd 2837 3b3e
000002c0: 7586 f5bc e1d9 943d c483 cdbd 3d07 003e
000002d0: 1f3d 073f 0553 1dbd 0716 563d 9987 38be
000002e0: bfb9 09be 17cb 083f cb29 22be 7cfc d5bd
000002f0: 5666 ad3d 7c32 3f3d b300 943d 3652 c0bd
00000300: bd3d 383e 0d62 babc 59f3 263b 3d65 e4bc
00000310: 2ddb 9e3d 3eb5 e73c f2b5 5b3e 63a4 f0bd

lstm.bias_hh_l1 f4 [200]
0.077438116 0.13368836 0.13775189 0.16115685 0.18692784 0.013222489 0.15858907 -0.122852944
0.04154712 -0.11137743 -0.092582025 0.038260084 0.19361375 0.1452542 0.07238511 -0.14770368
0.11853097 0.08415958 -0.06493121 0.1925422 0.13974401 0.28469136 0.09668706 0.14710653
-0.13075212 0.20210664 0.06417565 -0.027720094 0.052887436 0.051177796 0.5181739 0.004286539
0.124055155 -0.14894643 0.024107553 0.5914789 0.0071963533 -0.004895488 0.088701986 -0.11853711
0.12656753 0.020731615 0.1465786 -0.024111234 -0.047836088 -0.12876748 0.21519378 -0.101472
0.25425047 -0.0941159 -0.07159908 0.12337935 0.093718395 0.3498193 0.14276041 0.10974978
0.013276554 -0.03453643 -0.08117114 -0.117338054 -0.018610485 0.04473121 0.07442738 -0.08878041
-0.13163456 0.07153365 -0.14526087 -0.075215 0.045906853 -0.032574367 -0.002476626 -0.17427443
-0.017430555 -0.13909769 -0.107432336 -0.025439119 0.05953394 0.05393705 -0.00256232 -0.08116045
-0.0227039 0.0889986 -0.1059578 -0.044025805 0.029449658 -0.006157426 -0.0920188 -0.06744895
-0.12037975 0.07705101 -0.042314112 0.16898894 0.1440125 0.07451969 -0.1689945 -0.15364912
0.14753497 -0.12432472 0.07131172 0.04267222 0.0570848 -0.060963176 0.1141762 -0.046101354
-0.027989663 0.076299116 -0.09196467 -0.040062174 -0.05240945 0.11281636 0.084372915 0.04202309
0.10488622 -0.015825454 0.071610704 0.14662963 0.14833827 0.06892384 0.13593334 0.07637274
0.001191931 -0.0055815703 -0.08517662 -0.052542947 -0.07128112 -0.012328168 0.0879302 -0.09780744
-0.07314639 0.06772089 0.056730334 -0.03453563 0.14005257 0.065721855 0.028568469 0.1281706
0.09536218 0.08480542 -0.105548024 0.088976555 0.028710324 0.09888833 -0.038634464 0.049681593
0.12914138 0.16166455 0.094282165 -0.11003209 -0.0082868375 -0.0852145 -0.14888386 0.10009559
0.12796551 -0.030774703 0.071618415 0.00027859918 -0.022818577 -0.20239705 0.05492458 0.074935555
-0.053322308 0.034560263 -0.07462117 -0.006233665 0.018442852 -0.15932028 0.023662863 0.28404525
0.099954784 0.12486486 -0.047873475 0.15976131 -0.105540514 -0.04134988 0.0030985463 0.16132754
-0.018872524 -0.15162289 0.0904593 0.09870165 0.6400328 -0.007349132 0.27335328 -0.15862612
0.0115515385 0.54225224 0.03671079 0.031646974 0.06852098 0.10362784 0.12018202 0.0015995284
-0.0013876229 -0.121128805 -0.23727366 -0.10788869 0.01083895 0.0081834905 0.26755303 -0.13605043
00000000: e097 9e3d 9ae5 083e d50e 0d3e 4d06 253e
00000010: 036a 3f3e 23a3 583c 2c65 223e 539a fbbd
00000020: 502d 2a3d da19 e4bd a59b bdbd 9bb6 1c3d
00000030: af42 463e 84bd 143e a53e 943d a23f 17be
00000040: 5dc0 f23d dc5b ac3d a7fa 84bd c829 453e
00000050: 0e19 0f3e 11c3 913e de03 c63d 18a3 163e
00000060: e2e3 05be 0bf5 4e3e 866e 833d 4015 e3bc
00000070: 7fa0 583d cf9f 513d 0ba7 043f 1876 8c3b
00000080: a110 fe3d 6a85 18be 347d c53c 296b 173f
00000090: 63cf eb3b 546a a0bb 63a9 b53d 96c3 f2bd
000000a0: eb9a 013e 59d5 a93c b318 163e ec84 c5bc
000000b0: c6ef 43bd 9fdb 03be c25b 5c3e 8dd0 cfbd
000000c0: 1e2d 823e d6bf c0bd 8aa2 92bd 50ae fc3d
000000d0: 6eef bf3d 841b b33e c92f 123e 7ec4 e03d
000000e0: e785 593c 1276 0dbd 0e3d a6bd ef4e f0bd
000000f0: 0475 98bc 1338 373d 626d 983d 81d2 b5bd
00000100: 36cb 06be 3c80 923d 44bf 14be 520a 9abd
00000110: d308 3c3d b36c 05bd e44e 22bb ff74 32be
00000120: 86ca 8ebc a06f 0ebe 7c05 dcbd b365 d0bc
00000130: dcd9 733d 19ed 5c3d 99ec 27bb 7337 a6bd
00000140: 87fd b9bc e644 b63d 6700 d9bd 6754 34bd
00000150: 6940 f13c 3cc4 c9bb 5a74 bcbd ad22 8abd
00000160: a989 f6bd eccc 9d3d 9051 2dbd 700b 2d3e
00000170: 0378 133e c79d 983d e50c 2dbe 3256 1dbe
00000180: 6813 173e f59d febd e10b 923d 11c9 2e3d
00000190: c0d1 693d 86b4 79bd 36d5 e93d c6d4 3cbd
000001a0: 944a e5bc b642 9c3d f957 bcbd 3c18 24bd
000001b0: 4bab 56bd 440c e73d b5cb ac3d 6720 2c3d
000001c0: 96ce d63d 62a4 81bc a2a8 923d 1426 163e
000001d0: fde5 173e f127 8d3d 1c32 0b3e 5069 9c3d
000001e0: 913a 9c3a 9be5 b6bb 1471 aebd 4637 57bd
000001f0: d6fb 91bd 16fc 49bc c014 b43d 444f c8bd
00000200: c6cd 95bd 40b1 8a3d 115e 683d 3c75 0dbd
00000210: f169 0f3e 2e99 863d 6c08 ea3c 273f 033e
00000220: 3f4d c33d 77ae ad3d 9029 d8bd 5739 b63d
00000230: ea31 eb3c f785 ca3d 2c3f 1ebd ed7e 4b3d
00000240: a33d 043e 648b 253e 0217 c13d 8158 e1bd
00000250: 84c5 07bc f184 aebd 0375 18be ebfe cc3d
00000260: 6409 033e 3b1b fcbc adac 923d f310 9239
00000270: 06ee babc 2c41 4fbe 99f8 603d d077 993d
00000280: 7e68 5abd 108f 0d3d fcd2 98bd c643 ccbb
00000290: 7715 973c db24 23be 9fd8 c13c 616e 913e
000002a0: 18b5 cc3d 26b9 ff3d fa16 44bd 7898 233e
000002b0: a025 d8bd 7e5e 29bd fb10 4b3b 0c33 253e
000002c0: 8d9a 9abc 0843 1bbe ba42 b93d 1724 ca3d
000002d0: 31d9 233f fdd0 f0bb f6f4 8b3e e36e 22be
000002e0: aa42 3d3c 0bd1 0a3f 0e5e 163d 42a0 013d
000002f0: ba54 8c3d d53a d43d fe21 f63d 44a7 d13a
00000300: e6e0 b5ba 6112 f8bd def7 72be bff4 dcbd
00000310: da95 313c 0c14 063c b6fc 883e ce50 0bbe

fc.weight f4 [1, 50]
0.11907311 -0.15200354 0.018497067 -0.14855343 -0.13285619 -0.0725454 0.1298699 -0.059717987
-0.027961276 0.12373767 -0.10476443 0.117808044 0.0042509856 0.17615649 -0.11327942 0.116292864
0.13518868 0.19852188 0.0340721 0.113139994 -0.1347952 0.14279357 -0.05265109 0.15690021
-0.14552349 0.11760368 0.06892528 -0.05676131 0.070823394 0.13061856 -0.1452041 -0.10247253
0.14182541 0.009071995 0.041826513 0.29468092 0.095875725 -0.08068368 -0.065289624 -0.10706688
-0.0068793558 0.012935256 0.10138261 0.014037577 -0.018094538 -0.08068913 0.023515072 -0.121692814
-0.13311625 -0.09194215
00000000: 9adc f33d d1a6 1bbe 2987 973c 641e 18be
00000010: 740b 08be af92 94bd 9dfc 043e d99a 74bd
00000020: 0c0f e5bc 2d6a fd3d bc8e d6bd 5845 f13d
00000030: da4b 8b3b 5e62 343e 0aff e7bd f42a ee3d
00000040: e76e 0a3e 5249 4b3e 308f 0b3d f1b5 e73d
00000050: c107 0abe 7a38 123e aba8 57bd 73aa 203e
00000060: 1c04 15be 33da f03d b228 8d3d 8c7e 68bd
00000070: db0b 913d dfc0 053e 62b0 14be 1edd d1bd
00000080: ae3a 113e b4a2 143c 4752 2b3d 6be0 963e
00000090: 7e5a c43d 7c3d a5bd 91b6 85bd e145 dbbd
000000a0: 386c e1bb 65ee 533c b0a1 cf3d defd 653c
000000b0: ff3a 94bc 5840 a5bd aea2 c03c 153a f9bd
000000c0: a04f 08be 2a4c bcbd
