LSTM/stock_Model/2330.pth (torch, 131029 bytes, 9 tensors)

lstm.weight_ih_l0 f4 [200, 5]
0.03458205 0.21662995 -0.021413516 0.20341556 0.037783194 0.11097949 -0.004490481 0.15143949
-0.018769722 0.13169825 0.06611287 0.0419709 -0.0072761504 0.034392457 -0.02420818 0.007059444
0.1490272 0.052884843 -0.03061837 0.13480225 0.122331314 0.03266593 -0.07675743 0.017799933
0.016638411 0.19395134 0.20345345 0.050597563 0.17557868 -0.090291195 0.015915107 0.17599468
0.058236383 0.067206256 0.0622208 0.16123034 -0.057440363 0.20682581 0.04267414 0.06724882
0.040803853 -0.059888896 0.013747208 -0.027590213 0.082941376 0.0739499 -0.010698945 0.057861347
0.16290416 0.06862641 -0.08788915 -0.012612474 0.099769264 0.008104516 0.08160334 0.06323607
-0.025109584 -0.081812516 0.072152905 0.023525864 -0.054398775 0.037276544 -0.048495572 -0.031705245
-0.05364378 -0.036267426 0.0108641405 0.017206483 0.06971325 -0.025616705 -0.05263741 -0.029810326
0.03848424 0.11399044 -0.0626447 0.1110738 -0.06092045 0.07214753 0.16203532 -0.073605634
0.032270093 0.033337098 0.060098432 -0.019307185 0.06089066 -0.016384529 -0.06490762 0.1289608
-0.05137656 -0.17745428 -0.1281731 -0.08475875 -0.0327232 -0.0598145 0.018034138 0.027292745
-0.0010976639 -0.044097755 -0.07187684 0.049118757 -0.07515492 0.076698795 0.1772579 0.13835523
0.027848065 0.03967109 -0.077777766 0.09711153 0.18420392 0.023979185 -0.056216393 -0.1280961
0.07065005 0.00020492924 0.053208556 0.022640763 -0.13731855 -0.090775326 -0.07788835 0.062286798
-0.13641705 -0.030977115 -0.0095979925 -0.13997169 -0.02396096 -0.082675874 -0.006817289 0.015422983
0.1289058 0.047322948 -0.14700787 -0.0032055983 -0.1245031 -0.12515047 -0.08363016 0.1438576
0.108082324 -0.045621663 -0.04757087 -0.10526936 0.14086443 0.08080076 0.1452567 0.14400941
-0.021082351 0.008339428 -0.046401624 0.12335988 0.02008658 0.010719707 0.122135304 0.11572413
0.0793786 -0.07011389 -0.15232635 -0.0131666465 -0.10499044 0.10264615 0.0072336635 -0.089073785
0.1056681 -0.07796529 -0.06154504 -0.11421563 0.074045956 0.13677993 -0.048733987 0.14067999
-0.024470376 -0.10465318 -0.103210755 -0.15046972 -0.1635843 0.08416955 -0.11290098 0.13183942
0.110563874 -0.06704168 0.052086845 0.008574902 -0.007824597 0.21523206 0.13336554 0.21313913
0.031110361 0.19279964 0.16416712 0.1832162 -0.03164691 -0.001384185 -0.08330612 0.085766986
0.106713116 0.11846793 -0.0376928 -0.010156316 0.0055739544 -0.007305551 -0.040926307 0.051370393
-0.05429035 -0.05369679 -0.051692516 0.063285016 0.092785604 0.024606455 0.010012062 -0.0052997274
0.20577714 -0.056410365 -0.060222615 -0.16973802 -0.04818812 -0.044187475 -0.010422142 0.13826254
0.06173552 -0.08256144 0.09153888 0.09857675 -0.017219203 0.17957662 0.18530172 0.12838511
-0.11457901 0.0535243 0.083135 0.010781194 0.20154992 0.050129224 0.14815731 -0.038012538
0.010190105 0.0329622 -0.032416992 0.19420587 0.15152824 -0.03078131 0.06974471 0.010839619
-0.009004635 -0.07551831 -0.034359764 0.04972473 -0.08301944 0.117721125 0.18023726 0.14005741
0.15166582 -0.1289543 0.073496 0.1271435 0.04113178 0.19636415 -0.09292145 0.15458971
00000000: e8a5 0d3d 3ed4 5d3e 666b afbc 2b4c 503e
00000010: 8dc2 1a3d 3749 e33d e324 93bb f412 1b3e
00000020: f6c2 99bc e8db 063e 2f66 873d aee9 2b3d
00000030: c66c eebb 1bdf 0c3d 3c50 c6bc e952 e73b
00000040: 969a 183e c79d 583d 60d3 fabc 9a09 0a3e
00000050: d788 fa3d b6cc 053d 0033 9dbd 2ad1 913c
00000060: 474d 883c 2e9b 463e 1a56 503e 643f 4f3d
00000070: e6ca 333e 97ea b8bd 6660 823c f337 343e
00000080: 4689 6e3d 6fa3 893d 3ddb 7e3d 9119 253e
00000090: 9646 6bbd 25ca 533e 14cb 2e3d c0b9 893d
000000a0: f121 273d 0f4e 75bd f83b 613c df04 e2bc
000000b0: 2bdd a93d 0c73 973d a14a 2fbc 0500 6d3d
000000c0: 59d0 263e 018c 8c3d 3aff b3bd 8da4 4ebc
000000d0: d453 cc3d cec8 043c a71f a73d ea81 813d
000000e0: 9db2 cdbc 528d a7bd e7c4 933d 50b9 c03c
000000f0: 40d1 5ebd 4aaf 183d 4ba3 46bd 5cdd 01bd
00000100: 95b9 5bbd 278d 14bd 82ff 313c 9cf4 8c3c
00000110: d2c5 8e3d 20da d1bc 539a 57bd c934 f4bc
00000120: a7a1 1d3d d273 e93d dd4b 80bd a97a e33d
00000130: b987 79bd 16c2 933d 96ec 253e 8dbe 96bd
00000140: a52d 043d 7b8c 083d c629 763d 1a2a 9ebc
00000150: 7c68 793d d938 86bc 49ee 84bd 4d0e 043e
00000160: 3a70 52bd 93b6 35be cf3f 03be ff95 adbd
00000170: c308 06bd 0d00 75bd 54bc 933c 0995 df3c
00000180: 7ddf 8fba d99f 34bd 2a34 93bd c030 493d
00000190: d3ea 99bd 4214 9d3d 1883 353e feac 0d3e
000001a0: a021 e43c 277e 223d f349 9fbd 69e2 c63d
000001b0: f49f 3c3e ff6f c43c 2943 66bd a02b 03be
000001c0: f9b0 903d 46e2 5639 37f1 593d 1f79 b93c
000001d0: 3c9d 0cbe 6ae8 b9bd ed83 9fbd 7120 7f3d
000001e0: e9b0 0bbe b8c3 fdbc e640 1dbc bd54 0fbe
000001f0: c649 c4bc f851 a9bd 9163 dfbb aeb0 7c3c
00000200: e2ff 033e b5d5 413d 3b89 16be 0415 52bb
00000210: 7bfb febd 7227 00be 4a46 abbd 684f 133e
00000220: 445a dd3d c8dd 3abd acd9 42bd 7697 d7bd
00000230: c43e 103e de7a a53d 2cbe 143e 3477 133e
00000240: e5b4 acbc 19a2 083c a10f 3ebd 1ba4 fc3d
00000250: 9d8c a43c b6a1 2f3c 1322 fa3d c600 ed3d
00000260: 3f91 a23d df97 8fbd 70fb 1bbe ebb8 57bc
00000270: 3a05 d7bd 2538 d23d 5e08 ed3b 516c b6bd
00000280: 8468 d83d 44ac 9fbd a716 7cbd e2e9 e9bd
00000290: 68a5 973d 0a10 0c3e 4a9d 47bd 6a0e 103e
000002a0: 1976 c8bc 6854 d6bd 2960 d3bd bc14 1abe
000002b0: a582 27be 1661 ac3d a138 e7bd ea00 073e
000002c0: 506f e23d 264d 89bd 0459 553d bf7d 0c3c
000002d0: bd32 00bc cb65 5c3e fa90 083e 2541 5a3e
000002e0: 28db fe3c 456d 453e 6d1b 283e 079d 3b3e
000002f0: 31a0 01bd 8b6d b5ba 669c aabd 9aa6 af3d
00000300: 688c da3d 509f f23d c463 1abd ad66 26bc
00000310: b8a5 b63b 6763 efbb 58a2 27bd c369 523d
00000320: 8f5f 5ebd 2af1 5bbd 88bb 53bd 939b 813d
00000330: 6106 be3d 7a93 c93c a209 243c 56a9 adbb
00000340: 3eb7 523e 8e0e 67bd fdab 76bd cecf 2dbe
00000350: e860 45bd edfd 34bd a2c1 2abc b294 0d3e
00000360: 62de 7c3d f915 a9bd bc78 bb3d 9be2 c93d
00000370: 490f 8dbc efe2 373e bcbf 3d3e 6377 033e
00000380: 66a8 eabd 4c3c 5b3d af42 aa3d 9ba3 303c
00000390: 1a63 4e3e 4d54 4d3d 8db6 173e 09b3 1bbd
000003a0: 66f4 263c 5f03 073d aec7 04bd e7dd 463e
000003b0: 382a 1b3e 1629 fcbc 51d6 8e3d a898 313c
000003c0: 2d88 13bc 58a9 9abd d3bc 0cbd 29ac 4b3d
000003d0: 1906 aabd c617 f13d 1e90 383e 366b 0f3e
000003e0: 494e 1b3e 990c 04be 1285 963d e831 023e
000003f0: cc79 283d af13 493e 9a4d bebd c44c 1e3e

lstm.weight_hh_l0 f4 [200, 50]
0.103434786 0.0582084 -0.017564366 0.108069904 0.04634644 -0.07105269 0.06905198 0.06067764
-0.114057444 -0.0033855406 0.1234307 0.13517754 -0.07366957 -0.12482151 -0.07425712 -0.020610787
-0.005785035 0.108974196 -0.13339187 -0.0049376106 0.055196278 -0.023268567 0.1368058 -0.09067006
-0.043877747 -0.086402036 -0.019895574 -0.13434252 0.06927785 -0.07256965 -0.15836929 -0.09863881
-0.08856735 -0.12479507 0.12746502 -0.10184716 -0.056699075 0.07400751 -0.1288261 0.10913508
0.12570453 -0.066198975 -0.0039444985 -0.08566819 0.13485599 0.15747207 0.07810029 -0.022141213
-0.098429665 0.015532048 0.113062024 -0.058441147 -0.103986725 0.010467181 0.020729855 0.0040159216
0.043726902 -0.03710291 -0.12718676 0.14130342 -0.017513968 -0.00823371 -0.11090319 0.036988366
-0.12587754 -0.04234325 0.039451655 0.14885725 -0.028205808 -0.122476354 -0.019931402 -0.048698895
-0.03164653 -0.0032591785 -0.08716767 -0.124671146 0.09702553 0.088908695 0.04393994 0.11552014
-0.14652592 -0.11416517 -0.01975536 0.060719352 0.09750535 0.117425695 -0.08465511 0.08815585
0.10475824 0.10417301 0.043733377 -0.019895049 -0.029996831 0.093450375 0.16764334 0.1628171
-0.004271297 0.034599397 -0.087505594 0.0034586864 0.033405762 -0.039917506 -0.1277055 0.08392263
-0.050818883 -0.11732595 0.14357415 -0.11021845 0.07228776 -0.1382512 -0.0238223 0.096314505
0.07148589 0.062135324 -0.080943786 -0.10515763 0.108435094 0.08084419 -0.07520646 -0.106244184
0.030184705 -0.1476753 -0.065602414 -0.042755444 -0.03205427 0.021563243 0.013042795 0.013135147
0.026663456 0.0067348448 0.11601787 -0.11608829 0.14161143 -0.09097416 0.13386966 0.06109337
0.032864835 -0.14739476 0.1060631 0.030751526 -0.07249179 -0.1085385 0.098513454 0.025908977
0.11950578 0.11837797 0.043447766 0.028438075 -0.090332694 -0.09295181 0.10345425 0.07161346
0.13944773 -0.019956784 -0.07477698 -0.05858062 -0.00891459 -0.11575802 -0.027602846 0.14306207
-0.074942395 -0.04833054 0.051258277 0.09148228 -0.0979492 -0.023596572 0.07349129 -0.131479
-0.034631345 0.06455889 -0.096473284 -0.07567916 -0.109651655 -0.038300272 0.13137026 0.13804433
-0.061826766 0.06531377 0.037766974 0.0059708823 -0.14485216 -0.011281908 -0.12040519 0.07491767
-0.08847712 -0.030896973 -0.14550215 -0.114158615 -0.01963031 0.0019469061 -0.07461099 0.11417434
0.029368458 -0.03132212 -0.093591124 0.033737425 -0.06880724 -0.0042702653 -0.035339314 -0.01987602
0.095546916 -0.00508449 0.02935818 0.109707125 0.09775656 0.009321479 0.11359002 0.019639796
-0.08360031 -0.07815631 -0.035482846 0.0057450593 0.10986597 -0.058070756 -0.11540733 -0.06748437
-0.07087036 -0.04170992 0.011301105 -0.055605758 -0.06516586 -0.023381276 0.121290445 -0.08431896
0.0074771717 0.111225374 0.1350672 -0.08688192 0.0018351402 0.077729136 -0.043082636 0.065508075
-0.17369543 0.04156127 0.15163475 0.03526227 -0.1090304 -0.0028569768 0.10919682 0.08552396
-0.027261944 0.14446674 -0.17211229 0.09435671 -0.075649 0.011717569 -0.042247392 -0.10187029
-0.068807304 0.119766966 -0.12590788 0.07202348 0.150553 -0.047052193 0.021090444 -0.04689509
00000000: 9ed5 d33d ee6b 6e3d 25e3 8fbc c153 dd3d
00000010: c4d5 3d3d 1384 91bd 206b 8d3d 1e89 783d
00000020: f396 e9bd f2df 5dbb 3cc9 fc3d fb6b 0a3e
00000030: 12e0 96bd 6ba2 ffbd 1e14 98bd f4d7 a8bc
00000040: 6490 bdbb dd2d df3d e197 08be aecb a1bb
00000050: 7e15 623d b99d bebc d216 0c3e 39b1 b9bd
00000060: 27b9 33bd 8df3 b0bd 0bfc a2bc 1691 09be
00000070: 8ce1 8d3d 669f 94bd 8f2b 22be 2503 cabd
00000080: cc62 b5bd 8f94 ffbd 3186 023e 3e95 d0bd
00000090: 4a3d 68bd 4091 973d fdea 03be 3682 df3d
000000a0: b0b8 003e 5493 87bd da40 81bb ce72 afbd
000000b0: b017 0a3e 5c40 213e 0bf3 9f3d 7d61 b5bc
000000c0: 7e95 c9bd 227a 7e3c 108d e73d fc5f 6fbd
000000d0: fef6 d4bd 8a7e 2b3c a8d1 a93c fe97 833b
000000e0: fb1a 333d 39f9 17bd 3f3d 02be d8b1 103e
000000f0: 7479 8fbc afe6 06bc 3621 e3bd 1d81 173d
00000100: 0be6 00be 1e70 2dbd 0f98 213d 096e 183e
00000110: de0f e7bc e2d4 fabd 2e47 a3bc 7e78 47bd
00000120: cb9f 01bd f197 55bb f784 b2bd 9653 ffbd
00000130: 52b5 c63d c315 b63d 5efa 333d d395 ec3d
00000140: e40a 16be 6ecf e9bd fed5 a1bc dbb4 783d
00000150: e3b0 c73d e27c f03d a95f adbd 0e8b b43d
00000160: 7d8b d63d a958 d53d c521 333d f1fa a2bc
00000170: eabb f5bc e962 bf3d b2aa 2b3e 87b9 263e
00000180: 3cf6 8bbb 19b8 0d3d 2236 b3bd 21ab 623b
00000190: 7bd4 083d 8a80 23bd 3bc5 02be a1df ab3d
000001a0: 7627 50bd 9648 f0bd 1a05 133e 36ba e1bd
000001b0: 9b0b 943d b991 0dbe fc26 c3bc 8a40 c53d
000001c0: 3267 923d 9c81 7e3d dbc5 a5bd e25c d7bd
000001d0: 3813 de3d a491 a53d d805 9abd 8d96 d9bd
000001e0: ea45 f73c 3238 17be 8f5a 86bd 5520 2fbd
000001f0: 574b 03bd 66a5 b03c 72b1 553c cd34 573c
00000200: 526d da3c f9af dc3b c79a ed3d b3bf edbd
00000210: 9602 113e a950 babd 2115 093e 0b3d 7a3d
00000220: 479d 063d a7ee 16be 9c37 d93d a0ea fb3c
00000230: 9376 94bd 6f49 debd 6cc1 c93d 103f d43c
00000240: 72bf f43d 2670 f23d 49f6 313d f7f6 e83c
00000250: 5900 b9bd 855d bebd d2df d33d 14aa 923d
00000260: 63cb 0e3e 697c a3bc ac24 99bd 3bf2 6fbd
00000270: 800e 12bc 8a12 edbd 5d1f e2bc dd7e 123e
00000280: 667b 99bd 3ff6 45bd 33f4 513d 105b bb3d
00000290: 9799 c8bd 994d c1bc 9a82 963d 6ea2 06be
000002a0: 99d9 0dbd 7437 843d c993 c5bd adfd 9abd
000002b0: 0c91 e0bd bfe0 1cbd ed85 063e 7e5b 0d3e
000002c0: 103e 7dbd 3ac3 853d 8bb1 1a3d 64a7 c33b
000002d0: 2054 14be c0d7 38bc ff96 f6bd 6f6e 993d
000002e0: 7e33 b5bd a61b fdbc 84fe 14be fecb e9bd
000002f0: becf a0bc 542f ff3a a6cd 98bd 3dd4 e93d
00000300: 1f96 f03c a04b 00bd b4ac bfbd 4130 0a3d
00000310: cfea 8cbd 95ed 8bbb f5bf 10bd 09d3 a2bc
00000320: 1aae c33d cb9b a6bb 9180 f03c 21ae e03d
00000330: 9734 c83d 1eb9 183c e2a1 e83d a3e3 a03c
00000340: a436 abbd 6a10 a0bd 7656 11bd 0d41 bc3b
00000350: 6901 e13d 9adb 6dbd ae5a ecbd 3f35 8abd
00000360: 7b24 91bd 05d8 2abd 4528 393c ddc2 63bd
00000370: ae75 85bd 178a bfbc 2067 f83d 6baf acbd
00000380: 1003 f53b 21ca e33d 0e4f 0a3e 26ef b1bd
00000390: 1689 f03a 7430 9f3d 6b77 30bd 1929 863d
000003a0: 37dd 31be 263c 2a3d 2446 1b3e 2c6f 103d
000003b0: 554b dfbd 1e3c 3bbb 95a2 df3d 3027 af3d
000003c0: 7154 dfbc 17ef 133e 343e 30be 173e c13d
000003d0: dded 9abd 0cfb 3f3c 9a0b 2dbd 5fa1 d0bd
000003e0: d8ea 8cbd 6248 f53d ffed 00be 0c81 933d
000003f0: 912a 1a3e cdb9 40bd dec5 ac3c 1115 40bd

lstm.bias_ih_l0 f4 [200]
-0.038673673 -0.056667827 0.03863129 0.024349049 0.14829753 0.00071967364 -0.07247348 0.09207184
-0.060739543 0.03413674 0.034475967 -0.03868703 0.09346058 0.14787574 0.059660655 0.13000682
-0.047644172 -0.020571003 0.031882167 0.13151962 0.11699251 0.07729003 0.12188685 0.071153
-0.14969407 -0.078898534 0.07675837 0.08599349 -0.046548013 -0.09051286 -0.07088906 -0.03079582
-0.031457603 0.13171282 -0.03565158 -0.025490155 0.05898313 -0.009646942 0.10285112 -0.12694016
-0.037970603 0.007840847 0.01954082 0.029761223 0.01821603 0.01609164 -0.04259907 0.16992871
-0.027529553 0.029647466 0.036536027 0.058654625 0.09724603 -0.09036152 0.072276816 -0.048814263
-0.03296216 0.0238218 0.06286622 -0.108154505 -0.032028627 0.024467098 -0.034494378 -0.06516742
0.033937626 -0.06477718 0.06357854 0.14733444 -0.1572711 0.055908665 0.119473234 0.054835
-0.1363777 0.005215516 0.11822003 0.05256775 -0.110203475 -0.017485121 -0.016599976 -0.047795355
-0.11315592 -0.01783424 -0.07594159 0.09898875 0.08136338 -0.06193595 -0.10646433 -0.08651047
-0.025801774 0.0009577165 0.0842702 -0.010178715 -0.043886237 0.059215605 -0.05206852 0.00042881237
0.057124708 0.06203482 -0.005289513 -0.09217779 0.11344304 0.10437202 0.0586129 -0.13069099
0.048141666 -0.11301055 -0.04856208 0.13231361 0.052940972 0.14382488 -0.13763301 -0.093704514
0.014124507 -0.15337506 -0.13498805 0.070904694 -0.12782462 0.07674393 0.076961465 0.006597579
0.086537905 0.07674369 -0.04544914 -0.09081623 0.11542869 0.062604144 0.112992935 -0.020437531
-0.12230557 -0.024554968 -0.034611396 -0.04165565 -0.06454993 -0.11349166 -0.022527264 -0.052392203
-0.03500104 0.089569755 0.06839297 0.10120878 0.11321736 0.022963181 -0.14155518 -0.10986894
-0.14483587 -0.017768882 0.12913062 0.11586723 0.030354291 -0.034157507 -0.08589655 -0.033786405
-0.13026793 -0.020209868 0.15543269 0.05304371 -0.060120836 -0.089230165 -0.054255277 0.008958571
-0.0354883 0.106090695 0.062015228 0.104336046 -0.026788868 0.15377048 0.14221098 -0.001989019
0.042642653 0.06510339 0.027978007 0.13916971 -0.11835957 0.045603607 0.08491151 -0.0022205564
-0.06313491 0.00039910537 0.109615296 -0.022391148 0.1409438 0.14209352 -0.039507426 0.006506483
0.05410831 -0.11350188 -0.03925691 0.12279967 0.037073776 0.09362761 -0.038528208 -0.025788167
-0.09349732 -0.09148948 0.091767296 0.049267102 0.14897667 -0.009992938 0.10355834 0.015562221
00000000: 4968 1ebd 861c 68bd d83b 1e3d a877 c73c
00000010: 4fdb 173e 7ba8 3c3a fa6c 94bd 2990 bc3d
00000020: 07ca 78bd f7d2 0b3d ac36 0d3d 4b76 1ebd
00000030: 4368 bf3d bd6c 173e bb5e 743d 8220 053e
00000040: 8926 43bd 8584 a8bc e096 023d 14ad 063e
00000050: c599 ef3d 3c4a 9e3d d09f f93d aab8 913d
00000060: 6749 19be 8e95 a1bd 7e33 9d3d 5b1d b03d
00000070: 21a9 3ebd ce5e b9bd 492e 91bd 8447 fcbc
00000080: b0d9 00bd badf 063e 6407 12bd bbd0 d0bc
00000090: 4b98 713d 350e 1ebc 9ca3 d23d 9afc 01be
000000a0: 1087 1bbd e576 003c 1214 a03c cfcd f33c
000000b0: c939 953c 9dd2 833c 5d7c 2ebd cb01 2e3e
000000c0: a885 e1bc 3edf f23c cda6 153d d53f 703d
000000d0: ed28 c73d 760f b9bd de05 943d 77f1 47bd
000000e0: 5403 07bd ef25 c33c 01c0 803d 1c80 ddbd
000000f0: 7330 03bd 396f c83c fa49 0dbd 7f76 85bd
00000100: 2e02 0b3d e6a9 84bd 7735 823d d7de 163e
00000110: ad0b 21be 7c00 653d 62ae f43d aa9a 603d
00000120: 99a6 0bbe ebe6 aa3b 581d f23d 4851 573d
00000130: 5cb2 e1bd f53c 8fbc acfc 87bc 10c5 43bd
00000140: 4abe e7bd 1d19 92bc 4487 9bbd 9dba ca3d
00000150: d8a1 a63d 8db0 7dbd f809 dabd 672c b1bd
00000160: 3e5e d3bc 440f 7b3a db95 ac3d a0c4 26bc
00000170: 0ec2 33bd 108c 723d cd45 55bd 39d2 e039
00000180: 99fb 693d 3918 7e3d a753 adbb b6c7 bcbd
00000190: d354 e83d ffc0 d53d 1514 703d dcd3 05be
000001a0: 3230 453d 1372 e7bd 08e9 46bd 387d 073e
000001b0: a2d8 583d d446 133e abef 0cbe 27e8 bfbd
000001c0: 7a6a 673c 5a0e 1dbe 4f3a 0abe 7b36 913d
000001d0: 75e4 02be ec2b 9d3d f99d 9d3d 8130 d83b
000001e0: c93a b13d cc2b 9d3d e128 3abd dcfd b9bd
000001f0: e165 ec3d 9a36 803d d768 e73d 9c6c a7bc
00000200: 587b fabd 8027 c9bc aec4 0dbd 1d9f 2abd
00000210: c132 84bd 516e e8bd 198b b8bc 3599 56bd
00000220: 405d 0fbd 5970 b73d 9d11 8c3d 8d46 cf3d
00000230: 81de e73d 481d bc3c d7f3 10be f802 e1bd
00000240: db4f 14be 0c90 91bc d13a 043e cc4b ed3d
00000250: 90a9 f83c bee8 0bbd 88ea afbd 9d63 0abd
00000260: f564 05be 2a8f a5bc bf29 1f3e 5c44 593d
00000270: 4441 76bd 4ebe b6bd c83a 5ebd f8c6 123c
00000280: 2e5c 11bd 1446 d93d ae03 7e3d 23ae d53d
00000290: 5474 dbbc 0276 1d3e c19f 113e 345a 02bb
000002a0: 10aa 2e3d ed54 853d 2232 e53c 8182 0e3e
000002b0: 8166 f2bd d9ca 3a3d 16e6 ad3d c186 11bb
000002c0: e04c 81bd 043f d139 fc7d e03d a46d b7bc
000002d0: 9253 103e f780 113e 8ad2 21bd 5634 d53b
000002e0: ada0 5d3d ac73 e8bd dbcb 20bd 657e fb3d
000002f0: acda 173d d5bf bf3d c1cf 1dbd b541 d3bc
00000300: 867b bfbd d65e bbbd 7ef0 bb3d 4dcc 493d
00000310: 578d 183e 6bb9 23bc 6516 d43d b0f8 7e3c

lstm.bias_hh_l0 f4 [200]
0.096274756 0.10870268 0.09083598 0.06068928 0.068637304 0.096422866 -0.026940048 0.08443567
0.088556476 0.078453675 0.14523421 0.12641175 -0.03106609 0.15578566 0.12669845 -0.048451856
-0.027836286 0.092187464 -0.11913237 0.060268875 0.12886056 -0.047146797 0.114100575 0.15605116
-0.020147083 0.09852058 0.057363868 0.074256696 0.15122892 0.03229764 -0.08196887 -0.10328994
-0.09156625 0.003124181 -0.051683348 -0.09574362 -0.036577273 0.0073231766 0.05300988 0.14302316
-0.038031533 -0.040276818 0.049194954 -0.08459686 -0.0572467 0.10654622 0.05803827 0.065594085
0.13985996 0.012814081 -0.011180278 -0.007171727 0.027572919 -0.11000789 0.1455486 0.08665859
-0.033094488 0.118434526 0.09223441 0.102604195 -0.015917227 0.11090707 -0.097236454 0.09548753
0.023100633 -0.086707026 -0.094327606 -0.09933199 0.0698696 0.105353475 -0.069084704 0.12635411
-0.12682411 0.15611656 -0.07205056 0.08544346 -0.0007939698 -0.038429264 0.01658409 -0.08646945
-0.10987601 0.016498422 -0.10620672 0.09288106 -0.09199509 0.060779985 0.049093742 -0.079986215
0.037175607 -0.0032323573 -0.054449826 0.05828764 0.059978534 -0.08296296 0.032654453 0.113344654
-0.11276165 -0.06607836 0.09313952 0.0934712 0.0028160291 -0.01041917 0.10510216 0.015353971
-0.10317718 0.051460687 0.12018901 -0.02939983 -0.009594434 -0.040791716 0.088623494 0.11716873
-0.025727117 -0.08170365 -0.12262192 0.0026710504 -0.0695255 0.08808257 0.009399209 0.04411332
-0.118683 -0.11064391 0.07140529 -0.12664437 -0.0531862 -0.09757326 0.10322515 0.0848095
0.074257076 0.05308869 0.023168094 0.11347457 0.034195226 -0.07951506 0.09454428 -0.1441284
-0.107795775 -0.04108011 0.11164091 0.061644245 -0.00895175 -0.026486307 -0.039436147 -0.10576704
0.082055226 -0.06403627 0.1306193 0.030837487 -0.06595298 0.097369805 -0.12027174 0.11925333
-0.01611912 0.12203366 0.045879677 0.10534665 0.038275912 0.07125978 -0.013881653 0.073991075
-0.104740664 -0.017468147 -0.09725997 -0.010554098 0.025358323 0.10715263 -0.005356169 0.111871466
0.062154584 0.11434126 0.1480096 0.120237365 0.12996723 0.17519408 0.07517703 0.07760951
-0.14773272 -0.039938737 0.1635772 0.09262448 0.008320883 -0.036628317 0.13401526 -0.00853293
0.10964738 0.070913725 0.11627613 -0.0899074 0.10413707 -0.057626523 -0.07266968 0.1484697
-0.09476581 -0.028601393 0.028233875 -0.06438251 -0.082064785 0.18614931 -0.10444874 -0.11262642
00000000: b32b c53d 839f de3d 3708 ba3d 5395 783d
00000010: b791 8c3d 5a79 c53d 60b1 dcbc 9cec ac3d
00000020: 195d b53d 52ac a03d 47b8 143e 1572 013e
00000030: 507e febc 4786 1f3e 3dbd 013e 7475 46bd
00000040: ec08 e4bc c8cc bc3d acfb f3bd 7fdc 763d
00000050: 06f4 033e 001d 41bd 90ad e93d e0cb 1f3e
00000060: 7f0b a5bc 28c5 c93d 60f6 6a3d e513 983d
00000070: c1db 1a3e 884a 043d 4bdf a7bd ad89 d3bd
00000080: 1687 bbbd 0fbf 4c3b ebb1 53bd 3b15 c4bd
00000090: 0dd2 15bd 42f7 ef3b e320 593d aa74 123e
000000a0: f4c6 1bbd 4ef9 24bd a680 493d 1e41 adbd
000000b0: 847b 6abd e834 da3d 89b9 6d3d 3156 863d
000000c0: 7337 0f3e 27f2 513c 7c2d 37bc ce00 ebbb
000000d0: 9ae0 e13c d14b e1bd b10a 153e 0f7a b13d
000000e0: 168e 07bd cd8d f23d 65e5 bc3d 2622 d23d
000000f0: d864 82bc 3f23 e33d e823 c7bd f78e c33d
00000100: 8a3d bd3c 7493 b1bd d52e c1bd 926e cbbd
00000110: cb17 8f3d 90c3 d73d 487c 8dbd f962 013e
00000120: 2ede 01be 05dd 1f3e 3e8f 93bd fbfc ae3d
00000130: 6922 50ba 0168 1dbd 5cdb 873c e516 b1bd
00000140: ac06 e1bd b327 873c e982 d9bd 6d38 be3d
00000150: ec67 bcbd 6ff4 783d 8516 493d d0cf a3bd
00000160: 7345 183d f5d5 53bb c806 5fbd 05bf 6e3d
00000170: 0dac 753d 7ce8 a9bd adc0 053d 3e21 e83d
00000180: 94ef e6bd 1754 87bd efbf be3d d46d bf3d
00000190: 218d 383b 2bb5 2abc cd3f d73d 398f 7b3c
000001a0: 8f4e d3bd 71c8 523d a825 f63d ead7 f0bc
000001b0: f931 1dbc 3715 27bd 3c80 b53d 29f6 ef3d
000001c0: adc1 d2bc 3e54 a7bd 3421 fbbd ca0c 2f3b
000001d0: 6363 8ebd a264 b43d 24ff 193c 2bb0 343d
000001e0: 1310 f3bd 4699 e2bd f03c 923d 10af 01be
000001f0: c6d9 59bd 7dd4 c7bd b567 d33d 9ab0 ad3d
00000200: 1814 983d 8773 593d 04cb bd3c 5b65 e83d
00000210: 4b10 0c3d cbd8 a2bd 6ea0 c13d 6596 13be
00000220: 08c4 dcbd 9e43 28bd fda3 e43d ad7e 7c3d
00000230: 5caa 12bc d0f9 d8bc cc87 21bd 649c d8bd
00000240: 920c a83d 7325 83bd 11c1 053e e69e fc3c
00000250: 5b12 87bd d269 c73d 0851 f6bd 173b f43d
00000260: 3f0c 84bc c9ec f93d 54ec 3b3d fcbf d73d
00000270: 34c7 1c3d a6f0 913d df6f 63bc a288 973d
00000280: 4682 d6bd 5c19 8fbc 3c30 c7bd 18eb 2cbc
00000290: 42bc cf3c d772 db3d cd82 afbb de1c e53d
000002a0: ce95 7e3d c02b ea3d d48f 173e 023f f63d
000002b0: 2116 053e 1466 333e 6af6 993d bcf1 9e3d
000002c0: 3f47 17be cd96 23bd c880 273e e7b1 bd3d
000002d0: 5054 083c 9307 16bd 4c3b 093e b4cd 0bbc
000002e0: ce8e e03d 373b 913d 2e22 ee3d 5f21 b8bd
000002f0: d145 d53d ca09 6cbd d7d3 94bd 7108 183e
00000300: 9414 c2bd 784d eabc ba4a e73c fada 83bd
00000310: 9511 a8bd ed9d 3e3e 39e9 d5bd aea8 e6bd

lstm.weight_ih_l1 f4 [200, 50]
0.15561813 0.031560984 0.020336421 -0.05967007 -0.1813079 0.11514689 -0.14378254 0.027287
-0.045854833 0.019501936 -0.15786076 0.14919217 0.07015248 0.08746155 -0.06106873 -0.07628184
-0.18688461 -0.14385888 0.027558655 -0.046400502 -0.059650924 -0.007812512 0.04403537 -0.035253067
-0.09504927 0.02478382 0.010881514 -0.04791936 0.20200022 0.10635842 -0.13704109 -0.016638312
-0.06636608 -0.13942352 0.08076534 -0.15635018 -0.16165462 0.022909088 0.15711597 0.016862063
0.08536582 0.06074407 0.002784251 0.07961627 0.0065262765 -0.07029107 0.15541348 -0.10928149
0.10917761 0.0739047 0.0088547375 -0.04461449 0.060301233 0.06418715 0.106163286 0.11209352
0.05279916 -0.04525879 -0.024934052 0.17092729 0.09309824 0.0063485648 0.050305493 -0.061116226
-0.12870455 -0.0058299922 -0.12275901 -0.097702965 -0.107683495 0.076008916 -0.16776958 0.15279612
-0.14212455 -0.05498922 -0.052425206 -0.082845606 0.06692319 -0.092914864 0.09868643 -0.03883562
-0.0062597236 -0.12473603 -0.13602798 -0.0040276195 -0.061589964 0.043804653 -0.12101352 0.16859289
-0.09669658 -0.05290672 0.09109689 0.052264452 -0.066758074 -0.1264539 0.186084 0.055066433
-0.00015199766 -0.080320574 0.02178138 0.08413139 0.0058073136 0.030492458 0.0810193 -0.15328631
-0.089392126 0.14322385 -0.124067016 0.14927977 -0.10093172 0.019206405 0.007825781 0.20889498
0.002290222 -0.021122707 0.050618634 -0.22914991 -0.12664321 -0.14974095 -0.10445808 -0.016723325
0.00034541986 0.22682112 0.10041203 0.09615379 -0.04249296 0.10928956 0.16985492 -0.10179482
0.23604552 0.15506409 -0.11498657 0.025000054 -0.06677034 -0.003308833 0.09015556 -0.12377013
-0.22855814 0.028549455 0.038928438 -0.052098315 0.13661318 0.070930935 -0.00017236662 0.012163821
0.119165584 0.029839963 0.11708743 -0.24065243 0.041096073 0.10826638 0.13335687 0.034930605
-0.100515455 -0.048070047 0.08035004 0.14216013 0.02329921 -0.034692954 0.08366657 0.1273088
0.023747921 0.17917867 -0.001108031 0.026150713 0.06684572 -0.03557001 0.07775081 -0.03281835
-0.104093745 -0.174134 -0.14613046 -0.02750208 -0.050650854 -0.024411477 0.03342185 -0.09729263
0.05975728 0.12198462 -0.045073707 0.0015831684 -0.058578312 0.038801488 -0.070570834 -0.10846716
0.09143597 -0.0060133175 0.009835946 0.046862204 -0.02586215 -0.02536847 0.11892459 0.14131276
0.029366115 -0.086590834 0.16897255 -0.057632565 -0.007528791 -0.13582113 0.08622264 0.049807936
0.13026142 0.20347631 0.068371855 -0.25612715 -0.21164297 0.3319777 -0.2342253 0.24818994
-0.05183583 0.15363221 -0.035462704 0.20335709 -0.3256142 0.2230079 -0.11102864 -0.074743554
0.010499496 -0.044741224 0.0029606123 -0.18382105 -0.24528411 0.047845233 -0.026413772 0.13002682
-0.059338283 0.102715515 -0.025997229 0.09315154 0.2845287 0.15464735 -0.09895872 0.076893814
-0.079866566 0.06861425 -0.12373715 0.008688698 -0.21084557 0.14619234 0.019350193 -0.17317325
0.14910056 -0.03952595 0.10695602 -0.07205045 0.17019385 0.18238485 0.08227539 -0.10835572
0.045701496 0.15457919 -0.116071954 0.15448603 0.04342407 0.056609396 0.03521018 0.056208346
00000000: 5c5a 1f3e 1746 013d 9198 a63c 9a68 74bd
00000010: c7a8 39be 22d2 eb3d bb3b 13be fd88 df3c
00000020: 47d2 3bbd 86c2 9f3c 40a6 21be d5c5 183e
00000030: 1aac 8f3d 0b1f b33d 3423 7abd a739 9cbd
00000040: ae5e 3fbe be4f 13be b0c2 e13c 740e 3ebd
00000050: 8754 74bd 0d00 00bc 6f5e 343d 8565 10bd
00000060: 31a9 c2bd 7007 cb3c 6148 323c 1747 44bd
00000070: 25d9 4e3e 71d2 d93d 8054 0cbe 124d 88bc
00000080: f0ea 87bd 0ac5 0ebe 4c68 a53d 431a 20be
00000090: ca88 25be d7ab bb3c 02e3 203e 4f22 8a3c
000000a0: 46d4 ae3d c6ce 783d fb77 363b db0d a33d
000000b0: 60da d53b c4f4 8fbd b624 1f3e f9ce dfbd
000000c0: 8398 df3d 595b 973d 7613 113c afbd 36bd
000000d0: 6dfe 763d 8d74 833d 236c d93d 4a91 e53d
000000e0: ef43 583d 4861 39bd 7f42 ccbc 9007 2f3e
000000f0: 4aaa be3d 9f07 d03b 220d 4e3d 0255 7abd
00000100: 20cb 03be 8509 bfbb 1369 fbbd 7e18 c8bd
00000110: 2a89 dcbd 90aa 9b3d cacb 2bbe 9676 1c3e
00000120: 1989 11be 603c 61bd d0bb 56bd f5aa a9bd
00000130: 070f 893d 264a bebd 1c1c ca3d 1912 1fbd
00000140: 5e1e cdbb 9b75 ffbd eb4a 0bbe 1ffa 83bb
00000150: c245 7cbd 826c 333d f0d5 f7bd 9da3 2c3e
00000160: db08 c6bd b8b4 58bd 0291 ba3d 4013 563d
00000170: 75b8 88bd 227d 01be ce8c 3e3e 578d 613d
00000180: 9061 1fb9 1d7f a4bd dd6e b23c 144d ac3d
00000190: 474b be3b 52cb f93c 72ed a53d 16f7 1cbe
000001a0: 3813 b7bd 46a9 123e d916 febd ccdc 183e
000001b0: 4ab5 cebd c056 9d3c b437 003c 91e8 553e
000001c0: 8d17 163b 8709 adbc 7c55 4f3d 46a6 6abe
000001d0: c2ae 01be b155 19be 1eee d5bd 5bff 88bc
000001e0: 7819 b539 cc43 683e d3a4 cd3d 47ec c43d
000001f0: 190d 2ebd 34d3 df3d 73ee 2d3e cd79 d0bd
00000200: ebb5 713e 1fc9 1e3e 147e ebbd eacc cc3c
00000210: e3be 88bd 02d9 58bb 7aa3 b83d 327b fdbd
00000220: 250b 6abe 8ce0 e93c 6d73 1f3d 0b65 55bd
00000230: 53e4 0b3e 3d44 913d 50bd 34b9 c34a 473c
00000240: 160d f43d f072 f43c 89cb ef3d 976d 76be
00000250: 5b54 283d c4ba dd3d b48e 083e 6513 0f3d
00000260: 0cdb cdbd 19e5 44bd 908e a43d 6d92 113e
00000270: fcdd be3c 331a 0ebd 6159 ab3d 3d5d 023e
00000280: 008b c23c 9d7a 373e 5a3b 91ba 053a d63c
00000290: 69e6 883d dcb1 11bd d13b 9f3d 896c 06bd
000002a0: 1a2f d5bd 2f50 32be 39a3 15be 0b4c e1bc
000002b0: 4577 4fbd 94fa c7bc 5ae5 083d 5c41 c7bd
000002c0: 0dc4 743d 13d3 f93d 359f 38bd 5182 cf3a
000002d0: d0ef 6fbd 4fee 1e3d 7187 90bd 0824 debd
000002e0: c842 bb3d 5d0b c5bb f326 213c 95f2 3f3d
000002f0: dcdc d3bc 8ad1 cfbc bc8e f33d 4bb4 103e
00000300: 3591 f03c 8956 b1bd 2407 2d3e 2010 6cbd
00000310: 14b4 f6bb b214 0bbe 7f95 b03d 6803 4c3d
00000320: 4063 053e 185c 503e 8b06 8c3d 1923 83be
00000330: efb8 58be fbf8 a93e c2d8 6fbe 8125 7e3e
00000340: cf51 54bd c351 1d3e 5741 11bd d73c 503e
00000350: e8b6 a6be 2f5c 643e fc62 e3bd 2613 99bd
00000360: 1406 2c3c 9342 37bd d506 423b 963b 3cbe
00000370: c22b 7bbe 5df9 433d b261 d8bc c025 053e
00000380: b30c 73bd 835c d23d 24f8 d4bc 3cc6 be3d
00000390: bfad 913e e05b 1e3e dfaa cabd 817a 9d3d
000003a0: 1591 a3bd a185 8c3d e769 fdbd 0a5b 0e3c
000003b0: e7e7 57be 72b3 153e 4c84 9e3c 5454 31be
000003c0: d1ad 183e f6e5 21bd c20b db3d 308f 93bd
000003d0: 4c47 2e3e 18c3 3a3e 0080 a83d 9be9 ddbd
000003e0: 7e31 3b3d 024a 1e3e 22b7 edbd 9631 1e3e
000003f0: 70dd 313d 41df 673d 8d38 103d b93a 663d

lstm.weight_hh_l1 f4 [200, 50]
-0.13703777 -0.047490887 -0.05779479 -0.05715944 0.1398259 -0.14949273 0.059778992 0.12564868
-0.1536766 0.09873004 0.17440178 0.019693537 -0.095985614 0.041087486 0.04346629 0.035961974
-0.012863886 0.03740154 -0.07454696 -0.01977881 0.018385202 0.01273592 0.115090705 0.17654435
0.14763576 -0.04119851 -0.08741742 0.05067398 -0.008510769 0.0229344 -0.10647738 -0.015870523
-0.05912734 -0.06909112 -0.06726211 -0.122381136 -0.059281077 -0.105825864 -0.08894711 -0.09370443
0.081787564 0.064487375 0.058604337 0.014436306 0.054369096 0.0631567 0.06374375 0.0020092395
-0.10403624 0.031383503 -0.04045795 0.059639808 -0.021740412 -0.12146483 0.014264861 0.11025233
-0.044768367 -0.09432741 -0.031777002 0.08060304 0.06477659 -0.11253934 0.012743699 0.04552788
0.016719624 -0.13750917 -0.02743669 -0.039899886 0.09697758 -0.001773231 0.052400857 0.09061217
0.04737563 -0.057289887 -0.05464215 0.03204778 -0.100728296 0.026112506 -0.04880582 -0.12764825
0.087736405 -0.096465506 0.07289246 -0.091203876 -0.0011884238 -0.040779263 0.15332672 -0.14187212
-0.03530358 0.009329999 -0.032886237 0.058874678 0.037400417 0.0384507 -0.14186454 0.027510101
-0.010799446 -0.037710644 -0.025505226 -0.090541385 -0.11614319 -0.15729737 -0.1591648 -0.03791994
0.1673884 0.123564154 -0.16749947 0.16846053 0.05239935 -0.09618091 -0.03957661 0.12708746
-0.028066678 -0.15587345 0.046598107 0.07929975 0.07043663 0.007462101 0.1533942 -0.05259834
0.14418958 0.10865086 -0.0032398016 0.16883846 -0.06901481 -0.020637052 0.14247897 -0.016986411
0.16718216 0.08273533 -0.08471824 0.024738127 0.031945664 -0.17964047 0.08322008 0.003348648
-0.10387752 0.07243493 -0.12824485 0.015790526 -0.05478245 -0.07288932 -0.08962919 -0.13089155
0.11191686 0.14640616 -0.09742017 0.15471266 0.11010418 0.106884785 0.010951647 0.11887897
0.017388476 -0.032489568 0.015102409 0.11116417 0.0015222373 -0.12495842 -0.097120434 0.09595469
-0.011795731 -0.1063551 -0.0050478284 -0.030614167 0.103485905 -0.168282 -0.100005135 0.055052936
0.042152356 0.08328176 -0.021057863 -0.045619898 0.08432809 0.13331452 -0.14080915 -0.055092875
-0.0015904206 -0.004461387 0.0600915 -0.004867471 0.047272455 -0.10878186 -0.00068131165 0.091598086
0.01456401 0.0046332297 0.115220316 0.080728464 -0.13082094 -0.043274146 -0.12837017 0.072366856
0.08565017 0.05935383 -0.14859866 -0.01833472 -0.0033995872 -0.12579672 0.020037314 -0.06428493
-0.036571704 -0.07890451 -0.17389879 0.10655176 -0.0059992527 -0.03148457 -0.11536592 0.07884675
-0.15015966 0.2660729 0.1712632 0.06093887 -0.12716827 -0.15364596 -0.13897048 0.082863465
-0.068075016 -0.067320175 0.21694894 0.07955481 -0.0595513 -0.10780053 0.21420619 -0.0142150745
0.13968925 -0.028853323 0.117300496 -0.182479 -0.003229665 0.108127005 0.10666516 0.092453465
-0.09391552 0.05659831 -0.081062526 -0.060686145 -0.12986079 -0.09560651 0.028856007 0.08023211
0.049514916 0.22298831 -0.08734322 -0.09800967 0.0041099284 0.14638315 0.21271738 0.04915842
0.072688915 0.12897831 -0.0719724 -0.14759187 0.12362644 -0.1194183 0.12718873 0.0983855
00000000: a153 0cbe ce85 42bd 3bba 6cbd 0420 6abd
00000010: 852e 0f3e 9f14 19be d1da 743d 0caa 003e
00000020: 665d 1dbe fa32 ca3d 6196 323e 5754 a13c
00000030: 1b94 c4bd 5a4b 283d b509 323d dd4c 133d
00000040: 0cc3 52bc 5b32 193d 14ac 98bd 2c07 a2bc
00000050: 909c 963c 52aa 503c adb4 eb3d 0bc8 343e
00000060: d42d 173e c5bf 28bd e807 b3bd 858f 4f3d
00000070: c170 0bbc ece0 bb3c d010 dabd e602 82bc
00000080: 822f 72bd a57f 8dbd b8c0 89bd f6a2 fabd
00000090: b7d0 72bd 3bbb d8bd e729 b6bd 1ce8 bfbd
000000a0: 3d80 a73d f511 843d 1a0b 703d 4286 6c3c
000000b0: 21b2 5e3d 4d58 813d 158c 823d 72ad 033b
000000c0: f410 d5bd fd8b 003d 3cb7 25bd df48 743d
000000d0: f318 b2bc 8ec2 f8bd 2ab7 693c f9cb e13d
000000e0: 095f 37bd bb2e c1bd 9a28 02bd 3513 a53d
000000f0: 97a9 843d 077b e6bd f3ca 503c 717b 3a3d
00000100: 98f7 883c 34cf 0cbe e9c2 e0bc 106e 23bd
00000110: 2e9c c63d c26b e8ba 48a2 563d e092 b93d
00000120: f30c 423d cda8 6abd 72d0 5fbd 8844 033d
00000130: a34a cebd e5e9 d53c 9de8 47bd 39b6 02be
00000140: 25af b33d b58f c5bd a448 953d 19c9 babd
00000150: e3c4 9bba 2808 27bd ae01 1d3e ed46 11be
00000160: 7d9a 10bd dadc 183c b8b3 06bd 9326 713d
00000170: 2e31 193d 7b7e 1d3d f044 11be dd5c e13c
00000180: 29f0 30bc 7a76 1abd 56f0 d0bc c36d b9bd
00000190: 7bdc edbd 9012 21be 19fc 22be f051 1bbd
000001a0: dd67 2b3e 340f fd3d fb84 2bbe eb80 2c3e
000001b0: b3a0 563d 7ffa c4bd 151b 22bd 3723 023e
000001c0: 17ec e5bc 4a9d 1fbe a8dd 3e3d e867 a23d
000001d0: 1441 903d a484 f43b 5f13 1d3e 5b71 57bd
000001e0: 6fa6 133e 5884 de3d da52 54bb fde3 2c3e
000001f0: a357 8dbd 090f a9bc 02e6 113e 1627 8bbc
00000200: cd31 2b3e 2471 a93d c280 adbd 9da7 ca3c
00000210: 75d9 023d acf3 37be 4a6f aa3d fe74 5b3b
00000220: bdbd d4bd c458 943d 9e52 03be 225b 813c
00000230: 9063 60bd ff46 95bd 828f b7bd 6f08 06be
00000240: ab34 e53d 7feb 153e 3a84 c7bd ff6c 1e3e
00000250: 4d7e e13d 69e6 da3d 896e 333c d176 f33d
00000260: 4772 8e3c c813 05bd 1870 773c 0aaa e33d
00000270: cf85 c73a 33ea ffbd 14e7 c6bd e483 c43d
00000280: e242 41bc b4d0 d9bd 4168 a5bb 90ca fabc
00000290: 6bf0 d33d 1e52 2cbe 7ecf ccbd 307f 613d
000002a0: f3a7 2c3d a18f aa3d 8a81 acbc eedb 3abd
000002b0: 35b4 ac3d 9a83 083e 4630 10be 11a9 61bd
000002c0: a975 d0ba d430 92bb 8122 763d 4e7f 9fbb
000002d0: c3a0 413d 06c9 debd 0d9a 32ba c797 bb3d
000002e0: e39d 6e3c 59d2 973b a1f8 eb3d f754 a53d
000002f0: edf5 05be 3b40 31bd 7873 03be 1335 943d
00000300: 5b69 af3d 001d 733d 3f2a 18be b232 96bc
00000310: 9ccb 5ebb dbd0 00be 4b25 a43c d1a7 83bd
00000320: 36cc 15bd b098 a1bd 8612 32be cf37 da3d
00000330: 6195 c4bb f7f5 00bd f844 ecbd 687a a13d
00000340: 74c3 19be b53a 883e 9f5f 2f3e 099b 793d
00000350: 6638 02be 5e55 1dbe 474e 0ebe 52b4 a93d
00000360: ea6a 8bbd 29df 89bd dd27 5e3e a2ed a23d
00000370: 10ec 73bd 86c6 dcbd de58 5b3e 58e6 68bc
00000380: b30a 0f3e ce5d ecbc 3e3b f03d c6db 3abe
00000390: caa8 53bb b171 dd3d 4373 da3d 3e58 bd3d
000003a0: c856 c0bd a1d3 673d 1c04 a6bd 0992 78bd
000003b0: 3afa 04be 59cd c3bd 6f63 ec3c bc50 a43d
000003c0: 27d0 4a3d 0c57 643e 01e1 b2bd 4bb9 c8bd
000003d0: 94ac 863b 77e5 153e 96d2 593e 575a 493d
000003e0: eddd 943d e412 043e 4466 93bd 5322 17be
000003f0: dc2f fd3d 9591 f4bd c33d 023e 567e c93d

lstm.bias_ih_l1 f4 [200]
-0.039334793 -0.07009573 -0.08464768 0.049754333 -0.020535357 -0.124851726 -0.14400448 -0.038703434
-0.060558524 -0.032984562 -0.020025462 0.09773779 0.14481181 -0.07006851 -0.032768965 -0.12477262
0.086367674 0.1563173 0.034351736 -0.012569517 -0.012421413 0.013417418 0.06598323 0.06500642
-0.05091844 0.13178167 -0.062258933 0.017141273 0.020236978 -0.010402664 -0.048153307 0.109138355
0.012139134 0.09347465 -0.098420136 0.040205177 -0.003811837 0.008926107 0.11000284 -0.055775706
-0.05707864 0.17115124 -0.10231792 -0.07497412 0.0032345369 -0.112615615 0.13465305 0.12656492
-0.101410404 -0.14096473 -0.038313907 -0.028499704 -0.08153143 0.020337194 -0.116847545 0.04837854
0.06843753 -0.07538542 0.014656801 0.10786334 0.03326223 0.0878563 -0.06413984 -0.01608418
-0.047161106 -0.15476117 -0.05016566 0.043896854 0.07327066 0.12794934 0.14433514 0.12505545
-0.13020304 0.13068464 -0.00853225 -0.08316281 0.119954765 0.08141251 -0.008034747 -0.018334612
0.018286588 -0.0072275894 -0.031532504 -0.004626953 0.093927965 -0.11329267 -0.007012835 0.0025773013
-0.121326074 -0.1348214 -0.07764271 0.14722522 0.077624716 0.0067572114 -0.051884014 0.13011265
-0.1294828 0.029335532 0.04142906 -0.15435918 -0.13699543 -0.13325612 -0.09647959 -0.021401163
0.020268062 0.1360495 0.072984025 0.0040087174 0.041428555 -0.08235149 -0.006392445 0.055016138
0.02557904 -0.050528925 0.11186454 -0.019440908 0.004068262 0.09455189 0.1303728 0.020016909
0.12340015 0.011746285 -0.0013365477 0.105914764 -0.03836841 -0.09219455 0.098449506 -0.13067715
-0.024051877 0.079016596 -0.1039592 0.11623957 -0.0719602 -0.13998358 -0.11209403 0.004503458
0.08450682 -0.13215737 -0.061706215 0.0974012 0.10211165 -0.008862357 0.10540587 -0.06988668
-0.105373144 0.107019074 0.023641491 0.035049424 0.088348135 0.11603686 0.0035942635 0.11459181
0.15984526 0.028900066 -0.0073380936 -0.03207879 -0.049517144 -0.05751131 0.11394885 0.12541239
0.020726424 0.07399442 -0.12001827 0.10229922 0.106016725 0.102283336 -0.025737086 0.014706397
0.045848392 -0.11246305 0.087846674 0.05030992 0.0714563 0.051238634 0.12009278 -0.062282365
0.03364624 -0.053369597 -0.02119553 0.14525723 -0.13435654 -0.0013434425 0.031374134 -0.0202795
-0.0013721727 0.04953287 -0.043732774 -0.022349965 -0.08677036 0.10454447 0.1452468 0.00028796628
0.01822257 0.19045182 0.040747464 0.09243014 0.14192161 -0.021106707 0.02546985 0.093572214
00000000: 851d 21bd 5a8e 8fbd c35b adbd 33cb 4b3d
00000010: c439 a8bc 43b2 ffbd e975 13be 7e87 1ebd
00000020: 370c 78bd d21a 07bd 700c a4bc c02a c83d
00000030: 8c49 143e 1480 8fbd c038 06bd ca88 ffbd
00000040: 89e1 b03d a411 203e 68b4 0c3d 60f0 4dbc
00000050: 2f83 4bbc bbd4 5b3c 3722 873d 1622 853d
00000060: db8f 50bd c6f1 063e 3903 7fbd db6b 8c3c
00000070: 05c8 a53c ef6f 2abc 673c 45bd ee83 df3d
00000080: 38e3 463c a36f bf3d 7f90 c9bd 2fae 243d
00000090: 03d0 79bb ce3e 123c 2b49 e13d 1175 64bd
000000a0: 4bcb 69bd 4542 2f3e 0f8c d1bd 088c 99bd
000000b0: 86fa 533b 04a3 e6bd 7de2 093e 3c9a 013e
000000c0: 42b0 cfbd 0f59 10be 0bef 1cbd 3678 e9bc
000000d0: f3f9 a6bd 309a a63c c44d efbd 9328 463d
000000e0: fa28 8c3d ac63 9abd 1423 703c 74e7 dc3d
000000f0: fa3d 083d 01ee b33d c05b 83bd f8c2 83bc
00000100: 012c 41bd b679 1ebe 827a 4dbd 30cd 333d
00000110: ee0e 963d 2705 033e 97cc 133e 890e 003e
00000120: f253 05be 32d2 053e daca 0bbc 4351 aabd
00000130: d8aa f53d 9abb a63d 2ca4 03bc 7832 96bc
00000140: c1cd 953c 6ad5 ecbb 3a28 01bd b29d 97bb
00000150: 4e5d c03d fd05 e8bd eccb e5bb f1e7 283b
00000160: ce79 f8bd 9f0e 0abe 2403 9fbd 35c2 163e
00000170: b5f9 9e3d 996b dd3b 5584 54bd 403c 053e
00000180: 2497 04be 1251 f03c 85b1 293d 5510 1ebe
00000190: 8848 0cbe 4b74 08be 1797 c5bd 7e51 afbc
000001a0: 3509 a63c 8f50 0b3e a678 953d 8f5b 833b
000001b0: fdb0 293d e6a7 a8bd b777 d1bb 9a58 613d
000001c0: 238b d13c 6bf7 4ebd 3c19 e53d 8a42 9fbc
000001d0: 0e4f 853b 6ca4 c13d 7380 053e 80fa a33c
000001e0: 38b9 fc3d 7d73 403c 192f afba d7e9 d83d
000001f0: 3228 1dbd 7fd0 bcbd e59f c93d 3bd0 05be
00000200: 7108 c5bc 74d3 a13d 90e8 d4bd 030f ee3d
00000210: df5f 93bd db57 0fbe 8e91 e5bd be91 933b
00000220: e911 ad3d 4354 07be a8bf 7cbd 487a c73d
00000230: ea1f d13d 6b33 11bc 08df d73d bf20 8fbd
00000240: e0cd d7bd d12c db3d cdab c13c fc8f 0f3d
00000250: deef b43d bca4 ed3d bc8d 6b3b 1caf ea3d
00000260: 7aae 233e d5bf ec3c 6474 f0bb 0d65 03bd
00000270: 7dd2 4abd fb90 6bbd 045e e93d 1b6c 003e
00000280: 76ca a93c 638a 973d 24cc f5bd 4182 d13d
00000290: 4c1f d93d ed79 d13d 95d6 d2bc 1af3 703c
000002a0: 86cb 3b3d 0753 e6bd f5e8 b33d c611 4e3d
000002b0: ae57 923d 9adf 513d 34f3 f53d cb1b 7fbd
000002c0: a4d0 093d 149a 5abd 40a2 adbc 50be 143e
000002d0: c394 09be 7316 b0ba 2a82 003d 3221 a6bc
000002e0: 7ada b3ba fbe2 4a3d 2321 33bd 4617 b7bc
000002f0: a9b4 b1bd 691b d63d 94bb 143e 2efa 9639
00000300: 8047 953c cd05 433e d0e6 263d 034c bd3d
00000310: e653 113e f9e7 acbc 26a6 d03c caa2 bf3d

lstm.bias_hh_l1 f4 [200]
0.077005774 -0.07425287 -0.035942696 -0.106316864 0.080527775 0.075512454 -0.055397283 0.04253447
-0.09129374 -0.0526206 -0.030103147 0.1259136 -0.13362503 0.048533276 0.07031163 -0.04742601
-0.10470895 0.12362237 0.008946781 -0.052643426 -0.11444587 -0.06471034 -0.04083385 0.09271841
0.01116017 0.0847608 0.10024509 0.030996349 0.051731646 0.1017045 -0.13896579 0.14077139
-0.12686558 -0.11060939 0.010915428 0.031666625 0.01785971 -0.09604102 0.13150771 0.037754532
-0.062112845 0.040635977 0.07092376 0.0147656435 -0.048533477 0.1104714 -0.10084507 0.14665677
0.0056805178 -0.08601544 0.07911613 0.120345704 -0.062581085 -0.043096848 -0.14056724 0.11681173
0.09455602 0.08994576 0.005574844 0.012331871 0.12824431 0.0509484 -0.015435543 0.03626906
-0.13690044 0.05071451 -0.0032762855 0.061002716 0.029223386 -0.0774212 0.046468075 -0.108697265
-0.12378123 0.07933911 -0.035542358 -0.09257687 -0.0037759305 -0.07596022 -0.04721863 -0.027228976
-0.10551553 0.080591865 -0.10023328 -0.06547943 -0.061936073 0.021547282 0.055523884 0.03806029
-0.04017801 0.06883307 0.07759336 0.14720435 -0.08515698 0.029119784 -0.1433058 0.02537211
0.1386365 -0.12387312 -0.10392692 -0.15144719 0.13658598 -0.039047934 0.005677 0.10000737
-0.055212837 -0.13237505 0.075063914 0.06017341 0.049319293 0.13491301 0.1339583 -0.040974133
-0.14159787 -0.00010400387 -0.0738053 0.056569427 0.09312762 -0.035094507 -0.0075924713 -0.11803658
-0.10620859 -0.1194084 0.081467204 0.025832832 -0.035776854 -0.10578246 -0.04906104 -0.13016315
0.095601656 0.079567626 -0.10812506 -0.08552643 0.1221371 -0.016096925 -0.13307211 -0.061202157
0.08350944 -0.043285083 0.057257034 0.12430199 0.11348684 0.01771837 -0.10494371 0.085576974
-0.014216937 -0.13351242 0.08432883 0.03189619 0.03098098 0.043452192 0.17780298 -0.017774118
0.10713625 -0.06920267 -0.12557444 -0.10420498 -0.115157165 0.07516265 0.07140228 -0.097278066
-0.009882662 -0.012646704 0.10292435 -0.046168976 -0.066103585 -0.010783717 0.054664508 0.04321744
-0.1365051 -0.06502252 0.03701147 -0.1152081 -0.05177168 0.044258274 0.1373246 0.14739889
0.028204625 -0.10681242 0.13142563 -0.08338861 -0.06014174 0.00500178 0.11230422 -0.04472707
0.069977805 -0.053160977 -0.05639969 0.13055004 0.07465365 0.08724158 0.036483154 -0.053959064
0.027305907 0.14994383 0.15085311 0.082578994 -0.056197148 -0.07695036 0.108634494 0.09562194
00000000: 34b5 9d3d e411 98bd a638 13bd a8bc d9bd
00000010: bfeb a43d 46a6 9a3d 43e8 62bd a038 2e3d
00000020: 36f8 babd b388 57bd e09a f6bc 7fef 003e
00000030: 00d5 08be d4ca 463d 8bff 8f3d c741 42bd
00000040: a571 d6bd ba2d fd3d 8595 123c a2a0 57bd
00000050: 9962 eabd db86 84bd 6541 27bd 26e3 bd3d
00000060: 25d9 363c 1297 ad3d 4c4d cd3d 0eec fd3c
00000070: 90e4 533d 734a d03d 0c4d 0ebe 6026 103e
00000080: 0de9 01be 2d87 e2bd a0d6 323c ddb4 013d
00000090: 874e 923c 27b1 c4bd f5a9 063e 7fa4 1a3d
000000a0: 0a6a 7ebd e971 263d 7a40 913d 99eb 713c
000000b0: 0acb 46bd d43e e23d dc87 cebd 312d 163e
000000c0: a323 ba3b dd28 b0bd a307 a23d cf77 f63d
000000d0: 832a 80bd 5286 30bd dcf0 0fbe fd3a ef3d
000000e0: 96a6 c13d 7c35 b83d 2ead b63b 9e0b 4a3c
000000f0: 7a52 033e 45af 503d 5ce5 7cbc de8e 143d
00000100: a12f 0cbe 05ba 4f3d f3b6 56bb fcdd 793d
00000110: e265 ef3c 028f 9ebd 4f55 3e3d ac9c debd
00000120: 0381 fdbd 8b7c a23d dd94 11bd f198 bdbd
00000130: 9a75 77bb 0891 9bbd 5268 41bd 4d0f dfbc
00000140: 8718 d8bd 590d a53d 1b47 cdbd 141a 86bd
00000150: aeb0 7dbd ed83 b03c 036d 633d 1be5 1b3d
00000160: b291 24bd 5af8 8c3d 44e9 9e3d bdbc 163e
00000170: c866 aebd 9d8c ee3c c1be 12be 2cd9 cf3c
00000180: baf6 0d3e 31b1 fdbd a3d7 d4bd f914 1bbe
00000190: 32dd 0b3e baf0 1fbd 2106 ba3b aad0 cc3d
000001a0: db26 62bd 538d 07be 1cbb 993d 6578 763d
000001b0: 0703 4a3d a326 0a3e 5d2c 093e 7ed4 27bd
000001c0: 08ff 10be a71c dab8 3c27 97bd 58b5 673d
000001d0: b2b9 be3d 42bf 0fbd 44ca f8bb 2abd f1bd
000001e0: e483 d9bd 648c f4bd 47d8 a63d 609f d33c
000001f0: c08a 12bd 79a4 d8bd 3bf4 48bd 7d49 05be
00000200: cdca c33d 5af4 a23d ac70 ddbd 7b28 afbd
00000210: 0423 fa3d b3dd 83bc 0e44 08be 1daf 7abd
00000220: ff06 ab3d b34b 31bd 5a86 6a3d 0b92 fe3d
00000230: ca6b e83d 1d26 913c baec d6bd fb42 af3d
00000240: 28ee 68bc 7bb7 08be 98b4 ac3d 94a5 023d
00000250: d3cb fd3c edfa 313d fc11 363e 079b 91bc
00000260: 406a db3d 21ba 8dbd 9696 00be 6c69 d5bd
00000270: 85d7 ebbd e0ee 993d 5c3b 923d b939 c7bd
00000280: e4ea 21bc 1f34 4fbc 00ca d23d ae1b 3dbd
00000290: 5161 87bd 30ae 30bc e4e7 5f3d c504 313d
000002a0: fec7 0bbe 872a 85bd 5799 173d 39f2 ebbd
000002b0: 8b0e 54bd 2a48 353d d29e 0c3e bcef 163e
000002c0: 630d e73c 78c0 dabd 7194 063e a6c7 aabd
000002d0: 2f57 76bd f9e5 a33b c1ff e53d bb33 37bd
000002e0: 8650 8f3d 53bf 59bd 5d03 67bd e9ae 053e
000002f0: 03e4 983d b7ab b23d 5c6f 153d 2e04 5dbd
00000300: a3b0 df3c e08a 193e 3d79 1a3e 2d1f a93d
00000310: fb2e 66bd 2698 9dbd c37b de3d 70d5 c33d

fc.weight f4 [1, 50]
-0.19537745 -0.12836574 -0.09325186 0.085487366 0.08281271 -0.07075612 -0.09203142 0.11035958
-0.030214254 0.14381662 0.041725464 0.1460524 -0.034362998 -0.052480504 -0.053468946 0.09067325
-0.08284862 -0.10521547 0.092705235 0.109840766 0.08231179 -0.020562395 0.07875584 0.12073745
0.04820609 -0.12735291 0.07971412 -0.1318792 0.049552675 0.114714086 0.030027445 0.12513438
-0.081662625 -0.12734279 -0.039885186 -0.046702087 -0.11410494 0.137909 0.03073266 -0.07363011
0.04741957 0.12150192 0.00069195195 -0.103826016 0.13318074 0.12693535 0.108816706 0.060641278
0.08155052 -0.09065314
00000000: 0711 48be 4f72 03be d5fa bebd 0014 af3d
00000010: b699 a93d 96e8 90bd f87a bcbd 3404 e23d
00000020: e283 f7bc aa44 133e 52e8 2a3d c38e 153e
00000030: 37c0 0cbd ccf5 56bd 4102 5bbd e6b2 b93d
00000040: 8aac a9bd 357b d7bd 3edc bd3d 32f4 e03d
00000050: 1593 a83d 7872 a8bc be4a a13d 3245 f73d
00000060: c073 453d cd68 02be 2841 a33d 570b 07be
00000070: bff7 4a3d 38ef ea3d 1efc f53c 3a23 003e
00000080: bc3e a7bd 2666 02be a65e 23bd b04a 3fbd
00000090: daaf e9bd 0438 0d3e 0fc3 fb3c 62cb 96bd
000000a0: 063b 423d 00d6 f83d 1c64 353a bca2 d4bd
000000b0: 8860 083e 57fb 013e 4bdb de3d fd62 783d
000000c0: f603 a73d 5aa8 b9bd
