LSTM/stock_Model.pth (torch, 131333 bytes, 9 tensors)

lstm.weight_ih_l0 f4 [200, 5]
-0.13884218 -0.12685259 -0.055710025 0.0835907 0.03574002 -0.09888087 0.10976458 -0.016208671
-0.12220836 -0.10546789 0.0853225 0.1188097 -0.05928456 0.04819323 0.10262911 -0.08225215
0.04518403 -0.019724362 -0.07860912 -0.104481414 -0.036138177 0.07889425 0.013248777 0.12216612
0.09252336 0.07711781 0.0026630987 -0.08017227 0.13426548 0.10124374 0.17934614 0.16458187
0.14437714 0.07346549 -0.07719205 0.15178818 0.15046805 0.0973499 -0.06275622 -0.021466292
0.061238386 -0.050794892 -0.11895071 0.0499907 0.05002138 0.0655401 0.018995676 0.018909236
-0.006121679 0.054617744 -0.035478685 -0.023290012 0.073855616 -0.08304048 0.058317836 -0.06400226
-0.024016814 -0.01963756 0.03210427 0.17480035 -0.09252767 -0.13041297 -0.0658583 0.08343493
-0.07299601 0.061984945 0.15926383 0.13698682 0.10573773 0.047868878 0.05746618 0.08201927
-0.044538006 0.14173356 0.047335222 -0.058241013 0.11251375 -0.06775301 -0.050994806 -0.043133616
0.14169724 0.09861552 -0.029631617 0.07618823 -0.0970775 -0.104595974 -0.081320114 0.13278534
-0.08905992 0.019829256 0.1425703 -0.07452263 0.10694999 -0.030496143 0.021518359 0.057974964
0.042737897 0.0050961967 0.08282147 -0.018224569 -0.01862735 -0.04284174 -0.10803523 0.13771161
0.038608175 0.083223656 0.023182115 -0.10134026 0.099883206 -0.039257422 -0.034853842 -0.058360275
-0.076512024 0.06403951 -0.02287768 -0.057758324 -0.14698999 0.08840898 -0.019954495 -0.077395335
-0.057190742 0.059755765 0.08824759 -0.005674336 -0.06724857 0.16136277 -0.067631006 -0.036708366
-0.01279966 -0.08275135 0.11141384 -0.0335119 -0.06109907 -0.11167649 -0.083267905 0.11019551
0.019184073 0.12082568 0.11841072 0.070536144 0.06949733 -0.08015242 -0.013886983 -0.037855685
0.114935406 0.046800777 0.041169826 0.063144706 0.13917711 0.03602437 0.060573522 0.06487718
-0.020834176 0.112358846 0.052518614 0.03601288 0.008525693 -0.0038865325 0.0990865 -0.026477063
-0.027284257 -0.11437497 0.09079277 0.07397905 -0.1498503 -0.09289239 0.09192681 0.038841177
-0.03783312 0.056083117 -0.06754852 -0.14451462 0.08142942 0.027678208 0.041601196 0.036903325
-0.027281534 -0.03439953 -0.044456296 -0.10229265 -0.09189032 0.04878647 -0.02525505 0.022376934
0.11576865 0.0617151 0.09434167 -0.07152522 0.07970308 -0.011622985 -0.06206063 0.0021697793
0.08206929 -0.108826175 -0.16139984 -0.10321251 0.10030018 0.13858074 -0.012390581 0.05618567
-0.04149508 0.1385619 0.15460356 -0.09372878 0.009001185 -0.010199454 0.15069558 -0.039653223
0.07398133 -0.018750422 -0.10688346 -0.1348522 -0.018711522 0.03287734 -0.046796486 0.09945867
0.07235802 0.12661865 0.018960217 -0.15464854 0.12508191 0.0047051115 0.13791573 0.10980915
0.09788315 0.17655471 -0.07604476 0.020404484 -0.05286372 -0.03886581 0.034162283 0.07421391
-0.033685386 0.05031921 -0.13736673 0.058449365 0.018666482 -0.059310727 0.09917445 0.075744495
0.11724742 0.006051489 0.13850617 -0.09542941 -0.010813493 0.124638505 0.046965256 -0.09798047
-0.08002391 -0.036814682 -0.0787259 0.08817168 0.052202187 0.11043193 -0.030175356 0.020600941
00000000: a52c 0ebe a5e5 01be 3230 64bd 9a31 ab3d
00000010: 2164 123d 0e82 cabd 41cc e03d 0cc8 84bc
00000020: 6048 fabd 8dff d7bd 90bd ae3d 8052 f33d
00000030: 5ed4 72bd 4466 453d 362f d23d d173 a8bd
00000040: e412 393d fc94 a1bc d1fd a0bd 5afa d5bd
00000050: a005 14bd 4f93 a13d 6611 593c 3b32 fa3d
00000060: e37c bd3d f1ef 9d3d 6287 2e3b 5c31 a4bd
00000070: e47c 093e e158 cf3d 84a6 373e 2688 283e
00000080: 9ad7 133e 1375 963d de16 9ebd 5c6e 1b3e
00000090: 4c14 1a3e 625f c73d 5586 80bd 14da afbc
000000a0: 1ad5 7a3d 4e0e 50bd 6e9c f3bd 0cc3 4c3d
000000b0: 38e3 4c3d e339 863d d29c 9b3c 8be7 9a3c
000000c0: 5e98 c8bb dbb6 5f3d 1952 11bd b2ca bebc
000000d0: 9d41 973d 2111 aabd afde 6e3d 9e13 83bd
000000e0: e9be c4bc f3de a0bc c47f 033d ddfe 323e
000000f0: 267f bdbd fa8a 05be b7e0 86bd efdf aa3d
00000100: ef7e 95bd ede3 7d3d 0f16 233e 4646 0c3e
00000110: 068d d83d 2812 443d a861 6b3d b8f9 a73d
00000120: 7c6d 36bd 9a22 113e 94e2 413d 218e 6ebd
00000130: 9c6d e63d 17c2 8abd eedf 50bd e0ac 30bd
00000140: 1519 113e eff6 c93d 01be f2bc 9308 9c3d
00000150: 91d0 c6bd 6a36 d6bd 298b a6bd e1f8 073e
00000160: 0c65 b6bd f770 a23c f3fd 113e 529f 98bd
00000170: 9908 db3d 0cd3 f9bc 4547 b03c 2877 6d3d
00000180: ef0d 2f3d fffd a63b 4e9e a93d b14b 95bc
00000190: 6298 98bc d27a 2fbd 9341 ddbd 4604 0d3e
000001a0: 9b23 1e3d 2a71 aa3d 6be8 bd3c 7b8b cfbd
000001b0: 918f cc3d 64cc 20bd e7c2 0ebd 2f0b 6fbd
000001c0: 56b2 9cbd 2627 833d f969 bbbc fe93 6cbd
000001d0: 8b84 16be c40f b53d 9c77 a3bc 7281 9ebd
000001e0: d740 6abd 76c2 743d 27bb b43d c8ef b9bb
000001f0: 9eb9 89bd 483c 253e 2082 8abd 835b 16bd
00000200: aab5 51bc 8a79 a9bd f02c e43d c643 09bd
00000210: 0543 7abd a5b6 e4bd 5d88 aabd 2fae e13d
00000220: eb27 9d3c 7473 f73d 5281 f23d 4175 903d
00000230: 9e54 8e3d f426 a4bd 3a86 63bc 900e 1bbd
00000240: 4163 eb3d 2cb2 3f3d b1a1 283d 0352 813d
00000250: 7284 0e3e 4a8e 133d f11b 783d 54de 843d
00000260: 6fac aabc 651c e63d c21d 573d 3e82 133d
00000270: 59af 0b3c 32b5 7ebb dded ca3d 6de6 d8bc
00000280: 3c83 dfbc 6d3d eabd 8ff1 b93d 5482 973d
00000290: 5b72 19be 5e3e bebd 2044 bc3d ed17 1f3d
000002a0: e7f6 1abd 69b7 653d e156 8abd a4fb 13be
000002b0: 78c4 a63d 69bd e23c 0466 2a3d f127 173d
000002c0: 867d dfbc 86e6 0cbd ce17 36bd cf7e d1bd
000002d0: fe30 bcbd 52d4 473d aee3 cebc d54f b73c
000002e0: 1d18 ed3d f9c8 7c3d 3536 c13d d17b 92bd
000002f0: 5e3b a33d 556e 3ebc 4a33 7ebd db32 0e3b
00000300: f213 a83d 42e0 debd 0046 25be 1561 d3bd
00000310: 2e6a cd3d 1ce8 0d3e dd01 4bbc f222 663d
00000320: bff6 29bd 2ce3 0d3e 6550 1e3e e0f4 bfbd
00000330: b579 133c 9c1b 27bc f14f 1a3e 6b6b 22bd
00000340: 8683 973d 7c9a 99bc b7e5 dabd b216 0abe
00000350: e848 99bc 64aa 063d acad 3fbd fdb0 cb3d
00000360: 7130 943d 52a8 013e 7552 9b3c 305c 1ebe
00000370: 7915 003e 562d 9a3b c839 0d3e 9fe3 e03d
00000380: f676 c83d c2ca 343e 5bbd 9bbd 4e27 a73c
00000390: a187 58bd c131 1fbd c0ed 0b3d 76fd 973d
000003a0: b0f9 09bd 841b 4e3d dda9 0cbe 9a68 6f3d
000003b0: 73ea 983c ceef 72bd f91b cb3d ee1f 9b3d
000003c0: 6a1f f03d 924b c63b 90d4 0d3e 7f70 c3bd
000003d0: 142b 31bc 7942 ff3d a45e 403d fca9 c8bd
000003e0: 93e3 a3bd feca 16bd 0b3b a1bd 5b93 b43d
000003f0: f6d1 553d 232a e23d 4f32 f7bc 4ec3 a83c

lstm.weight_hh_l0 f4 [200, 50]
-0.07148922 0.08135941 -0.10645147 -0.07842927 -0.12789084 0.16197209 -0.040629104 -0.04753913
-0.15247543 -0.029838443 0.041310295 0.122415766 0.025501266 -0.031137118 -0.04083542 -0.04002098
0.060193814 -0.009391972 0.04440985 0.010610163 0.044236988 -0.009449636 -0.07959811 0.017348107
-0.05185678 -0.0024271363 -0.024835255 0.08953121 -0.045635324 0.025489595 -0.0850343 -0.10155184
-0.003767157 0.103289105 0.0044240747 -0.09374407 -0.037188143 -0.1453481 0.09503394 0.119372584
-0.068560824 -0.00032228947 -0.11315806 0.021244852 -0.052293163 0.008937913 0.065106265 0.0029643276
0.10622948 0.13650498 -0.020267282 0.1134581 0.11789567 -0.10294422 -0.010148859 -0.07355427
-0.06260743 0.072813645 0.050003894 0.029626088 -0.11784012 0.10660843 0.12182061 -0.06206558
-0.008461313 0.05225826 0.01197996 -0.07497994 -0.017635722 -0.034941174 0.12230039 0.13300726
0.04166808 0.08897497 0.14313622 0.011261956 -0.010104979 0.043554325 0.09641548 -0.03573637
-0.055724703 -0.019251367 0.11467846 0.09876476 0.04951246 -0.014943939 0.14093126 -0.04381387
0.0029209612 0.06043498 -0.0534941 -0.04743245 -0.09807855 -0.0048439293 0.027329834 -0.06898967
0.13162905 -0.09296005 0.0021980845 0.09475418 -0.0930344 0.07282342 -0.06901372 -0.09804599
0.13590404 0.037360843 0.14509617 0.07570592 0.0859115 -0.12578978 0.13493595 0.12483645
-0.10034205 0.034645937 -0.028263906 0.13756825 0.14055574 -0.08454661 -0.0770228 -0.08267184
-0.0092806015 -0.049958553 -0.02207725 0.00042272746 -0.01882022 0.1085491 -0.03864335 0.0513683
0.032906294 -0.011195057 0.0033092618 -0.011884645 0.068662114 -0.07468656 0.07426839 0.11989893
0.027227767 0.06174821 0.055691887 -0.011512648 -0.11441026 -0.13707736 0.013644377 0.10153002
0.07686599 -0.0022974743 0.03933826 -0.10078641 -0.05079821 -0.01751815 -0.05338356 0.101639695
0.05274954 -0.13554639 0.10383137 -0.02898174 -0.11927725 -0.02582194 -0.052525535 -0.07161231
0.06846465 0.09037343 -0.14218841 -0.08098383 -0.038811367 -0.10708622 0.044017255 -0.026592711
-0.017145323 0.105878375 -0.102424935 0.027328981 0.016449375 -0.015505985 -0.08386199 -0.023305088
-0.077138424 0.07650344 -0.12545717 -0.09772889 0.001287249 -0.099929295 -0.08300729 0.11939658
-0.05817793 0.1284832 -0.10042423 -0.049036372 -0.10705061 0.04450726 -0.07765651 -0.10803464
0.16006646 0.07055724 -0.058696397 -0.01519793 -0.039750285 -0.056497935 -0.10920298 -0.016178604
0.07011217 -0.055194806 -0.06392796 -0.039016258 -0.017044604 -0.09704113 0.114124686 0.12421195
-0.051514916 -0.08565821 0.021538945 0.14090765 0.079960525 0.08890793 -0.034099057 0.03174263
-0.033743035 -0.051597293 0.03337741 0.13153794 0.09132211 0.015957948 0.03243471 -0.027631558
-0.14919351 0.09075371 0.12514399 0.020296138 0.007092717 0.07714128 -0.10322371 0.08342306
-0.15354446 0.011416104 -0.06806446 -0.030398889 0.11644116 0.14175841 0.04635325 -0.096732646
0.08051734 -0.005592101 -0.0033671749 0.03635486 -0.1423568 0.018947165 -0.060246468 -0.11050909
0.13208604 0.040337097 -0.115150996 0.008020399 -0.12249675 0.101873085 0.007435077 0.10035944
00000000: f168 92bd c39f a63d 3a03 dabd 869f a0bd
00000010: d1f5 02be 03dc 253e b46a 26bd 64b8 42bd
00000020: 8522 1cbe c06f f4bc fc34 293d 1eb5 fa3d
00000030: 08e8 d03c 4513 ffbc 0b43 27bd 0aed 23bd
00000040: ca8d 763d c9e0 19bc 1ae7 353d 40d6 2d3c
00000050: d831 353d a5d2 1abc 5504 a3bd 9e1d 8e3c
00000060: c667 54bd 9710 1fbb 4e73 cbbc 245c b73d
00000070: 1bec 3abd 8ecf d03c 7726 aebd 69fa cfbd
00000080: 68e2 76bb 3d89 d33d d4f7 903b e4fc bfbd
00000090: 9852 18bd 22d6 14be 28a1 c23d 9d79 f43d
000000a0: 9e69 8cbd f6f8 a8b9 6abf e7bd af09 ae3c
000000b0: 5b31 56bd 5370 123c 6f56 853d 2a45 423b
000000c0: d78e d93d f6c7 0b3e 9207 a6bc b85c e83d
000000d0: 4973 f13d 6bd4 d2bd 6647 26bc 9fa3 96bd
000000e0: 5338 80bd 521f 953d e2d0 4c3d 69b2 f23c
000000f0: 2956 f1bd 8555 da3d 157d f93d 7a38 7ebd
00000100: 52a1 0abc c20c 563d 9847 443c 158f 99bd
00000110: ca78 90bc 7a1e 0fbd a078 fa3d 0e33 083e
00000120: 26ac 2a3d 8238 b63d 4d92 123e 1184 383c
00000130: 5b8f 25bc 0566 323d 7b75 c53d 4d60 12bd
00000140: 963f 64bd 0bb5 9dbc 8adc ea3d 2e45 ca3d
00000150: 94cd 4a3d 6cd7 74bc 4950 103e 2c76 33bd
00000160: 996d 3f3b ab8a 773d a11c 5bbd 8748 42bd
00000170: 68dd c8bd d3b9 9ebb d1e2 df3c 754a 8dbd
00000180: c4c9 063e d761 bebd bd0d 103b 7b0e c23d
00000190: d288 bebd 7224 953d 1157 8dbd 56cc c8bd
000001a0: 6e2a 0b3e af07 193d 1794 143e b50b 9b3d
000001b0: 5ef2 af3d 09cf 00be a62c 0a3e 41aa ff3d
000001c0: 2280 cdbd e6e8 0d3d b589 e7bc b1de 0c3e
000001d0: d8ed 0f3e c626 adbd 21be 9dbd db4f a9bd
000001e0: aa0d 18bc 57a1 4cbd 59db b4bc 85a1 dd39
000001f0: dd2c 9abc fe4e de3d 7d48 1ebd 9167 523d
00000200: c0c8 063d 796b 37bc 33e0 583b d0b7 42bc
00000210: b99e 8c3d 44f5 98bd 071a 983d 928d f53d
00000220: c40c df3c b1eb 7c3d 2d1d 643d 8c9f 3cbc
00000230: ed4f eabd 025e 0cbe aa8c 5f3c f9ee cf3d
00000240: eb6b 9d3d 3991 16bb 2821 213d 1b69 cebd
00000250: c911 50bd 3982 8fbc b8a8 5abd 7928 d03d
00000260: e70f 583d accc 0abe 8ba5 d43d 1d6b edbc
00000270: a147 f4bd 8888 d3bc 0425 57bd 7aa9 92bd
00000280: 3237 8c3d b415 b93d d799 11be dada a5bd
00000290: abf8 1ebd 0550 dbbd 704b 343d f5d8 d9bc
000002a0: 5974 8cbc c3d6 d83d 2ac4 d1bd 07e1 df3c
000002b0: d7c0 863c d10c 7ebc d6bf abbd 50ea bebc
000002c0: c0fa 9dbd d6ad 9c3d d877 00be 1626 c8bd
000002d0: e9b8 a83a bba7 ccbd baff a9bd 3286 f43d
000002e0: fb4b 6ebd 1a91 033e 38ab cdbd 5dda 48bd
000002f0: 5a3d dbbd 3f4d 363d 600a 9fbd 4441 ddbd
00000300: 76e8 233e 5080 903d a26b 70bd bd00 79bc
00000310: 32d1 22bd 616a 67bd d0a5 dfbd fe88 84bc
00000320: f896 8f3d f313 62bd aaec 82bd 83cf 1fbd
00000330: 20a1 8bbc 80bd c6bd 34ba e93d d662 fe3d
00000340: 4e01 53bd 926d afbd 7172 b03c 184a 103e
00000350: 58c2 a33d 5c15 b63d 74ab 0bbd 8f04 023d
00000360: 2336 0abd af57 53bd c0b6 083d e2b1 063e
00000370: 1607 bb3d 3eba 823c 42da 043d 945b e2bc
00000380: 2fc6 18be 15dd b93d bf25 003e 1644 a63c
00000390: 066a e83b 3ffc 9d3d f466 d3bd b6d9 aa3d
000003a0: c23a 1dbe 9c0a 3b3c 6165 8bbd 1707 f9bc
000003b0: b478 ee3d 1e29 113e e8dc 3d3d c41b c6bd
000003c0: 46e6 a43d f13d b7bb d2ab 5cbb d5e8 143d
000003d0: fbc5 11be 1637 9b3c 00c5 76bd 9752 e2bd
000003e0: 9041 073e 8338 253d 49d4 ebbd fe67 033c
000003f0: 93df fabd d6a2 d03d f2a1 f33b 4089 cd3d

lstm.bias_ih_l0 f4 [200]
-0.13340393 -0.05798635 -0.036741547 -0.04083166 0.06342578 -0.0071135587 -0.10656028 -0.10555418
0.12010466 -0.13009416 -0.08119447 0.13098343 -0.07010063 -0.022649512 0.17080674 -0.042826947
0.07601185 -0.041535802 0.076476775 0.12447568 0.11914075 0.090508245 0.0432325 0.07587877
0.043532733 -0.09050357 -0.062780075 0.14310314 -0.09878203 -0.024210105 -0.14684184 0.016435286
0.044859327 0.12380773 0.07268088 -0.024974722 0.12689298 0.1019669 0.11972549 -0.07196635
-0.011312414 -0.13170907 -0.14307305 0.01135341 -0.07827254 -0.02517075 -0.10256601 0.0754938
-0.0633029 -0.05734256 0.073317416 0.07099856 0.14494534 -0.049778026 -0.0018367217 -0.065684
0.023576146 -0.03501311 0.047725208 0.08280851 0.011447315 -0.01503971 -0.12418718 -0.07706312
-0.04540303 0.038287446 -0.14879148 -0.08171017 0.053419057 0.025260527 -0.036663618 0.10860035
0.08398978 -0.114582226 -0.090871386 0.080517605 0.09824479 -0.089210846 0.062331185 0.049639992
-0.046718564 -0.054796863 -0.10179815 0.10696471 -0.045428567 0.09662668 0.0733293 0.030947164
-0.10844804 -0.024311056 -0.036469024 0.14114125 0.055419475 0.09509717 0.037235152 -0.030113794
0.07247506 0.06544949 0.06939514 -0.031712804 -0.034278646 -0.010117299 0.028162913 -0.02424892
0.08726587 -0.037978586 0.031621035 -0.034780756 -0.14614631 -0.07690401 0.08404416 0.0027533837
-0.0066100066 0.021641864 0.037807606 -0.10437858 0.056713466 -0.11295607 0.022278957 -0.10805671
0.044400785 0.06659064 0.058972955 0.1160265 -0.04880801 -0.056657057 -0.017139556 0.042112574
-0.058094434 0.095787756 -0.06738972 0.13205102 0.0017308838 -0.0640194 -0.060594536 -0.07493916
-0.04516675 -0.032577503 0.06557117 0.11386291 0.029049972 -0.13736416 -0.0040824185 -0.1205737
-0.0030428295 0.038317222 0.07080754 -0.01832597 0.049404174 0.028360927 -0.036180895 -0.10316069
0.010659659 0.11105295 -0.12530582 -0.020696616 0.09551884 -0.07511141 -0.037064366 0.06212648
0.012241907 0.122815914 -0.04121724 0.09835413 -0.07459268 -0.018156245 0.08041991 0.06787898
0.1479412 -0.11073551 0.045723647 0.09707663 -0.12737127 -0.019870063 0.10589729 0.08044022
-0.004788283 0.12142403 0.12492203 -0.006920081 0.04418999 -0.0668244 -0.049521193 0.053018797
0.08220824 0.012128276 0.028363423 0.13656908 0.053015947 0.033665102 -0.05317279 -0.03162865
-0.100794986 0.13548486 0.035710018 0.018825594 -0.016485773 -0.05412276 -0.106663704 -0.08799858
00000000: 0a9b 08be 1883 6dbd 4e7e 16bd 193f 27bd
00000010: 60e5 813d db18 e9bb 473c dabd ca2c d8bd
00000020: 6ff9 f53d 6737 05be 4949 a6bd 8520 063e
00000030: eb90 8fbd 788b b9bc f6e7 2e3e 4f6b 2fbd
00000040: 1aac 9b3d 7221 2abd db9f 9c3d 1bed fe3d
00000050: 1100 f43d 635c b93d 9014 313d 5466 9b3d
00000060: 614f 323d f059 b9bd d792 80bd a189 123e
00000070: 3c4e cabd 4554 c6bc b55d 16be 4ba3 863c
00000080: 6abe 373d e88e fd3d b7d9 943d ca97 ccbc
00000090: 3cf0 013e 06d4 d03d a332 f53d 1863 93bd
000000a0: b457 39bc bede 06be be81 12be a703 3a3c
000000b0: 5a4d a0bd e432 cebc 210e d2bd 7e9c 9a3d
000000c0: f3a4 81bd 08e0 6abd 7127 963d b167 913d
000000d0: 8d6c 143e 0be4 4bbd 27be f0ba 5585 86bd
000000e0: c322 c13c e869 0fbd 827b 433d 8297 a93d
000000f0: 858d 3b3c 1e69 76bc d955 febd 45d3 9dbd
00000100: 87f8 39bd 4cd3 1c3d cb5c 18be a957 a7bd
00000110: f1cd 5a3d 2aef ce3c 972c 16bd dc69 de3d
00000120: d502 ac3d 16aa eabd c71a babd 6ae6 a43d
00000130: 9134 c93d 2db4 b6bd fc4e 7f3d 4e53 4b3d
00000140: f75b 3fbd ad72 60bd 8c7b d0bd 5010 db3d
00000150: 4e13 3abd 35e4 c53d ac2d 963d e884 fd3c
00000160: 021a debd fb27 c7bc 8b60 15bd 5587 103e
00000170: 88ff 623d 4ec2 c23d e383 183d 34b1 f6bc
00000180: ce6d 943d 620a 863d 0a1f 8e3d 49e5 01bd
00000190: c467 0cbd 07c3 25bc e9b5 e63c aca5 c6bc
000001a0: 73b8 b23d 6f8f 1bbd 0f85 013d 4476 0ebd
000001b0: 61a7 15be d97f 9dbd 581f ac3d 1d72 343b
000001c0: c198 d8bb 474a b13c 26dc 1a3d 70c4 d5bd
000001d0: 614c 683d 8355 e7bd 5c82 b63c d64c ddbd
000001e0: 99dd 353d ac60 883d a08d 713d 4d9f ed3d
000001f0: e8ea 47bd 3b11 68bd 4168 8cbc 3c7e 2c3d
00000200: 6ef4 6dbd 5f2c c43d 9f03 8abd 6238 073e
00000210: d3de e23a 9a1c 83bd fa31 78bd b479 99bd
00000220: c500 39bd fd6f 05bd 2d4a 863d f530 e93d
00000230: 35fa ed3c 31a9 0cbe cfc5 85bb 58ef f6bd
00000240: 356a 47bb 85f2 1c3d 8b03 913d 5820 96bc
00000250: 085c 4a3d 2d55 e83c 6b32 14bd e945 d3bd
00000260: daa5 2e3c bb6f e33d 2b50 00be f38b a9bc
00000270: 629f c33d 03d4 99bd ced0 17bd 5678 7e3d
00000280: 4892 483c e986 fb3d 69d3 28bd e46d c93d
00000290: 0cc4 98bd 68bc 94bc 32b3 a43d 2204 8b3d
000002a0: e67d 173e 4dc9 e2bd b848 3b3d 1dd0 c63d
000002b0: 9d6d 02be 8bc6 a2bc aee0 d83d d8bd a43d
000002c0: 07e7 9cbb 29ad f83d 1fd7 ff3d d9c1 e2bb
000002d0: 9000 353d 3bdb 88bd bcd6 4abd 3d2a 593d
000002e0: cb5c a83d adb5 463c 695a e83c c4d8 0b3e
000002f0: 4027 593d 6be4 093d b6cb 59bd 0b8d 01bd
00000300: 9a6d cebd 8bbc 0a3e ab44 123d 2238 9a3c
00000310: 2c0d 87bc d4af 5dbd 8072 dabd 9938 b4bd

lstm.bias_hh_l0 f4 [200]
0.037896268 0.11389222 0.028748728 -0.009851361 -0.058249082 0.11618109 0.13970032 0.09443784
0.08899427 -0.06099269 -0.07858236 -0.09298167 -0.096684135 -0.037209332 -0.039765183 -0.08496139
-0.096100874 0.06860364 0.12630567 0.15020762 0.03098371 -0.09246374 0.10350218 -0.06363057
-0.116978414 -0.033303116 0.01709474 0.1491171 0.0144414315 0.07322013 0.05189667 -0.02472471
-0.07072378 0.10429464 0.07447385 0.08757575 0.06068317 -0.00015889911 0.14109448 0.07100835
-0.048627876 -0.042526364 0.031582497 -0.044659708 0.17303497 -0.062053077 0.08469598 0.10890931
0.020663735 0.014654707 -0.0940584 0.0041824062 0.12152088 0.12989742 0.1135814 0.115574755
-0.022260541 0.04982289 -0.062026113 -0.14720888 0.0042375075 0.12540317 -0.07942144 0.12160705
0.047101803 -0.113698095 0.07258294 -0.09055029 0.13591257 0.037212003 0.13573189 0.11953527
0.093148105 0.013550344 0.04572942 0.050790396 0.00047793527 -0.08520373 0.1036404 -0.097368374
-0.07650821 0.007878297 0.028143197 0.111117125 -0.00028211338 0.04350572 0.015758255 0.17324182
0.017070869 -0.025996048 0.12254384 0.05122902 -0.029325366 0.08162913 0.08602495 0.07791189
-0.030237602 -0.10477987 0.04318859 -0.119373776 0.062013965 -0.032174475 0.047405213 -0.054791093
0.07897303 0.105394475 0.08799625 -0.043210052 -0.07792996 0.007450506 0.11771615 0.0008057565
0.00022857288 0.06992432 0.10217425 -0.099130005 -0.08524909 0.07270847 -0.06952745 0.061641388
0.039148275 -0.10740777 0.07581244 -0.08848197 -0.034902677 0.054925244 -0.14027622 -0.13094682
0.10586553 -0.09695082 0.00024063405 -0.016303789 -0.10431528 -0.0769226 -0.061708223 -0.10042599
0.022875162 -0.14292195 -0.1461457 -0.14671135 -0.12772898 -0.009363647 0.020106513 0.07625763
0.090897135 -0.029316755 -0.019241365 -0.067063294 0.036410294 0.0058412766 -0.038187627 -0.06579208
0.1588243 0.023224717 0.10376536 0.13465421 0.108202964 0.056383807 0.12758474 0.084353246
-0.014215034 0.04176952 0.07429019 0.03137338 0.13834894 0.15425953 0.056181647 0.08951809
-0.04871078 -0.0055155847 0.14040011 0.016156066 -0.05941517 0.014750506 0.1010613 -0.09758757
0.038882747 -0.07927247 -0.023213746 -0.0064078313 0.03778933 -0.10507227 0.08879962 -0.069563024
-0.04215045 0.12979697 0.033849306 0.18093808 0.09349451 -0.089191385 0.14298172 -0.08235486
-0.11826666 -0.04136311 -0.09313968 -0.061550196 0.13584667 -0.14853816 0.07174812 -0.05575916
00000000: 1e39 1b3d 5340 e93d 7482 eb3c 9a67 21bc
00000010: 9796 6ebd 5af0 ed3d 9a0d 0f3e a068 c13d
00000020: a142 b63d 79d3 79bd caef a0bd 2c6d bebd
00000030: 5502 c6bd d068 18bd d1e0 22bd 3d00 aebd
00000040: 89d0 c4bd 1180 8c3d 4656 013e 07d0 193e
00000050: 8dd1 fd3c a15d bdbd f3f8 d33d bf50 82bd
00000060: 6192 efbd d968 08bd 450a 8c3c 27b2 183e
00000070: c19b 6c3c 6ff4 953d 9a91 543d 7a8b cabc
00000080: a1d7 90bd 6e98 d53d bf85 983d ea5a b33d
00000090: ea8e 783d 289e 26b9 127b 103e d36c 913d
000000a0: 062e 47bd 2030 2ebd a65c 013d 19ed 36bd
000000b0: 1430 313e 5e2b 7ebd 1675 ad3d d80b df3d
000000c0: fe46 a93c 4c1a 703c b1a1 c0bd 910c 893b
000000d0: f0df f83d d403 053e 5d9d e83d 75b2 ec3d
000000e0: bd5b b6bc 1613 4c3d 180f 7ebd edbd 16be
000000f0: cada 8a3b b069 003e b5a7 a2bd 1e0d f93d
00000100: d2ed 403d 8cda e8bd 5da6 943d 6e72 b9bd
00000110: aa2c 0b3e 9d6b 183d 4dfd 0a3e e8ce f43d
00000120: 6fc4 be3d 4302 5e3c c64e 3b3d 9709 503d
00000130: 6393 fa39 4b7f aebd 6b41 d43d 1269 c7bd
00000140: 56b0 9cbd f913 013c 908c e63c 6091 e33d
00000150: 9ee8 93b9 0e33 323d 7517 813c 4e66 313e
00000160: 35d8 8b3c aaf5 d4bc 44f8 fa3d 85d5 513d
00000170: c03b f0bc 2c2d a73d d92d b03d 4590 9f3d
00000180: d9b4 f7bc d496 d6bd 85e6 303d 3d7a f4bd
00000190: 5b02 7e3d 62c9 03bd f82b 423d a06c 60bd
000001a0: 9dbc a13d 0fd9 d73d 6137 b43d 06fd 30bd
000001b0: be99 9fbd 6023 f43b 2a15 f13d 6739 533a
000001c0: 11ad 6f39 7b34 8f3d bc40 d13d ac04 cbbd
000001d0: 1397 aebd 2ee8 943d 6864 8ebd ae7b 7c3d
000001e0: f159 203d 9bf8 dbbd 8d43 9b3d 0936 b5bd
000001f0: 1cf6 0ebd 4bf9 603d 92a4 0fbe ec16 06be
00000200: 07d0 d83d 278e c6bd b652 7c39 868f 85bc
00000210: 40a3 d5bd 9989 9dbd c3c1 7cbd 24ac cdbd
00000220: b164 bb3c 225a 12be 38a7 15be 803b 16be
00000230: 63cb 02be fb69 19bc 6ab6 a43c f62c 9c3d
00000240: 4728 ba3d b129 f0bc 11a0 9dbc 7b58 89bd
00000250: f622 153d 2e68 bf3b a16a 1cbd ffbd 86bd
00000260: d6a2 223e c341 be3c ef82 d43d cbe2 093e
00000270: 8499 dd3d b5f2 663d 93a5 023e 65c1 ac3d
00000280: 2de6 68bc 8416 2b3d 7525 983d 6081 003d
00000290: 58ab 0d3e 36f6 1d3e ba1e 663d 4355 b73d
000002a0: f484 47bd 14bc b4bb 0cc5 0f3e ba59 843c
000002b0: 525d 73bd 1bac 713c 3af9 ce3d fedb c7bd
000002c0: 8443 1f3d 9b59 a2bd c12a bebc c9f8 d1bb
000002d0: fcc8 1a3d 2130 d7bd 93dc b53d 0f77 8ebd
000002e0: f3a5 2cbd 7fe9 043e 92a5 0a3d d547 393e
000002f0: 0d7a bf3d f9a9 b6bd cd69 123e aaa9 a8bd
00000300: ca35 f2bd 5d6c 29bd 04c0 bebd 0f1c 7cbd
00000310: 641b 0b3e 631a 18be aef0 923d b863 64bd

lstm.weight_ih_l1 f4 [200, 50]
0.07760226 -0.08637815 -0.03590314 0.02820081 0.101246096 0.065364085 -0.09272393 0.14722745
0.09543557 0.103593975 0.10111943 0.04791163 -0.10289372 -0.060553197 0.11260817 0.07468839
-0.011137912 0.019717561 -0.014508358 0.0021539293 -0.04550406 -0.04182688 0.13632028 0.10575442
-0.16300459 0.0784657 0.04783105 -0.023131618 0.050068475 -0.027091177 -0.099835716 0.0772843
-0.096796304 0.08216414 0.043293357 -0.00298944 0.025246538 -0.04530268 0.12755059 -0.014912273
-0.05916102 -0.068028316 0.14017624 -0.06352446 0.10508819 -0.08980451 0.02510647 -0.09142356
0.121831916 -0.11119465 0.07055514 0.095448285 -0.09224951 0.030104313 -0.11689024 -0.07940454
0.04765544 0.056802377 0.021612464 -0.082821116 -0.04332316 0.16515118 0.07841235 0.13323356
-0.05408796 0.08990193 -0.09666287 -0.05945211 -0.076535344 0.06645171 0.15050133 -0.05268087
-0.11736983 0.09748967 0.05573899 -0.080558695 0.0042941594 0.037326578 -0.16180956 -0.049042307
-0.114077315 -0.10231303 -0.04150366 -0.015364739 0.12019107 0.009998363 -0.0006061981 -0.048471823
0.14395452 0.12057655 0.020597938 0.084848054 0.091467455 -0.046457954 -0.005561237 0.096379146
-0.10455826 -0.103205554 0.06339262 0.027793303 -0.08993612 0.03797212 0.031684916 -0.08121644
-0.08452602 -0.030378347 0.06480694 0.16081041 0.1695216 -0.009870216 -0.052305534 0.01719839
-0.14885278 -0.003674948 0.019898238 0.038402785 0.03306231 0.090571284 0.01565136 0.119543135
-0.075854264 -0.053277247 0.084065385 -0.020701304 0.036029283 0.0022832076 0.045784324 0.0243365
-0.118350424 0.004809247 0.007962014 0.13344234 0.056799505 -0.049952175 -0.058973342 0.14137574
-0.01597906 -0.058301125 -0.069439076 0.04189464 0.016305946 -0.033447787 -0.008917411 -0.09299449
0.10020063 0.018803963 0.084624514 0.056783937 0.102359146 -0.056240637 -0.035417482 -0.010747242
-0.09563979 0.052240267 0.011926547 -0.02236036 0.023583269 -0.051946677 -0.06691821 -0.03457014
0.05879962 0.028037962 -0.070377536 0.13748403 0.09743701 -0.10370174 0.00032357793 0.05750222
0.077604026 0.07990353 0.031764723 0.108143985 -0.121195585 -0.032604516 -0.10727191 0.004022184
-0.08382769 -0.0015664976 -0.083667114 -0.03200843 0.03727542 -0.07656092 -0.11375004 -0.078906216
0.08522279 0.012077957 -0.0053360024 0.13681445 -0.03741344 0.10972378 0.121032104 -0.017286414
0.14259589 0.0128367115 -0.032556444 -0.060163986 -0.05768519 -0.01978469 0.058058213 0.06560823
0.088560775 0.01162104 -0.056851316 0.123315 0.058561526 0.04730352 0.08084541 -0.0617363
-0.08386809 0.012864279 -0.10132152 -0.014206174 0.04300391 -0.026799373 0.102158695 -0.054770064
0.035372503 -0.06142038 0.02208952 0.044781882 -0.06196334 -0.14552473 -0.05384171 0.055417404
-0.1225252 -0.11795885 0.14463373 -0.0033355085 -0.14235176 0.15769835 -0.025919188 -0.064568564
-0.14224474 -0.0071207318 -0.0115082245 0.12522288 0.09184018 0.12682042 0.034144543 -0.0028659464
-0.07313495 0.078411035 -0.11806809 0.13724732 -0.0035914038 -0.011409581 -0.13176134 -0.008036619
0.0045277784 0.08726811 -0.11060468 -0.16067271 0.14050546 0.10890919 0.10083451 0.051524416
00000000: efed 9e3d 07e7 b0bd 2c0f 13bd 6305 e73c
00000010: 1d5a cf3d 9bdd 853d 0be6 bdbd cbc2 163e
00000020: b973 c33d 1429 d43d b417 cf3d fc3e 443d
00000030: f1b9 d2bd a106 78bd 1d9f e63d 3af6 983d
00000040: ca7b 36bc b986 a13c 77b4 6dbc f028 0d3b
00000050: 7762 3abd aa52 2bbd 8b97 0b3e c695 d83d
00000060: adea 26be a0b2 a03d 7eea 433d 857e bdbc
00000070: 9a14 4d3d 51ee ddbc ab76 ccbd 3b47 9e3d
00000080: 243d c6bd ac45 a83d 6054 313d 7bea 43bb
00000090: d4d1 ce3c 4e8f 39bd 9f9c 023e 9b52 74bc
000000a0: d352 72bd 6e52 8bbd 5c8a 0f3e 1d19 82bd
000000b0: 7a38 d73d 6deb b7bd 15ac cd3c 473c bbbd
000000c0: 0383 f93d 05ba e3bd 377f 903d 647a c33d
000000d0: 50ed bcbd 529d f63c 2664 efbd d99e a2bd
000000e0: 5a32 433d 9ca9 683d 9f0c b13c 1e9e a9bd
000000f0: a073 31bd 641d 293e a796 a03d 616e 083e
00000100: 568b 5dbd 811e b83d 2ff7 c5bd 0e84 73bd
00000110: 90be 9cbd d617 883d 051d 1a3e e5c7 57bd
00000120: 985f f0bd aaa8 c73d 914e 643d f5fb a4bd
00000130: 05b6 8c3b c1e3 183d 68b1 25be 96e0 48bd
00000140: 5ea1 e9bd 7e89 d1bd beff 29bd 63bc 7bbc
00000150: bc26 f63d 2dd0 233c 44e9 1eba 648a 46bd
00000160: d068 133e d7f0 f63d 02bd a83c d1c4 ad3d
00000170: 4a53 bb3d b24a 3ebd 0a3b b6bb 6e62 c53d
00000180: a422 d6bd 6f5d d3bd fdd3 813d c8ae e33c
00000190: 6e30 b8bd a788 1b3d 0bc8 013d ce54 a6bd
000001a0: fa1b adbd 03dc f8bc 80b9 843d 7cab 243e
000001b0: 1297 2d3e b0b6 21bc 543e 56bd a3e3 8c3c
000001c0: dd6c 18be 65d7 70bb a101 a33c 3d4c 1d3d
000001d0: 586c 073d 707d b93d 4837 803c 08d3 f43d
000001e0: 7b59 9bbd 3e39 5abd 792a ac3d c895 a9bc
000001f0: 7193 133d dea1 153b 5888 3b3d 575d c73c
00000200: b561 f2bd e396 9d3b 1b73 023c 1ca5 083e
00000210: 99a6 683d a79a 4cbd 088e 71bd cdc4 103e
00000220: 85e6 82bc 29cd 6ebd 1336 8ebd b799 2b3d
00000230: 0c94 853c 8c00 09bd 551a 12bc e573 bebd
00000240: fd35 cd3d c50a 9a3c 9e4f ad3d 4696 683d
00000250: aca1 d13d 955c 66bd ec11 11bd 3315 30bc
00000260: cbde c3bd e4f9 553d 9067 433c 132d b7bc
00000270: b331 c13c 0ac6 54bd 6a0c 89bd 6b99 0dbd
00000280: dfd7 703d deaf e53c 1922 90bd 9dc8 0c3e
00000290: 0e8d c73d 9461 d4bd e5a5 a939 7387 6b3d
000002a0: dcee 9e3d 76a4 a33d ba1b 023d 987a dd3d
000002b0: 6435 f8bd 508c 05bd 60b1 dbbd 86cc 833b
000002c0: daad abbd f052 cdba aa59 abbd 461b 03bd
000002d0: 1cae 183d f9cb 9cbd c8f5 e8bd 9599 a1bd
000002e0: 4989 ae3d a0e2 453c a2d9 aebb 1619 0c3e
000002f0: d63e 19bd dcb6 e03d aedf f73d 3d9c 8dbc
00000300: a804 123e 1251 523c e859 05bd 836e 76bd
00000310: 4e47 6cbd 8113 a2bc 73ce 6d3d 9c5d 863d
00000320: 5a5f b53d 2d66 3e3c eddc 68bd 938c fc3d
00000330: 36de 6f3d 56c1 413d 4792 a53d 34df 7cbd
00000340: 08c3 abbd b2c4 523c a881 cfbd 03c1 68bc
00000350: de24 303d 5c8a dbbc 9438 d13d 9356 60bd
00000360: c2e2 103d f093 7bbd 15f5 b43c 356d 373d
00000370: 45cd 7dbd 6f04 15be 2089 5cbd 5cfd 623d
00000380: 7eee fabd 6994 f1bd dd1a 143e 8c98 5abb
00000390: a9c4 11be ad7b 213e 7a54 d4bc 863c 84bd
000003a0: 9ba8 11be 0755 e9bb fe8c 3cbc 6d3a 003e
000003b0: b416 bc3d 36dd 013e 26db 0b3d 9ad2 3bbb
000003c0: c7c7 95bd f795 a03d afcd f1bd 908a 0c3e
000003d0: c25d 6bbb 40ef 3abc 72ec 06be 06ac 03bc
000003e0: c25d 943b 9fb9 b23d b584 e2bd 6387 24be
000003f0: aae0 0f3e c80b df3d 5382 ce3d 440b 533d

lstm.weight_hh_l1 f4 [200, 50]
-0.09548389 0.008918623 -0.13261534 -0.04418336 0.0349498 -0.10393719 -0.052603357 -0.0069658114
-0.12461657 0.060420364 -0.0036524106 -0.005441887 -0.09518626 -0.061531063 0.12237698 0.13833407
-0.05559938 0.004609518 0.04719267 -0.055359535 0.006401262 0.070913844 -0.10146106 -0.01856854
0.034843393 -0.06884118 0.09205067 0.11761914 0.109777495 -0.10200387 -0.11648477 0.12573694
0.09463416 -0.01663742 0.076609485 -0.067564875 0.023965916 0.13637668 -0.14578211 -0.11294284
-0.14866054 -0.04387748 0.088935 0.036776908 -0.031555682 0.0051688794 -0.08198548 0.08058075
-0.050467234 -0.0679175 0.08266097 -8.168873e-05 -0.06433951 -0.061774366 -0.1053155 0.12897485
0.10229615 -0.06942838 -0.069691084 -0.053444218 0.12944508 -0.12275574 0.023848092 -0.04328649
0.085019365 0.083498634 0.036869116 -0.08050077 0.13750163 -0.053631347 -0.09276776 0.028338794
-0.09388194 0.006047693 0.12787902 0.12054005 0.15179765 -0.053134263 0.008368659 -0.02033184
-0.11481323 -0.11963835 0.09905702 0.056173567 -0.11384405 0.077307336 0.12511905 0.08068069
-0.06853223 0.08547568 -0.10141892 -0.05330679 -0.05092376 -0.099305004 0.12446381 0.08255684
-0.021030856 -0.07132483 -0.11345428 0.06712987 0.04687538 0.013203013 -0.0039059084 0.13859972
0.06969857 -0.09109027 -0.0884144 0.015271532 -0.09986213 -0.119016364 0.034047514 -0.071369685
-0.11412016 -0.05733756 -0.04034253 0.060533088 -0.034353435 -0.051248647 0.0075708316 0.021570249
0.025147023 -0.0671389 0.07920434 0.13177815 -0.10156227 0.14623192 0.014385399 0.017902113
-0.036520626 0.03355497 -0.0903443 0.14048325 -0.028023664 -0.03333102 -0.07848488 0.042051177
0.046754967 -0.11521043 -0.016960192 -0.062326193 -0.04305573 -0.06799035 0.037600167 -0.09258132
0.036122587 -0.092729785 0.12694451 0.1102282 -0.096278176 -0.07235852 -0.12145557 -0.12398542
-0.10784404 -0.05596633 0.022538295 0.13774586 -0.053055458 0.11294181 -0.057807818 -0.12907259
-0.12725617 0.019815495 -0.13232182 0.096072406 0.017291073 -0.065326676 -0.032388736 0.009483012
-0.020608246 -0.06831419 0.10292135 0.023912733 -0.09605242 -0.1405637 0.079066515 0.0850494
0.12260633 -0.06355052 -0.105983414 -0.111517824 0.044740185 -0.116692565 -0.059497405 -0.07408492
0.124360085 0.01923344 0.12821457 0.10560292 -0.020806784 0.05037988 -0.05886184 -0.07456855
0.08929892 -0.12573275 -0.022632184 -0.1304574 0.024553956 0.018649861 0.06571524 0.012621904
0.047598362 -0.064658284 -0.13726224 0.082113065 0.04434101 -0.13090673 0.031306256 0.050492365
0.024833243 0.012512086 0.12155195 0.019784963 -0.095047824 0.00771101 0.034964915 0.007068344
-0.12789556 0.14044061 -0.041157987 0.04418815 -0.12952687 -0.020812316 0.040229455 0.025755184
0.13153411 -0.07880025 0.015342321 -0.10782641 0.103970304 0.09770594 0.08124215 -0.030364037
0.1322649 -0.12413314 -0.0451864 0.096115835 0.13606308 0.1319734 -0.032307334 0.11217394
-0.02778671 -0.087711535 0.015510807 0.13225889 -0.00076802244 -0.13860132 0.050436858 -0.047767695
-0.059770625 -0.13115068 -0.098074675 0.082436614 -0.049676042 -0.049297303 0.011912057 -0.059134416
00000000: 0f8d c3bd 6b1f 123c 51cc 07be 9cf9 34bd
00000010: 8627 0f3d 05dd d4bd 9e76 57bd 7641 e4bb
00000020: f936 ffbd 587b 773d 485d 6fbb db51 b2bb
00000030: 04f1 c2bd ff07 7cbd c8a0 fa3d 72a7 0d3e
00000040: 2dbc 63bd 710b 973b 1a4d 413d aec0 62bd
00000050: adc1 d13b 473b 913d d1ca cfbd 0d1d 98bc
00000060: f2b7 0e3d 9bfc 8cbd 1085 bc3d 4ee2 f03d
00000070: 06d3 e03d 68e7 d0bd 918f eebd 2fc1 003e
00000080: 8ecf c13d 334b 88bc 6fe5 9c3d 745f 8abd
00000090: 2b54 c43c 54a6 0b3e e847 15be 934e e7bd
000000a0: 783a 18be dfb8 33bd 8e23 b63d 62a3 163d
000000b0: 8840 01bd b45f a93b 01e8 a7bd 8507 a53d
000000c0: bbb6 4ebd 5518 8bbd 284a a93d 4e50 abb8
000000d0: 6fc4 83bd 1e07 7dbd a7af d7bd fc11 043e
000000e0: a580 d13d 7730 8ebd 33ba 8ebd 53e8 5abd
000000f0: 408d 043e 5d67 fbbd 135d c33c 2d4d 31bd
00000100: a21e ae3d 5501 ab3d 1204 173d 96dd a4bd
00000110: 3acd 0c3e 8bac 5bbd 06fd bdbd c226 e83c
00000120: 2d45 c0bd ba2b c63b b8f2 023e b4dd f63d
00000130: d870 1b3e 50a3 59bd b31c 093c f58e a6bc
00000140: 3323 ebbd f404 f5bd 68de ca3d 4116 663d
00000150: 1227 e9bd 4f53 9e3d 351f 003e eb3b a53d
00000160: a05a 8cbd e00d af3d b9b4 cfbd 3858 5abd
00000170: 6f95 50bd 6c60 cbbd e2e6 fe3d 8f13 a93d
00000180: e748 acbc c112 92bd b85a e8bd 637b 893d
00000190: 6600 403d 7351 583c 45fa 7fbb 16ed 0d3e
000001a0: 20be 8e3d 898d babd 9c12 b5bd 7335 7a3c
000001b0: 8484 ccbd dabe f3bd 6875 0b3d 452a 92bd
000001c0: d5b7 e9bd cada 6abd 353e 25bd 8bf1 773d
000001d0: 30b6 0cbd 1aea 51bd bd14 f83b 17b4 b03c
000001e0: 2101 ce3c 1f80 89bd e335 a23d daf0 063e
000001f0: e1ff cfbd d2bd 153e bdb0 6b3c 74a7 923c
00000200: a796 15bd f070 093d 6f06 b9bd d7da 0f3e
00000210: e291 e5bc 1c86 08bd aebc a0bd db3d 2c3d
00000220: 2382 3f3d 72f3 ebbd 1af0 8abc c049 7fbd
00000230: 355b 30bd 863e 8bbd a202 1a3d 469b bdbd
00000240: 47f5 133d 1de9 bdbd befd 013e 53bf e13d
00000250: 7e2d c5bd b430 94bd b3bd f8bd 11ec fdbd
00000260: 56dd dcbd f33c 65bd 3ba2 b83c 400d 0d3e
00000270: ae50 59bd 094e e73d e4c7 6cbd 9b2b 04be
00000280: 714f 02be 1b54 a23c 5f7f 07be 9cc1 c43d
00000290: 02a6 8d3c fec9 85bd 0daa 04bd a35e 1b3c
000002a0: a0d2 a8bc 4fe8 8bbd 6ec8 d23d a3e4 c33c
000002b0: 22b7 c4bd eeef 0fbe a0ed a13d 612e ae3d
000002c0: 0719 fb3d c626 82bd d50d d9bd 7563 e4bd
000002d0: 7c41 373d 83fc eebd 8db3 73bd d6b9 97bd
000002e0: 80b0 fe3d 728f 9d3c ae4a 033e 5846 d83d
000002f0: fd72 aabc 225b 4e3d 1d19 71bd 65b7 98bd
00000300: 5ae2 b63d 16c0 00be 2167 b9bc a096 05be
00000310: 6125 c93c 98c7 983c b695 863d 1acc 4e3c
00000320: 80f6 423d 906b 84bd 798e 0cbe e52a a83d
00000330: eb9e 353d 6a0c 06be fd3a 003d 15d1 4e3d
00000340: 166f cb3c 7eff 4c3c 3bf0 f83d 1314 a23c
00000350: 6fa8 c2bd a4ac fc3b 5f37 0f3d 919d e73b
00000360: 0ef7 02be aacf 0f3e 4795 28bd a2fe 343d
00000370: b1a2 04be 977e aabc a4c7 243d 89fc d23c
00000380: e1b0 063e 0762 a1bd 5c5e 7b3c 18d4 dcbd
00000390: 62ee d43d 0d1a c83d 4962 a63d 00be f8bc
000003a0: 7370 073e 8439 febd 6015 39bd 61d8 c43d
000003b0: 1f54 0b3e 0924 073e b254 04bd 73bb e53d
000003c0: f4a0 e3bc 1ba2 b3bd 0a21 7e3c e06e 073e
000003d0: 1d55 49ba 81ed 0dbe e196 4e3d 0fa8 43bd
000003e0: 0bd2 74bd 5d4c 06be 60db c8bd 87d4 a83d
000003f0: 1b79 4bbd f8eb 49bd ca2a 433c ee36 72bd

lstm.bias_ih_l1 f4 [200]
-0.058206175 0.089365035 0.025651366 -0.1358485 -0.034105215 0.060860936 0.11860906 0.07383122
-0.13434812 0.032235138 0.057862587 -0.085901015 0.13627689 0.0047635003 0.11679255 0.01713691
0.07217831 0.031068647 -0.069213904 -0.052959096 0.068336375 0.017494408 0.017473718 -0.14064623
0.12682544 -0.11320607 -0.123558305 0.1423411 0.13808367 0.03400635 -0.025444329 0.13003823
0.03145612 0.017447788 -0.065571204 -3.642119e-05 0.0096680615 0.13257511 -0.07995053 0.10840359
-0.050723292 -0.011218653 0.14259717 0.07316418 0.006119013 0.12987702 -0.09362494 0.014567142
0.11423644 -0.10876465 0.13705897 0.07281128 0.08045861 -0.06411119 -0.0047550933 -0.058994718
0.057965655 0.107839644 -0.035113525 -0.10179181 -0.10859814 0.056651246 0.10858105 0.011773749
0.12679899 0.08585822 -0.014994285 0.07042048 0.04428241 0.013396566 0.089977324 0.079037
-0.0001008073 -0.044818226 0.056295868 -0.025499346 0.05139094 -0.023719028 -0.015409503 -0.10260432
-0.046231702 0.11953996 -0.12182728 0.08559492 -0.110482275 0.14785524 0.089297615 -0.03549887
0.15020628 -0.0101806475 0.043150086 -0.030162489 0.0017664793 0.13435219 0.07366559 0.017418971
0.11069873 0.06990258 -0.113991275 0.11296659 0.109519 -0.09318931 -0.041422673 -0.10420508
-0.04463647 0.023102382 0.06286909 0.019648146 0.06604434 -0.08643575 0.06000086 -0.049422037
0.08836148 0.01366465 -0.019105762 0.119513586 -0.035601526 0.10105757 -0.061179966 0.03282189
-0.142374 -0.10422959 -0.085077204 -0.074807756 -0.10366855 0.0119542815 0.06757016 -0.00277423
-0.054494947 -0.112995155 0.026588975 0.11851746 0.090705425 -0.10067693 0.112457894 -0.1364818
-0.11987144 0.0020308127 0.00070736365 -0.004035201 -0.09520971 0.030220184 0.0068407017 -0.026385536
-0.03787935 0.08906274 0.032805517 -0.043221667 0.11786094 0.12086566 0.06463703 0.10284297
-0.06946934 0.07123591 0.028655872 -0.13308491 0.004655688 0.01983381 -0.13082941 0.025507545
-0.10239728 -0.0744093 -0.12658466 -0.001469592 -0.12329874 -0.017491201 -0.10219632 0.023945203
-0.07610673 0.13128415 0.14431123 -0.061352424 -0.09745669 0.07649894 0.011161338 0.011080937
-0.08081425 0.09776664 -0.03070384 0.09075162 -0.089328915 -0.08344993 0.0024163523 0.048641484
-0.045846984 0.069510035 -0.093895175 0.07420879 -0.043046992 -0.05379738 0.07178963 0.059586003
0.09084196 0.11386921 0.08965607 -0.12841266 -0.0926636 -0.026785925 -0.02922452 0.053548004
00000000: 9969 6ebd 0405 b73d d022 d23c df1b 0bbe
00000010: e9b1 0bbd 5149 793d 4fe9 f23d d334 973d
00000020: 8e92 09be fe08 043d 5201 6d3d dfec afbd
00000030: 2b8c 0b3e 2317 9c3b ef30 ef3d b562 8c3c
00000040: 39d2 933d ad83 fe3c 05c0 8dbd a3eb 58bd
00000050: f1f3 8b3d 6f50 8f3c 0b25 8f3c 9105 10be
00000060: 87de 013e 96d8 e7bd 230c fdbd dec1 113e
00000070: ce65 0d3e 3e4a 0b3d a070 d0bc be28 053e
00000080: 22d8 003d aaee 8e3c 324a 86bd f4c2 18b8
00000090: ca66 1e3c c5c1 073e 1abd a3bd b402 de3d
000000a0: 3ac3 4fbd 71ce 37bc fe04 123e 1ad7 953d
000000b0: 0082 c83b 7bfe 043e 6fbe bfbd 06ab 6e3c
000000c0: cbf4 e93d 00c0 debd 3059 0c3e 151e 953d
000000d0: 7cc7 a43d ba4c 83bd 9dd0 9bbb 72a4 71bd
000000e0: 656d 6d3d 08db dc3d 33d3 0fbd 3978 d0bd
000000f0: b468 debd 230b 683d be5f de3d afe6 403c
00000100: 98d7 013e 6fd6 af3d 97aa 75bc 9d38 903d
00000110: 7961 353d 457d 5b3c 0846 b83d 27de a13d
00000120: 8268 d3b8 5193 37bd 7f96 663d 01e4 d0bc
00000130: 4e7f 523d 684e c2bc 2478 7cbc 3722 d2bd
00000140: 745d 3dbd 5ed1 f43d 9580 f9bd 644c af3d
00000150: 8844 e2bd 5d67 173e abe1 b63d 4367 11bd
00000160: adcf 193e bbcc 26bc 25be 303d 5317 f7bc
00000170: 3689 e73a 9f93 093e fcdd 963d 3bb2 8e3c
00000180: 04b6 e23d 1529 8f3d 4274 e9bd 075b e73d
00000190: 7f4b e03d 09da bebd d2aa 29bd 7969 d5bd
000001a0: bbd4 36bd 3541 bd3c 82c1 803d 26f5 a03c
000001b0: 4142 873d 3a05 b1bd 76c3 753d c36e 4abd
000001c0: ddf6 b43d b2e1 5f3c b083 9cbc 8ac3 f43d
000001d0: e8d2 11bd 45f7 ce3d d897 7abd 3f70 063d
000001e0: 7dca 11be 5376 d5bd f53c aebd cf34 99bd
000001f0: 2d50 d4bd e4db 433c 3962 8a3d dbcf 35bb
00000200: 1836 5fbd 016a e7bd 1fd1 d93c 48b9 f23d
00000210: c4c3 b93d b52f cebd 5350 e63d e3c1 0bbe
00000220: 287f f5bd 6217 053b 5f6e 393a b839 84bb
00000230: 4ffd c2bd 5290 f73c f727 e03b 7b26 d8bc
00000240: 6127 1bbd 8766 b63d 145f 063d 3409 31bd
00000250: 1461 f13d 6a88 f73d 6b60 843d 569f d23d
00000260: f145 8ebd 22e4 913d b8bf ea3c 6947 08be
00000270: be8e 983b 847a a23c 25f8 05be 33f5 d03c
00000280: aab5 d1bd e763 98bd 699f 01be 539f c0ba
00000290: 0d84 fcbd b549 8fbc 4e4c d1bd bb28 c43c
000002a0: d8dd 9bbd 5a6f 063e 53c6 133e ae4c 7bbd
000002b0: 6097 c7bd 7aab 9c3d 0bde 363c d28c 353c
000002c0: f181 a5bd e039 c83d 9f86 fbbc fcdb b93d
000002d0: 14f2 b6bd cce7 aabd aa5b 1e3b 4b3c 473d
000002e0: 0cca 3bbd 475b 8e3d 1d4c c0bd c7fa 973d
000002f0: 0b52 30bd a45a 5cbd 7106 933d 7410 743d
00000300: 590b ba3d 4334 e93d 9a9d b73d 9c7e 03be
00000310: 6ac6 bdbd 286e dbbc 4368 efbc 2755 5b3d

lstm.bias_hh_l1 f4 [200]
-0.021834902 -0.023940932 -0.073814265 0.05375168 0.064330935 0.110457554 -0.0011486888 -0.046495713
0.116052985 0.083818465 -0.02331763 -0.14866985 -0.007832537 0.13606657 0.12844877 0.04394784
-0.00485033 -0.13224706 -0.14353228 0.07244189 -0.11309505 0.10491222 0.052866463 -0.04133165
-0.05851741 -0.04638406 -0.06935098 0.11623525 -0.025459314 0.12386971 -0.125756 0.0949963
-0.10140722 -0.122738265 -0.12132537 -0.013567456 0.11928459 -0.116538644 0.043777492 0.053958062
-0.055408116 -0.13723579 0.081388764 -0.0037799785 -0.053435974 0.03472324 0.08398892 0.027711637
0.13087256 -0.1373375 0.023514584 -0.05620136 -0.124645524 0.09837391 0.1004986 0.1114552
-0.04172893 0.037080284 0.12647036 0.0069191935 0.09106292 0.0015716329 0.08579522 -0.07322139
-0.11633444 0.12693854 -0.12994407 -0.03749166 -0.06836451 0.13447706 -0.07223971 -0.037533592
0.04344301 -0.057659287 -0.0644143 -0.11887179 0.017067784 -0.09486235 0.13108444 0.004955127
-0.022815436 -0.09256623 -0.06175805 -0.14149433 0.009024348 -0.07426748 -0.116604134 0.02807099
0.1128266 -0.0005072584 -0.105690375 -0.07316215 -0.0458157 0.026367009 0.107830256 -0.004890084
0.014923352 0.109665655 0.09368665 0.053533796 -0.032519754 0.112343036 0.03634174 0.062029954
0.025465496 0.072459854 0.09923089 -0.07819907 -0.04886501 0.094199896 0.12782463 0.01851734
0.11487507 0.10640444 0.03412384 0.10840711 0.07745188 0.06387808 0.14053236 -0.08060181
0.047099937 -0.0029603094 -0.036551856 0.090551876 -0.032255676 0.090451024 0.008198631 -0.09484952
-0.12703612 -0.13872918 -0.11023735 0.08676513 -0.058183398 -0.10443911 0.12345569 0.09646036
0.06748368 -0.11602455 0.079389036 -0.13663903 -0.12716596 -0.0025282393 -0.06887326 0.038987048
0.09253107 -0.056505926 0.010981433 -0.020863276 -0.11457666 0.020402499 0.05971597 -0.008044575
-0.08345703 0.124924116 -0.04916085 0.021682683 -0.095441476 -0.08817452 -0.079325445 -0.050791316
-0.122802205 -0.10377215 -0.0861931 -0.08958205 -0.079917155 -0.03465871 -0.08743885 0.11123147
-0.057879977 -0.09751339 -0.115230195 -0.122554794 -0.083326004 0.011076054 -0.08076479 -0.15510812
0.093627624 -0.002020237 -0.099653006 0.0011593074 0.095791385 0.0657459 0.11136691 -0.019816652
-0.08218405 0.1340404 0.087574616 0.0032536953 0.0036808844 0.14520842 0.04488198 0.033087276
-0.044772137 0.09883074 -0.033361014 0.032191746 -0.06851952 0.0042105196 0.026682546 -0.10194683
00000000: 1cdf b2bc c61f c4bc ef2b 97bd b92a 5c3d
00000010: f0bf 833d 9237 e23d 9a8f 96ba 4a72 3ebd
00000020: 30ad ed3d 04a9 ab3d 9d04 bfbc e93c 18be
00000030: 0b54 00bc 0955 0b3e 1388 033e a602 343d
00000040: 84ef 9ebb c66b 07be 20fa 12be 6a5c 943d
00000050: 619e e7bd 38dc d63d 818a 583d 604b 29bd
00000060: f4af 6fbd 36fd 3dbd e307 8ebd bf0c ee3d
00000070: 0d90 d0bc 67af fd3d 2ec6 00be 6c8d c23d
00000080: 97ae cfbd 335e fbbd 7079 f8bd 094a 5ebc
00000090: 7b4b f43d d0ab eebd 0750 333d 2103 5d3d
000000a0: 9ff3 62bd 8a87 0cbe 27af a63d 84b9 77bb
000000b0: aedf 5abd f539 0e3d 6202 ac3d 8403 e33c
000000c0: 7503 063e 34a2 0cbe a8a1 c03c 6633 66bd
000000d0: 2746 ffbd 4378 c93d 36d2 cd3d a042 e43d
000000e0: f4eb 2abd 7fe1 173d 7281 013e 67ba e23b
000000f0: 327f ba3d 40ff cd3a 68b5 af3d 19f5 95bd
00000100: c040 eebd 2dfc 013e 0f10 05be db90 19bd
00000110: b102 8cbd 5bb4 093e 6af2 93bd d3bc 19bd
00000120: 4cf1 313d 252c 6cbd a5eb 83bd 0e73 f3bd
00000130: bdd1 8b3c 3147 c2bd 003b 063e 9e5e a23b
00000140: 70e7 babc 5d93 bdbd 02f6 7cbd e4e3 10be
00000150: dcda 133c 8c19 98bd 26ce eebd 22f5 e53c
00000160: a211 e73d 89f9 04ba 3274 d8bd 0ad6 95bd
00000170: 3ea9 3bbd a0ff d73c 1cd6 dc3d ff3c a0bb
00000180: 1381 743c 6398 e03d c9de bf3d 4146 5b3d
00000190: 6f33 05bd 1b14 e63d 14db 143d 1f13 7e3d
000001a0: 049d d03c d565 943d 9139 cb3d d626 a0bd
000001b0: ad26 48bd e0eb c03d 76e4 023e adb1 973c
000001c0: 9f43 eb3d 92ea d93d 71c5 0b3d 8c04 de3d
000001d0: 179f 9e3d 83d2 823d b7e7 0f3e 9012 a5bd
000001e0: ddeb 403d c001 42bb 66b7 15bd 4373 b93d
000001f0: 871e 04bd 633e b93d 8d53 063c 7740 c2bd
00000200: c215 02be 060f 0ebe 1fc4 e1bd ebb1 b13d
00000210: b751 6ebd 2ce4 d5bd 56d6 fc3d 028d c53d
00000220: e234 8a3d 479e edbd b896 a23d 1aeb 0bbe
00000230: cb37 02be d1b0 25bb 6c0d 8dbd e2b0 1f3d
00000240: ee80 bd3d c272 67bd 78eb 333c 76e9 aabc
00000250: 2ba7 eabd 2423 a73c bc98 743d 65cd 03bc
00000260: 85eb aabd 37d8 ff3d e35c 49bd e29f b13c
00000270: d276 c3bd d894 b4bd 6175 a2bd 8e0a 50bd
00000280: b97f fbbd 7e86 d4bd 0286 b0bd cb76 b7bd
00000290: 9bab a3bd 4bf6 0dbd 2413 b3bd 53cd e33d
000002a0: 8e13 6dbd 1ab5 c7bd cffd ebbd 02fe fabd
000002b0: d3a6 aabd 5678 353c 0368 a5bd aad4 1ebe
000002c0: d7bf bf3d f465 04bb e016 ccbd e7f3 973a
000002d0: 462e c43d c9a5 863d 5614 e43d 8856 a2bc
000002e0: 1c50 a8bd e341 093e 525a b33d f33b 553b
000002f0: fe3a 713b 84b1 143e 2bd6 373d 8686 073d
00000300: fd62 37bd c567 ca3d 8fa5 08bd 7edb 033d
00000310: f653 8cbd 66f8 893b 5b95 da3c 80c9 d0bd

fc.weight f4 [1, 50]
-0.07150472 0.07547385 0.07320411 0.060110748 0.046574667 0.08771942 0.061167527 0.032347996
-0.02704516 0.123792745 -0.06098986 0.038071226 0.044361208 0.095562086 0.09470786 -0.08478437
0.12303738 0.058961686 -0.0018986441 -0.13504204 -0.096751586 0.03399605 0.09449933 -0.038645968
-0.0804335 -0.07812416 -0.02569197 -0.032822203 -0.034684863 -0.14502315 0.10425558 -0.10282595
0.0067432146 0.066434845 -0.028377907 -0.061521832 0.13194184 0.11538442 -0.06547375 -0.039024
-0.1386682 -0.014022941 -0.041985746 0.11080758 0.123800494 -0.00045011553 0.0022384857 -0.13196814
0.07712815 -0.087881036
00000000: 1171 92bd 0992 9a3d 09ec 953d b036 763d
00000010: 14c5 3e3d 3da6 b33d cd8a 7a3d 557f 043d
00000020: d08d ddbc 0d87 fd3d 81d0 79bd 93f0 1b3d
00000030: 19b4 353d 0eb6 c33d 32f6 c13d 6ea3 adbd
00000040: 06fb fb3d cf81 713d eddb f8ba 7648 0abe
00000050: b225 c6bd 713f 0b3d dd88 c13d 3c4b 1ebd
00000060: 52ba a4bd 8fff 9fbd f777 d2bc 9370 06bd
00000070: b711 0ebd f380 14be f383 d53d 6996 d2bd
00000080: 2ff6 dc3b fe0e 883d c978 e8bc 51fe 7bbd
00000090: c31b 073e ab4e ec3d 1a17 86bd a1d7 1fbd
000000a0: 09ff 0dbe 7ac0 65bc 3ff9 2bbd 16ef e23d
000000b0: 1d8b fd3d 7cfd ebb9 8fb3 123b a822 07be
000000c0: 5df5 9d3d f9fa b3bd
